…
                    )
                )
    names = []
    params = []
    for name,param in model.named_parameters():
        names.append(name)
        params.append(param.detach().numpy())
    nn1 = dict({'Wb':params,'names':names})
    for name,param in model.named_buffers():
        names.append(name)
        params.append(param.detach().numpy())
    savemat("odecnn_cifar_small.mat",nn1)
Namespace(adjoint=False, batch_size=128, data_aug=False, debug=False, downsampling_method='conv', gpu=0, lr=0.01, nepochs=100, network='odenet', save='../logs/cifarsmall', test_batch_size=1000, tol=0.001)
Sequential(
  (0): Conv2d(3, 16, kernel_size=(3, 3), stride=(1, 1))
  (1): BatchNorm2d(16, eps=16, momentum=0.1, affine=True, track_running_stats=True)
  (2): ReLU(inplace=True)
  (3): Conv2d(16, 16, kernel_size=(4, 4), stride=(2, 2), padding=(1, 1))
  (4): BatchNorm2d(16, eps=16, momentum=0.1, affine=True, track_running_stats=True)
  (5): ReLU(inplace=True)
  (6): Conv2d(16, 16, kernel_size=(4, 4), stride=(2, 2), padding=(1, 1))
  (7): BatchNorm2d(16, eps=16, momentum=0.1, affine=True, track_running_stats=True)
  (8): ReLU(inplace=True)
  (9): Flatten()
  (10): ODEBlock(
    (odefunc): ODEfunc(
      (fc1): Linear(in_features=784, out_features=16, bias=True)
      (fc2): Linear(in_features=16, out_features=784, bias=True)
    )
  )
  (11): Linear(in_features=784, out_features=10, bias=True)
)
Number of parameters: 42506
Epoch 0000 | Time 0.440 (0.440) | NFE-F 26.0 | NFE-B 0.0 | Train Acc 0.1000 | Test Acc 0.1000
Epoch 0001 | Time 0.391 (0.221) | NFE-F 20.7 | NFE-B 0.0 | Train Acc 0.1000 | Test Acc 0.1000
Epoch 0002 | Time 0.869 (0.193) | NFE-F 20.3 | NFE-B 0.0 | Train Acc 0.1000 | Test Acc 0.1000
Epoch 0003 | Time 0.357 (0.181) | NFE-F 20.2 | NFE-B 0.0 | Train Acc 0.1000 | Test Acc 0.1000
…
    nn1 = dict({'Wb':params,'names':names})
    for name,param in model.named_buffers():
        names.append(name)
        params.append(param.detach().numpy())
    savemat("odecnn_cifar_small.mat",nn1)
Namespace(adjoint=False, batch_size=128, data_aug=False, debug=False, downsampling_method='conv', gpu=0, lr=0.01, nepochs=200, network='odenet', save='../logs/cifarsmall', test_batch_size=1000, tol=0.001)
Namespace(adjoint=False, batch_size=128, data_aug=False, debug=False, downsampling_method='conv', gpu=0, lr=0.01, nepochs=200, network='odenet', save='../logs/cifarsmall', test_batch_size=1000, tol=0.001)
Sequential(
  (0): Conv2d(3, 16, kernel_size=(3, 3), stride=(1, 1))
  (1): BatchNorm2d(16, eps=16, momentum=0.1, affine=True, track_running_stats=True)
  (2): ReLU(inplace=True)
  (3): Conv2d(16, 16, kernel_size=(4, 4), stride=(2, 2), padding=(1, 1))
  (4): BatchNorm2d(16, eps=16, momentum=0.1, affine=True, track_running_stats=True)
  (5): ReLU(inplace=True)
  (6): Conv2d(16, 16, kernel_size=(4, 4), stride=(2, 2), padding=(1, 1))
  (7): BatchNorm2d(16, eps=16, momentum=0.1, affine=True, track_running_stats=True)
  (8): ReLU(inplace=True)
  (9): Flatten()
  (10): ODEBlock(
    (odefunc): ODEfunc(
      (fc1): Linear(in_features=784, out_features=16, bias=True)
      (fc2): Linear(in_features=16, out_features=784, bias=True)
    )
  )
  (11): Linear(in_features=784, out_features=10, bias=True)
)
Sequential(
  (0): Conv2d(3, 16, kernel_size=(3, 3), stride=(1, 1))
  (1): BatchNorm2d(16, eps=16, momentum=0.1, affine=True, track_running_stats=True)
  (2): ReLU(inplace=True)
  (3): Conv2d(16, 16, kernel_size=(4, 4), stride=(2, 2), padding=(1, 1))
  (4): BatchNorm2d(16, eps=16, momentum=0.1, affine=True, track_running_stats=True)
  (5): ReLU(inplace=True)
  (6): Conv2d(16, 16, kernel_size=(4, 4), stride=(2, 2), padding=(1, 1))
  (7): BatchNorm2d(16, eps=16, momentum=0.1, affine=True, track_running_stats=True)
  (8): ReLU(inplace=True)
  (9): Flatten()
  (10): ODEBlock(
    (odefunc): ODEfunc(
      (fc1): Linear(in_features=784, out_features=16, bias=True)
      (fc2): Linear(in_features=16, out_features=784, bias=True)
    )
  )
  (11): Linear(in_features=784, out_features=10, bias=True)
)
Number of parameters: 42506
Number of parameters: 42506
Epoch 0000 | Time 0.340 (0.340) | NFE-F 26.0 | NFE-B 0.0 | Train Acc 0.1000 | Test Acc 0.1000
Epoch 0000 | Time 0.340 (0.340) | NFE-F 26.0 | NFE-B 0.0 | Train Acc 0.1000 | Test Acc 0.1000
Epoch 0001 | Time 0.363 (0.182) | NFE-F 20.4 | NFE-B 0.0 | Train Acc 0.1000 | Test Acc 0.1000
Epoch 0001 | Time 0.363 (0.182) | NFE-F 20.4 | NFE-B 0.0 | Train Acc 0.1000 | Test Acc 0.1000
…
    nn1 = dict({'Wb':params,'names':names})
    for name,param in model.named_buffers():
        names.append(name)
        params.append(param.detach().numpy())
    savemat("odecnn_cifar_mid.mat",nn1)
Namespace(adjoint=False, batch_size=128, data_aug=False, debug=False, downsampling_method='conv', gpu=0, lr=0.01, nepochs=100, network='odenet', save='../logs/cifarmid', test_batch_size=1000, tol=0.001)
Namespace(adjoint=False, batch_size=128, data_aug=False, debug=False, downsampling_method='conv', gpu=0, lr=0.01, nepochs=100, network='odenet', save='../logs/cifarmid', test_batch_size=1000, tol=0.001)
Sequential(
  (0): Conv2d(3, 36, kernel_size=(3, 3), stride=(1, 1))
  (1): BatchNorm2d(36, eps=36, momentum=0.1, affine=True, track_running_stats=True)
  (2): ReLU(inplace=True)
  (3): Conv2d(36, 24, kernel_size=(4, 4), stride=(2, 2), padding=(1, 1))
  (4): BatchNorm2d(24, eps=24, momentum=0.1, affine=True, track_running_stats=True)
  (5): ReLU(inplace=True)
  (6): Conv2d(24, 16, kernel_size=(4, 4), stride=(2, 2), padding=(1, 1))
  (7): BatchNorm2d(16, eps=16, momentum=0.1, affine=True, track_running_stats=True)
  (8): ReLU(inplace=True)
  (9): Flatten()
  (10): ODEBlock(
    (odefunc): ODEfunc(
      (fc1): Linear(in_features=2250, out_features=16, bias=True)
      (fc2): Linear(in_features=16, out_features=2250, bias=True)
    )
  )
  (11): Linear(in_features=2250, out_features=10, bias=True)
)
Sequential(
  (0): Conv2d(3, 36, kernel_size=(3, 3), stride=(1, 1))
  (1): BatchNorm2d(36, eps=36, momentum=0.1, affine=True, track_running_stats=True)
  (2): ReLU(inplace=True)
  (3): Conv2d(36, 24, kernel_size=(4, 4), stride=(2, 2), padding=(1, 1))
  (4): BatchNorm2d(24, eps=24, momentum=0.1, affine=True, track_running_stats=True)
  (5): ReLU(inplace=True)
  (6): Conv2d(24, 16, kernel_size=(4, 4), stride=(2, 2), padding=(1, 1))
  (7): BatchNorm2d(16, eps=16, momentum=0.1, affine=True, track_running_stats=True)
  (8): ReLU(inplace=True)
  (9): Flatten()
  (10): ODEBlock(
    (odefunc): ODEfunc(
      (fc1): Linear(in_features=2250, out_features=16, bias=True)
      (fc2): Linear(in_features=16, out_features=2250, bias=True)
    )
  )
  (11): Linear(in_features=2250, out_features=10, bias=True)
)
Number of parameters: 117944
Number of parameters: 117944
/home/manzand/Documents/Python/neuralODE_examples/cifar/odenet_cifar_example_small.py
#!/usr/bin/env python3
# -*- coding: utf-8 -*-
"""
Created on Thu Feb  4 09:04:31 2021

@author: manzand
"""

#!/usr/bin/env python3
# -*- coding: utf-8 -*-
"""
Created on Tue Jan 19 15:10:31 2021

@author: manzand
…
                    )
                )
    names = []
    params = []
    for name,param in model.named_parameters():
        names.append(name)
        params.append(param.detach().numpy())
    nn1 = dict({'Wb':params,'names':names})
    for name,param in model.named_buffers():
        names.append(name)
        params.append(param.detach().numpy())
    savemat("odecnn_cifar_small.mat",nn1)
Namespace(adjoint=False, batch_size=128, data_aug=False, debug=False, downsampling_method='conv', gpu=0, lr=0.01, nepochs=200, network='odenet', save='../logs/cifarsmall', test_batch_size=1000, tol=0.001)
Sequential(
  (0): Conv2d(3, 64, kernel_size=(3, 3), stride=(1, 1))
  (1): BatchNorm2d(64, eps=64, momentum=0.1, affine=True, track_running_stats=True)
  (2): ReLU(inplace=True)
  (3): AvgPool2d(kernel_size=2, stride=2, padding=0)
  (4): Conv2d(64, 128, kernel_size=(4, 4), stride=(2, 2), padding=(1, 1))
  (5): BatchNorm2d(64, eps=128, momentum=0.1, affine=True, track_running_stats=True)
  (6): ReLU(inplace=True)
  (7): AvgPool2d(kernel_size=2, stride=1, padding=0)
  (8): Conv2d(128, 256, kernel_size=(4, 4), stride=(2, 2), padding=(1, 1))
  (9): BatchNorm2d(64, eps=256, momentum=0.1, affine=True, track_running_stats=True)
  (10): ReLU(inplace=True)
  (11): Conv2d(256, 256, kernel_size=(4, 4), stride=(2, 2), padding=(1, 1))
  (12): BatchNorm2d(64, eps=256, momentum=0.1, affine=True, track_running_stats=True)
  (13): ReLU(inplace=True)
  (14): AvgPool2d(kernel_size=2, stride=1, padding=0)
  (15): Conv2d(256, 512, kernel_size=(4, 4), stride=(2, 2), padding=(1, 1))
  (16): BatchNorm2d(64, eps=512, momentum=0.1, affine=True, track_running_stats=True)
  (17): ReLU(inplace=True)
  (18): Conv2d(512, 512, kernel_size=(4, 4), stride=(2, 2), padding=(1, 1))
  (19): BatchNorm2d(64, eps=512, momentum=0.1, affine=True, track_running_stats=True)
  (20): ReLU(inplace=True)
  (21): AvgPool2d(kernel_size=2, stride=1, padding=0)
  (22): Flatten()
  (23): ODEBlock(
    (odefunc): ODEfunc(
      (fc1): Linear(in_features=784, out_features=16, bias=True)
      (fc2): Linear(in_features=16, out_features=784, bias=True)
    )
  )
  (24): Linear(in_features=784, out_features=10, bias=True)
)
Number of parameters: 8033354
/home/manzand/Documents/Python/neuralODE_examples/cifar/odenet_cifar_example_small.py
/home/manzand/Documents/Python/neuralODE_examples/cifar/odenet_cifar_example_small.py
#!/usr/bin/env python3
# -*- coding: utf-8 -*-
"""
Created on Thu Feb  4 09:04:31 2021

@author: manzand
"""

#!/usr/bin/env python3
# -*- coding: utf-8 -*-
…
    nn1 = dict({'Wb':params,'names':names})
    for name,param in model.named_buffers():
        names.append(name)
        params.append(param.detach().numpy())
    savemat("odecnn_cifar_small.mat",nn1)
Namespace(adjoint=False, batch_size=128, data_aug=False, debug=False, downsampling_method='conv', gpu=0, lr=0.01, nepochs=200, network='odenet', save='../logs/cifarsmall', test_batch_size=1000, tol=0.001)
Namespace(adjoint=False, batch_size=128, data_aug=False, debug=False, downsampling_method='conv', gpu=0, lr=0.01, nepochs=200, network='odenet', save='../logs/cifarsmall', test_batch_size=1000, tol=0.001)
Sequential(
  (0): Conv2d(3, 64, kernel_size=(3, 3), stride=(1, 1))
  (1): BatchNorm2d(64, eps=64, momentum=0.1, affine=True, track_running_stats=True)
  (2): ReLU(inplace=True)
  (3): AvgPool2d(kernel_size=2, stride=2, padding=0)
  (4): Conv2d(64, 128, kernel_size=(4, 4), stride=(2, 2), padding=(1, 1))
  (5): BatchNorm2d(128, eps=128, momentum=0.1, affine=True, track_running_stats=True)
  (6): ReLU(inplace=True)
  (7): AvgPool2d(kernel_size=2, stride=1, padding=0)
  (8): Conv2d(128, 256, kernel_size=(4, 4), stride=(2, 2), padding=(1, 1))
  (9): BatchNorm2d(256, eps=256, momentum=0.1, affine=True, track_running_stats=True)
  (10): ReLU(inplace=True)
  (11): Conv2d(256, 256, kernel_size=(4, 4), stride=(2, 2), padding=(1, 1))
  (12): BatchNorm2d(256, eps=256, momentum=0.1, affine=True, track_running_stats=True)
  (13): ReLU(inplace=True)
  (14): AvgPool2d(kernel_size=2, stride=1, padding=0)
  (15): Conv2d(256, 512, kernel_size=(4, 4), stride=(2, 2), padding=(1, 1))
  (16): BatchNorm2d(512, eps=512, momentum=0.1, affine=True, track_running_stats=True)
  (17): ReLU(inplace=True)
  (18): Conv2d(512, 512, kernel_size=(4, 4), stride=(2, 2), padding=(1, 1))
  (19): BatchNorm2d(512, eps=512, momentum=0.1, affine=True, track_running_stats=True)
  (20): ReLU(inplace=True)
  (21): AvgPool2d(kernel_size=2, stride=1, padding=0)
  (22): Flatten()
  (23): ODEBlock(
    (odefunc): ODEfunc(
      (fc1): Linear(in_features=784, out_features=16, bias=True)
      (fc2): Linear(in_features=16, out_features=784, bias=True)
    )
  )
  (24): Linear(in_features=784, out_features=10, bias=True)
)
Sequential(
  (0): Conv2d(3, 64, kernel_size=(3, 3), stride=(1, 1))
  (1): BatchNorm2d(64, eps=64, momentum=0.1, affine=True, track_running_stats=True)
  (2): ReLU(inplace=True)
  (3): AvgPool2d(kernel_size=2, stride=2, padding=0)
  (4): Conv2d(64, 128, kernel_size=(4, 4), stride=(2, 2), padding=(1, 1))
  (5): BatchNorm2d(128, eps=128, momentum=0.1, affine=True, track_running_stats=True)
  (6): ReLU(inplace=True)
  (7): AvgPool2d(kernel_size=2, stride=1, padding=0)
  (8): Conv2d(128, 256, kernel_size=(4, 4), stride=(2, 2), padding=(1, 1))
  (9): BatchNorm2d(256, eps=256, momentum=0.1, affine=True, track_running_stats=True)
  (10): ReLU(inplace=True)
  (11): Conv2d(256, 256, kernel_size=(4, 4), stride=(2, 2), padding=(1, 1))
  (12): BatchNorm2d(256, eps=256, momentum=0.1, affine=True, track_running_stats=True)
  (13): ReLU(inplace=True)
  (14): AvgPool2d(kernel_size=2, stride=1, padding=0)
  (15): Conv2d(256, 512, kernel_size=(4, 4), stride=(2, 2), padding=(1, 1))
  (16): BatchNorm2d(512, eps=512, momentum=0.1, affine=True, track_running_stats=True)
  (17): ReLU(inplace=True)
  (18): Conv2d(512, 512, kernel_size=(4, 4), stride=(2, 2), padding=(1, 1))
  (19): BatchNorm2d(512, eps=512, momentum=0.1, affine=True, track_running_stats=True)
  (20): ReLU(inplace=True)
  (21): AvgPool2d(kernel_size=2, stride=1, padding=0)
  (22): Flatten()
  (23): ODEBlock(
    (odefunc): ODEfunc(
      (fc1): Linear(in_features=784, out_features=16, bias=True)
      (fc2): Linear(in_features=16, out_features=784, bias=True)
    )
  )
  (24): Linear(in_features=784, out_features=10, bias=True)
)
Number of parameters: 8036042
Number of parameters: 8036042
/home/manzand/Documents/Python/neuralODE_examples/cifar/odenet_cifar_example_small.py
/home/manzand/Documents/Python/neuralODE_examples/cifar/odenet_cifar_example_small.py
/home/manzand/Documents/Python/neuralODE_examples/cifar/odenet_cifar_example_small.py
#!/usr/bin/env python3
# -*- coding: utf-8 -*-
…
Namespace(adjoint=False, batch_size=128, data_aug=False, debug=False, downsampling_method='conv', gpu=0, lr=0.01, nepochs=200, network='odenet', save='../logs/cifarsmall', test_batch_size=1000, tol=0.001)
Namespace(adjoint=False, batch_size=128, data_aug=False, debug=False, downsampling_method='conv', gpu=0, lr=0.01, nepochs=200, network='odenet', save='../logs/cifarsmall', test_batch_size=1000, tol=0.001)
Namespace(adjoint=False, batch_size=128, data_aug=False, debug=False, downsampling_method='conv', gpu=0, lr=0.01, nepochs=200, network='odenet', save='../logs/cifarsmall', test_batch_size=1000, tol=0.001)
Sequential(
  (0): Conv2d(3, 64, kernel_size=(3, 3), stride=(1, 1))
  (1): BatchNorm2d(64, eps=64, momentum=0.1, affine=True, track_running_stats=True)
  (2): ReLU(inplace=True)
  (3): AvgPool2d(kernel_size=2, stride=1, padding=0)
  (4): Conv2d(64, 128, kernel_size=(4, 4), stride=(2, 2), padding=(1, 1))
  (5): BatchNorm2d(128, eps=128, momentum=0.1, affine=True, track_running_stats=True)
  (6): ReLU(inplace=True)
  (7): AvgPool2d(kernel_size=2, stride=1, padding=0)
  (8): Conv2d(128, 256, kernel_size=(4, 4), stride=(2, 2), padding=(1, 1))
  (9): BatchNorm2d(256, eps=256, momentum=0.1, affine=True, track_running_stats=True)
  (10): ReLU(inplace=True)
  (11): Conv2d(256, 256, kernel_size=(4, 4), stride=(2, 2), padding=(1, 1))
  (12): BatchNorm2d(256, eps=256, momentum=0.1, affine=True, track_running_stats=True)
  (13): ReLU(inplace=True)
  (14): AvgPool2d(kernel_size=2, stride=1, padding=0)
  (15): Conv2d(256, 512, kernel_size=(4, 4), stride=(2, 2), padding=(1, 1))
  (16): BatchNorm2d(512, eps=512, momentum=0.1, affine=True, track_running_stats=True)
  (17): ReLU(inplace=True)
  (18): Conv2d(512, 512, kernel_size=(4, 4), stride=(2, 2), padding=(1, 1))
  (19): BatchNorm2d(512, eps=512, momentum=0.1, affine=True, track_running_stats=True)
  (20): ReLU(inplace=True)
  (21): AvgPool2d(kernel_size=2, stride=1, padding=0)
  (22): Flatten()
  (23): ODEBlock(
    (odefunc): ODEfunc(
      (fc1): Linear(in_features=784, out_features=16, bias=True)
      (fc2): Linear(in_features=16, out_features=784, bias=True)
    )
  )
  (24): Linear(in_features=784, out_features=10, bias=True)
)
Sequential(
  (0): Conv2d(3, 64, kernel_size=(3, 3), stride=(1, 1))
  (1): BatchNorm2d(64, eps=64, momentum=0.1, affine=True, track_running_stats=True)
  (2): ReLU(inplace=True)
  (3): AvgPool2d(kernel_size=2, stride=1, padding=0)
  (4): Conv2d(64, 128, kernel_size=(4, 4), stride=(2, 2), padding=(1, 1))
  (5): BatchNorm2d(128, eps=128, momentum=0.1, affine=True, track_running_stats=True)
  (6): ReLU(inplace=True)
  (7): AvgPool2d(kernel_size=2, stride=1, padding=0)
  (8): Conv2d(128, 256, kernel_size=(4, 4), stride=(2, 2), padding=(1, 1))
  (9): BatchNorm2d(256, eps=256, momentum=0.1, affine=True, track_running_stats=True)
  (10): ReLU(inplace=True)
  (11): Conv2d(256, 256, kernel_size=(4, 4), stride=(2, 2), padding=(1, 1))
  (12): BatchNorm2d(256, eps=256, momentum=0.1, affine=True, track_running_stats=True)
  (13): ReLU(inplace=True)
  (14): AvgPool2d(kernel_size=2, stride=1, padding=0)
  (15): Conv2d(256, 512, kernel_size=(4, 4), stride=(2, 2), padding=(1, 1))
  (16): BatchNorm2d(512, eps=512, momentum=0.1, affine=True, track_running_stats=True)
  (17): ReLU(inplace=True)
  (18): Conv2d(512, 512, kernel_size=(4, 4), stride=(2, 2), padding=(1, 1))
  (19): BatchNorm2d(512, eps=512, momentum=0.1, affine=True, track_running_stats=True)
  (20): ReLU(inplace=True)
  (21): AvgPool2d(kernel_size=2, stride=1, padding=0)
  (22): Flatten()
  (23): ODEBlock(
    (odefunc): ODEfunc(
      (fc1): Linear(in_features=784, out_features=16, bias=True)
      (fc2): Linear(in_features=16, out_features=784, bias=True)
    )
  )
  (24): Linear(in_features=784, out_features=10, bias=True)
)
Sequential(
  (0): Conv2d(3, 64, kernel_size=(3, 3), stride=(1, 1))
  (1): BatchNorm2d(64, eps=64, momentum=0.1, affine=True, track_running_stats=True)
  (2): ReLU(inplace=True)
  (3): AvgPool2d(kernel_size=2, stride=1, padding=0)
  (4): Conv2d(64, 128, kernel_size=(4, 4), stride=(2, 2), padding=(1, 1))
  (5): BatchNorm2d(128, eps=128, momentum=0.1, affine=True, track_running_stats=True)
  (6): ReLU(inplace=True)
  (7): AvgPool2d(kernel_size=2, stride=1, padding=0)
  (8): Conv2d(128, 256, kernel_size=(4, 4), stride=(2, 2), padding=(1, 1))
  (9): BatchNorm2d(256, eps=256, momentum=0.1, affine=True, track_running_stats=True)
  (10): ReLU(inplace=True)
  (11): Conv2d(256, 256, kernel_size=(4, 4), stride=(2, 2), padding=(1, 1))
  (12): BatchNorm2d(256, eps=256, momentum=0.1, affine=True, track_running_stats=True)
  (13): ReLU(inplace=True)
  (14): AvgPool2d(kernel_size=2, stride=1, padding=0)
  (15): Conv2d(256, 512, kernel_size=(4, 4), stride=(2, 2), padding=(1, 1))
  (16): BatchNorm2d(512, eps=512, momentum=0.1, affine=True, track_running_stats=True)
  (17): ReLU(inplace=True)
  (18): Conv2d(512, 512, kernel_size=(4, 4), stride=(2, 2), padding=(1, 1))
  (19): BatchNorm2d(512, eps=512, momentum=0.1, affine=True, track_running_stats=True)
  (20): ReLU(inplace=True)
  (21): AvgPool2d(kernel_size=2, stride=1, padding=0)
  (22): Flatten()
  (23): ODEBlock(
    (odefunc): ODEfunc(
      (fc1): Linear(in_features=784, out_features=16, bias=True)
      (fc2): Linear(in_features=16, out_features=784, bias=True)
    )
  )
  (24): Linear(in_features=784, out_features=10, bias=True)
)
Number of parameters: 8036042
Number of parameters: 8036042
Number of parameters: 8036042
/home/manzand/Documents/Python/neuralODE_examples/cifar/odenet_cifar_example_small.py
/home/manzand/Documents/Python/neuralODE_examples/cifar/odenet_cifar_example_small.py
/home/manzand/Documents/Python/neuralODE_examples/cifar/odenet_cifar_example_small.py
/home/manzand/Documents/Python/neuralODE_examples/cifar/odenet_cifar_example_small.py
…
Namespace(adjoint=False, batch_size=128, data_aug=False, debug=False, downsampling_method='conv', gpu=0, lr=0.01, nepochs=200, network='odenet', save='../logs/cifarsmall', test_batch_size=1000, tol=0.001)
Namespace(adjoint=False, batch_size=128, data_aug=False, debug=False, downsampling_method='conv', gpu=0, lr=0.01, nepochs=200, network='odenet', save='../logs/cifarsmall', test_batch_size=1000, tol=0.001)
Namespace(adjoint=False, batch_size=128, data_aug=False, debug=False, downsampling_method='conv', gpu=0, lr=0.01, nepochs=200, network='odenet', save='../logs/cifarsmall', test_batch_size=1000, tol=0.001)
Sequential(
  (0): Conv2d(3, 64, kernel_size=(3, 3), stride=(1, 1))
  (1): BatchNorm2d(64, eps=64, momentum=0.1, affine=True, track_running_stats=True)
  (2): ReLU(inplace=True)
  (3): AvgPool2d(kernel_size=2, stride=1, padding=0)
  (4): Conv2d(64, 128, kernel_size=(4, 4), stride=(2, 2), padding=(1, 1))
  (5): BatchNorm2d(128, eps=128, momentum=0.1, affine=True, track_running_stats=True)
  (6): ReLU(inplace=True)
  (7): AvgPool2d(kernel_size=2, stride=1, padding=0)
  (8): Conv2d(128, 256, kernel_size=(4, 4), stride=(2, 2), padding=(1, 1))
  (9): BatchNorm2d(256, eps=256, momentum=0.1, affine=True, track_running_stats=True)
  (10): ReLU(inplace=True)
  (11): Conv2d(256, 256, kernel_size=(4, 4), stride=(2, 2), padding=(1, 1))
  (12): BatchNorm2d(256, eps=256, momentum=0.1, affine=True, track_running_stats=True)
  (13): ReLU(inplace=True)
  (14): AvgPool2d(kernel_size=2, stride=1, padding=0)
  (15): Flatten()
  (16): ODEBlock(
    (odefunc): ODEfunc(
      (fc1): Linear(in_features=784, out_features=16, bias=True)
      (fc2): Linear(in_features=16, out_features=784, bias=True)
    )
  )
  (17): Linear(in_features=784, out_features=10, bias=True)
)
Sequential(
  (0): Conv2d(3, 64, kernel_size=(3, 3), stride=(1, 1))
  (1): BatchNorm2d(64, eps=64, momentum=0.1, affine=True, track_running_stats=True)
  (2): ReLU(inplace=True)
  (3): AvgPool2d(kernel_size=2, stride=1, padding=0)
  (4): Conv2d(64, 128, kernel_size=(4, 4), stride=(2, 2), padding=(1, 1))
  (5): BatchNorm2d(128, eps=128, momentum=0.1, affine=True, track_running_stats=True)
  (6): ReLU(inplace=True)
  (7): AvgPool2d(kernel_size=2, stride=1, padding=0)
  (8): Conv2d(128, 256, kernel_size=(4, 4), stride=(2, 2), padding=(1, 1))
  (9): BatchNorm2d(256, eps=256, momentum=0.1, affine=True, track_running_stats=True)
  (10): ReLU(inplace=True)
  (11): Conv2d(256, 256, kernel_size=(4, 4), stride=(2, 2), padding=(1, 1))
  (12): BatchNorm2d(256, eps=256, momentum=0.1, affine=True, track_running_stats=True)
  (13): ReLU(inplace=True)
  (14): AvgPool2d(kernel_size=2, stride=1, padding=0)
  (15): Flatten()
  (16): ODEBlock(
    (odefunc): ODEfunc(
      (fc1): Linear(in_features=784, out_features=16, bias=True)
      (fc2): Linear(in_features=16, out_features=784, bias=True)
    )
  )
  (17): Linear(in_features=784, out_features=10, bias=True)
)
Sequential(
  (0): Conv2d(3, 64, kernel_size=(3, 3), stride=(1, 1))
  (1): BatchNorm2d(64, eps=64, momentum=0.1, affine=True, track_running_stats=True)
  (2): ReLU(inplace=True)
  (3): AvgPool2d(kernel_size=2, stride=1, padding=0)
  (4): Conv2d(64, 128, kernel_size=(4, 4), stride=(2, 2), padding=(1, 1))
  (5): BatchNorm2d(128, eps=128, momentum=0.1, affine=True, track_running_stats=True)
  (6): ReLU(inplace=True)
  (7): AvgPool2d(kernel_size=2, stride=1, padding=0)
  (8): Conv2d(128, 256, kernel_size=(4, 4), stride=(2, 2), padding=(1, 1))
  (9): BatchNorm2d(256, eps=256, momentum=0.1, affine=True, track_running_stats=True)
  (10): ReLU(inplace=True)
  (11): Conv2d(256, 256, kernel_size=(4, 4), stride=(2, 2), padding=(1, 1))
  (12): BatchNorm2d(256, eps=256, momentum=0.1, affine=True, track_running_stats=True)
  (13): ReLU(inplace=True)
  (14): AvgPool2d(kernel_size=2, stride=1, padding=0)
  (15): Flatten()
  (16): ODEBlock(
    (odefunc): ODEfunc(
      (fc1): Linear(in_features=784, out_features=16, bias=True)
      (fc2): Linear(in_features=16, out_features=784, bias=True)
    )
  )
  (17): Linear(in_features=784, out_features=10, bias=True)
)
Sequential(
  (0): Conv2d(3, 64, kernel_size=(3, 3), stride=(1, 1))
  (1): BatchNorm2d(64, eps=64, momentum=0.1, affine=True, track_running_stats=True)
  (2): ReLU(inplace=True)
  (3): AvgPool2d(kernel_size=2, stride=1, padding=0)
  (4): Conv2d(64, 128, kernel_size=(4, 4), stride=(2, 2), padding=(1, 1))
  (5): BatchNorm2d(128, eps=128, momentum=0.1, affine=True, track_running_stats=True)
  (6): ReLU(inplace=True)
  (7): AvgPool2d(kernel_size=2, stride=1, padding=0)
  (8): Conv2d(128, 256, kernel_size=(4, 4), stride=(2, 2), padding=(1, 1))
  (9): BatchNorm2d(256, eps=256, momentum=0.1, affine=True, track_running_stats=True)
  (10): ReLU(inplace=True)
  (11): Conv2d(256, 256, kernel_size=(4, 4), stride=(2, 2), padding=(1, 1))
  (12): BatchNorm2d(256, eps=256, momentum=0.1, affine=True, track_running_stats=True)
  (13): ReLU(inplace=True)
  (14): AvgPool2d(kernel_size=2, stride=1, padding=0)
  (15): Flatten()
  (16): ODEBlock(
    (odefunc): ODEfunc(
      (fc1): Linear(in_features=784, out_features=16, bias=True)
      (fc2): Linear(in_features=16, out_features=784, bias=True)
    )
  )
  (17): Linear(in_features=784, out_features=10, bias=True)
)
Number of parameters: 1741514
Number of parameters: 1741514
Number of parameters: 1741514
Number of parameters: 1741514
/home/manzand/Documents/Python/neuralODE_examples/cifar/odenet_cifar_example_small.py
/home/manzand/Documents/Python/neuralODE_examples/cifar/odenet_cifar_example_small.py
/home/manzand/Documents/Python/neuralODE_examples/cifar/odenet_cifar_example_small.py
…
Namespace(adjoint=False, batch_size=128, data_aug=False, debug=False, downsampling_method='conv', gpu=0, lr=0.01, nepochs=200, network='odenet', save='../logs/cifarsmall', test_batch_size=1000, tol=0.001)
Namespace(adjoint=False, batch_size=128, data_aug=False, debug=False, downsampling_method='conv', gpu=0, lr=0.01, nepochs=200, network='odenet', save='../logs/cifarsmall', test_batch_size=1000, tol=0.001)
Namespace(adjoint=False, batch_size=128, data_aug=False, debug=False, downsampling_method='conv', gpu=0, lr=0.01, nepochs=200, network='odenet', save='../logs/cifarsmall', test_batch_size=1000, tol=0.001)
Sequential(
  (0): Conv2d(3, 64, kernel_size=(3, 3), stride=(1, 1))
  (1): BatchNorm2d(64, eps=64, momentum=0.1, affine=True, track_running_stats=True)
  (2): ReLU(inplace=True)
  (3): AvgPool2d(kernel_size=2, stride=1, padding=0)
  (4): Conv2d(64, 128, kernel_size=(4, 4), stride=(2, 2), padding=(1, 1))
  (5): BatchNorm2d(128, eps=128, momentum=0.1, affine=True, track_running_stats=True)
  (6): ReLU(inplace=True)
  (7): AvgPool2d(kernel_size=2, stride=1, padding=0)
  (8): Conv2d(128, 256, kernel_size=(4, 4), stride=(2, 2), padding=(1, 1))
  (9): BatchNorm2d(256, eps=256, momentum=0.1, affine=True, track_running_stats=True)
  (10): ReLU(inplace=True)
  (11): Conv2d(256, 256, kernel_size=(4, 4), stride=(2, 2), padding=(1, 1))
  (12): BatchNorm2d(256, eps=256, momentum=0.1, affine=True, track_running_stats=True)
  (13): ReLU(inplace=True)
  (14): AvgPool2d(kernel_size=2, stride=1, padding=0)
  (15): Conv2d(256, 512, kernel_size=(4, 4), stride=(2, 2), padding=(1, 1))
  (16): BatchNorm2d(512, eps=512, momentum=0.1, affine=True, track_running_stats=True)
  (17): ReLU(inplace=True)
  (18): Flatten()
  (19): ODEBlock(
    (odefunc): ODEfunc(
      (fc1): Linear(in_features=784, out_features=16, bias=True)
      (fc2): Linear(in_features=16, out_features=784, bias=True)
    )
  )
  (20): Linear(in_features=784, out_features=10, bias=True)
)
Sequential(
  (0): Conv2d(3, 64, kernel_size=(3, 3), stride=(1, 1))
  (1): BatchNorm2d(64, eps=64, momentum=0.1, affine=True, track_running_stats=True)
  (2): ReLU(inplace=True)
  (3): AvgPool2d(kernel_size=2, stride=1, padding=0)
  (4): Conv2d(64, 128, kernel_size=(4, 4), stride=(2, 2), padding=(1, 1))
  (5): BatchNorm2d(128, eps=128, momentum=0.1, affine=True, track_running_stats=True)
  (6): ReLU(inplace=True)
  (7): AvgPool2d(kernel_size=2, stride=1, padding=0)
  (8): Conv2d(128, 256, kernel_size=(4, 4), stride=(2, 2), padding=(1, 1))
  (9): BatchNorm2d(256, eps=256, momentum=0.1, affine=True, track_running_stats=True)
  (10): ReLU(inplace=True)
  (11): Conv2d(256, 256, kernel_size=(4, 4), stride=(2, 2), padding=(1, 1))
  (12): BatchNorm2d(256, eps=256, momentum=0.1, affine=True, track_running_stats=True)
  (13): ReLU(inplace=True)
  (14): AvgPool2d(kernel_size=2, stride=1, padding=0)
  (15): Conv2d(256, 512, kernel_size=(4, 4), stride=(2, 2), padding=(1, 1))
  (16): BatchNorm2d(512, eps=512, momentum=0.1, affine=True, track_running_stats=True)
  (17): ReLU(inplace=True)
  (18): Flatten()
  (19): ODEBlock(
    (odefunc): ODEfunc(
      (fc1): Linear(in_features=784, out_features=16, bias=True)
      (fc2): Linear(in_features=16, out_features=784, bias=True)
    )
  )
  (20): Linear(in_features=784, out_features=10, bias=True)
)
Sequential(
  (0): Conv2d(3, 64, kernel_size=(3, 3), stride=(1, 1))
  (1): BatchNorm2d(64, eps=64, momentum=0.1, affine=True, track_running_stats=True)
  (2): ReLU(inplace=True)
  (3): AvgPool2d(kernel_size=2, stride=1, padding=0)
  (4): Conv2d(64, 128, kernel_size=(4, 4), stride=(2, 2), padding=(1, 1))
  (5): BatchNorm2d(128, eps=128, momentum=0.1, affine=True, track_running_stats=True)
  (6): ReLU(inplace=True)
  (7): AvgPool2d(kernel_size=2, stride=1, padding=0)
  (8): Conv2d(128, 256, kernel_size=(4, 4), stride=(2, 2), padding=(1, 1))
  (9): BatchNorm2d(256, eps=256, momentum=0.1, affine=True, track_running_stats=True)
  (10): ReLU(inplace=True)
  (11): Conv2d(256, 256, kernel_size=(4, 4), stride=(2, 2), padding=(1, 1))
  (12): BatchNorm2d(256, eps=256, momentum=0.1, affine=True, track_running_stats=True)
  (13): ReLU(inplace=True)
  (14): AvgPool2d(kernel_size=2, stride=1, padding=0)
  (15): Conv2d(256, 512, kernel_size=(4, 4), stride=(2, 2), padding=(1, 1))
  (16): BatchNorm2d(512, eps=512, momentum=0.1, affine=True, track_running_stats=True)
  (17): ReLU(inplace=True)
  (18): Flatten()
  (19): ODEBlock(
    (odefunc): ODEfunc(
      (fc1): Linear(in_features=784, out_features=16, bias=True)
      (fc2): Linear(in_features=16, out_features=784, bias=True)
    )
  )
  (20): Linear(in_features=784, out_features=10, bias=True)
)
Sequential(
  (0): Conv2d(3, 64, kernel_size=(3, 3), stride=(1, 1))
  (1): BatchNorm2d(64, eps=64, momentum=0.1, affine=True, track_running_stats=True)
  (2): ReLU(inplace=True)
  (3): AvgPool2d(kernel_size=2, stride=1, padding=0)
  (4): Conv2d(64, 128, kernel_size=(4, 4), stride=(2, 2), padding=(1, 1))
  (5): BatchNorm2d(128, eps=128, momentum=0.1, affine=True, track_running_stats=True)
  (6): ReLU(inplace=True)
  (7): AvgPool2d(kernel_size=2, stride=1, padding=0)
  (8): Conv2d(128, 256, kernel_size=(4, 4), stride=(2, 2), padding=(1, 1))
  (9): BatchNorm2d(256, eps=256, momentum=0.1, affine=True, track_running_stats=True)
  (10): ReLU(inplace=True)
  (11): Conv2d(256, 256, kernel_size=(4, 4), stride=(2, 2), padding=(1, 1))
  (12): BatchNorm2d(256, eps=256, momentum=0.1, affine=True, track_running_stats=True)
  (13): ReLU(inplace=True)
  (14): AvgPool2d(kernel_size=2, stride=1, padding=0)
  (15): Conv2d(256, 512, kernel_size=(4, 4), stride=(2, 2), padding=(1, 1))
  (16): BatchNorm2d(512, eps=512, momentum=0.1, affine=True, track_running_stats=True)
  (17): ReLU(inplace=True)
  (18): Flatten()
  (19): ODEBlock(
    (odefunc): ODEfunc(
      (fc1): Linear(in_features=784, out_features=16, bias=True)
      (fc2): Linear(in_features=16, out_features=784, bias=True)
    )
  )
  (20): Linear(in_features=784, out_features=10, bias=True)
)
Sequential(
  (0): Conv2d(3, 64, kernel_size=(3, 3), stride=(1, 1))
  (1): BatchNorm2d(64, eps=64, momentum=0.1, affine=True, track_running_stats=True)
  (2): ReLU(inplace=True)
  (3): AvgPool2d(kernel_size=2, stride=1, padding=0)
  (4): Conv2d(64, 128, kernel_size=(4, 4), stride=(2, 2), padding=(1, 1))
  (5): BatchNorm2d(128, eps=128, momentum=0.1, affine=True, track_running_stats=True)
  (6): ReLU(inplace=True)
  (7): AvgPool2d(kernel_size=2, stride=1, padding=0)
  (8): Conv2d(128, 256, kernel_size=(4, 4), stride=(2, 2), padding=(1, 1))
  (9): BatchNorm2d(256, eps=256, momentum=0.1, affine=True, track_running_stats=True)
  (10): ReLU(inplace=True)
  (11): Conv2d(256, 256, kernel_size=(4, 4), stride=(2, 2), padding=(1, 1))
  (12): BatchNorm2d(256, eps=256, momentum=0.1, affine=True, track_running_stats=True)
  (13): ReLU(inplace=True)
  (14): AvgPool2d(kernel_size=2, stride=1, padding=0)
  (15): Conv2d(256, 512, kernel_size=(4, 4), stride=(2, 2), padding=(1, 1))
  (16): BatchNorm2d(512, eps=512, momentum=0.1, affine=True, track_running_stats=True)
  (17): ReLU(inplace=True)
  (18): Flatten()
  (19): ODEBlock(
    (odefunc): ODEfunc(
      (fc1): Linear(in_features=784, out_features=16, bias=True)
      (fc2): Linear(in_features=16, out_features=784, bias=True)
    )
  )
  (20): Linear(in_features=784, out_features=10, bias=True)
)
Number of parameters: 3840202
Number of parameters: 3840202
Number of parameters: 3840202
Number of parameters: 3840202
Number of parameters: 3840202
/home/manzand/Documents/Python/neuralODE_examples/cifar/odenet_cifar_example_small.py
/home/manzand/Documents/Python/neuralODE_examples/cifar/odenet_cifar_example_small.py
/home/manzand/Documents/Python/neuralODE_examples/cifar/odenet_cifar_example_small.py
…
Namespace(adjoint=False, batch_size=128, data_aug=False, debug=False, downsampling_method='conv', gpu=0, lr=0.01, nepochs=200, network='odenet', save='../logs/cifarsmall', test_batch_size=1000, tol=0.001)
Namespace(adjoint=False, batch_size=128, data_aug=False, debug=False, downsampling_method='conv', gpu=0, lr=0.01, nepochs=200, network='odenet', save='../logs/cifarsmall', test_batch_size=1000, tol=0.001)
Namespace(adjoint=False, batch_size=128, data_aug=False, debug=False, downsampling_method='conv', gpu=0, lr=0.01, nepochs=200, network='odenet', save='../logs/cifarsmall', test_batch_size=1000, tol=0.001)
Sequential(
  (0): Conv2d(3, 64, kernel_size=(3, 3), stride=(1, 1))
  (1): BatchNorm2d(64, eps=64, momentum=0.1, affine=True, track_running_stats=True)
  (2): ReLU(inplace=True)
  (3): AvgPool2d(kernel_size=2, stride=1, padding=0)
  (4): Conv2d(64, 128, kernel_size=(4, 4), stride=(2, 2), padding=(1, 1))
  (5): BatchNorm2d(128, eps=128, momentum=0.1, affine=True, track_running_stats=True)
  (6): ReLU(inplace=True)
  (7): AvgPool2d(kernel_size=2, stride=1, padding=0)
  (8): Conv2d(128, 256, kernel_size=(4, 4), stride=(2, 2), padding=(1, 1))
  (9): BatchNorm2d(256, eps=256, momentum=0.1, affine=True, track_running_stats=True)
  (10): ReLU(inplace=True)
  (11): Conv2d(256, 256, kernel_size=(4, 4), stride=(2, 2), padding=(1, 1))
  (12): BatchNorm2d(256, eps=256, momentum=0.1, affine=True, track_running_stats=True)
  (13): ReLU(inplace=True)
  (14): AvgPool2d(kernel_size=2, stride=1, padding=0)
  (15): Conv2d(256, 512, kernel_size=(4, 4), stride=(2, 2), padding=(1, 1))
  (16): BatchNorm2d(512, eps=512, momentum=0.1, affine=True, track_running_stats=True)
  (17): ReLU(inplace=True)
  (18): AvgPool2d(kernel_size=2, stride=1, padding=0)
  (19): Flatten()
  (20): ODEBlock(
    (odefunc): ODEfunc(
      (fc1): Linear(in_features=784, out_features=16, bias=True)
      (fc2): Linear(in_features=16, out_features=784, bias=True)
    )
  )
  (21): Linear(in_features=784, out_features=10, bias=True)
)
Sequential(
  (0): Conv2d(3, 64, kernel_size=(3, 3), stride=(1, 1))
  (1): BatchNorm2d(64, eps=64, momentum=0.1, affine=True, track_running_stats=True)
  (2): ReLU(inplace=True)
  (3): AvgPool2d(kernel_size=2, stride=1, padding=0)
  (4): Conv2d(64, 128, kernel_size=(4, 4), stride=(2, 2), padding=(1, 1))
  (5): BatchNorm2d(128, eps=128, momentum=0.1, affine=True, track_running_stats=True)
  (6): ReLU(inplace=True)
  (7): AvgPool2d(kernel_size=2, stride=1, padding=0)
  (8): Conv2d(128, 256, kernel_size=(4, 4), stride=(2, 2), padding=(1, 1))
  (9): BatchNorm2d(256, eps=256, momentum=0.1, affine=True, track_running_stats=True)
  (10): ReLU(inplace=True)
  (11): Conv2d(256, 256, kernel_size=(4, 4), stride=(2, 2), padding=(1, 1))
  (12): BatchNorm2d(256, eps=256, momentum=0.1, affine=True, track_running_stats=True)
  (13): ReLU(inplace=True)
  (14): AvgPool2d(kernel_size=2, stride=1, padding=0)
  (15): Conv2d(256, 512, kernel_size=(4, 4), stride=(2, 2), padding=(1, 1))
  (16): BatchNorm2d(512, eps=512, momentum=0.1, affine=True, track_running_stats=True)
  (17): ReLU(inplace=True)
  (18): AvgPool2d(kernel_size=2, stride=1, padding=0)
  (19): Flatten()
  (20): ODEBlock(
    (odefunc): ODEfunc(
      (fc1): Linear(in_features=784, out_features=16, bias=True)
      (fc2): Linear(in_features=16, out_features=784, bias=True)
    )
  )
  (21): Linear(in_features=784, out_features=10, bias=True)
)
Sequential(
  (0): Conv2d(3, 64, kernel_size=(3, 3), stride=(1, 1))
  (1): BatchNorm2d(64, eps=64, momentum=0.1, affine=True, track_running_stats=True)
  (2): ReLU(inplace=True)
  (3): AvgPool2d(kernel_size=2, stride=1, padding=0)
  (4): Conv2d(64, 128, kernel_size=(4, 4), stride=(2, 2), padding=(1, 1))
  (5): BatchNorm2d(128, eps=128, momentum=0.1, affine=True, track_running_stats=True)
  (6): ReLU(inplace=True)
  (7): AvgPool2d(kernel_size=2, stride=1, padding=0)
  (8): Conv2d(128, 256, kernel_size=(4, 4), stride=(2, 2), padding=(1, 1))
  (9): BatchNorm2d(256, eps=256, momentum=0.1, affine=True, track_running_stats=True)
  (10): ReLU(inplace=True)
  (11): Conv2d(256, 256, kernel_size=(4, 4), stride=(2, 2), padding=(1, 1))
  (12): BatchNorm2d(256, eps=256, momentum=0.1, affine=True, track_running_stats=True)
  (13): ReLU(inplace=True)
  (14): AvgPool2d(kernel_size=2, stride=1, padding=0)
  (15): Conv2d(256, 512, kernel_size=(4, 4), stride=(2, 2), padding=(1, 1))
  (16): BatchNorm2d(512, eps=512, momentum=0.1, affine=True, track_running_stats=True)
  (17): ReLU(inplace=True)
  (18): AvgPool2d(kernel_size=2, stride=1, padding=0)
  (19): Flatten()
  (20): ODEBlock(
    (odefunc): ODEfunc(
      (fc1): Linear(in_features=784, out_features=16, bias=True)
      (fc2): Linear(in_features=16, out_features=784, bias=True)
    )
  )
  (21): Linear(in_features=784, out_features=10, bias=True)
)
Sequential(
  (0): Conv2d(3, 64, kernel_size=(3, 3), stride=(1, 1))
  (1): BatchNorm2d(64, eps=64, momentum=0.1, affine=True, track_running_stats=True)
  (2): ReLU(inplace=True)
  (3): AvgPool2d(kernel_size=2, stride=1, padding=0)
  (4): Conv2d(64, 128, kernel_size=(4, 4), stride=(2, 2), padding=(1, 1))
  (5): BatchNorm2d(128, eps=128, momentum=0.1, affine=True, track_running_stats=True)
  (6): ReLU(inplace=True)
  (7): AvgPool2d(kernel_size=2, stride=1, padding=0)
  (8): Conv2d(128, 256, kernel_size=(4, 4), stride=(2, 2), padding=(1, 1))
  (9): BatchNorm2d(256, eps=256, momentum=0.1, affine=True, track_running_stats=True)
  (10): ReLU(inplace=True)
  (11): Conv2d(256, 256, kernel_size=(4, 4), stride=(2, 2), padding=(1, 1))
  (12): BatchNorm2d(256, eps=256, momentum=0.1, affine=True, track_running_stats=True)
  (13): ReLU(inplace=True)
  (14): AvgPool2d(kernel_size=2, stride=1, padding=0)
  (15): Conv2d(256, 512, kernel_size=(4, 4), stride=(2, 2), padding=(1, 1))
  (16): BatchNorm2d(512, eps=512, momentum=0.1, affine=True, track_running_stats=True)
  (17): ReLU(inplace=True)
  (18): AvgPool2d(kernel_size=2, stride=1, padding=0)
  (19): Flatten()
  (20): ODEBlock(
    (odefunc): ODEfunc(
      (fc1): Linear(in_features=784, out_features=16, bias=True)
      (fc2): Linear(in_features=16, out_features=784, bias=True)
    )
  )
  (21): Linear(in_features=784, out_features=10, bias=True)
)
Sequential(
  (0): Conv2d(3, 64, kernel_size=(3, 3), stride=(1, 1))
  (1): BatchNorm2d(64, eps=64, momentum=0.1, affine=True, track_running_stats=True)
  (2): ReLU(inplace=True)
  (3): AvgPool2d(kernel_size=2, stride=1, padding=0)
  (4): Conv2d(64, 128, kernel_size=(4, 4), stride=(2, 2), padding=(1, 1))
  (5): BatchNorm2d(128, eps=128, momentum=0.1, affine=True, track_running_stats=True)
  (6): ReLU(inplace=True)
  (7): AvgPool2d(kernel_size=2, stride=1, padding=0)
  (8): Conv2d(128, 256, kernel_size=(4, 4), stride=(2, 2), padding=(1, 1))
  (9): BatchNorm2d(256, eps=256, momentum=0.1, affine=True, track_running_stats=True)
  (10): ReLU(inplace=True)
  (11): Conv2d(256, 256, kernel_size=(4, 4), stride=(2, 2), padding=(1, 1))
  (12): BatchNorm2d(256, eps=256, momentum=0.1, affine=True, track_running_stats=True)
  (13): ReLU(inplace=True)
  (14): AvgPool2d(kernel_size=2, stride=1, padding=0)
  (15): Conv2d(256, 512, kernel_size=(4, 4), stride=(2, 2), padding=(1, 1))
  (16): BatchNorm2d(512, eps=512, momentum=0.1, affine=True, track_running_stats=True)
  (17): ReLU(inplace=True)
  (18): AvgPool2d(kernel_size=2, stride=1, padding=0)
  (19): Flatten()
  (20): ODEBlock(
    (odefunc): ODEfunc(
      (fc1): Linear(in_features=784, out_features=16, bias=True)
      (fc2): Linear(in_features=16, out_features=784, bias=True)
    )
  )
  (21): Linear(in_features=784, out_features=10, bias=True)
)
Sequential(
  (0): Conv2d(3, 64, kernel_size=(3, 3), stride=(1, 1))
  (1): BatchNorm2d(64, eps=64, momentum=0.1, affine=True, track_running_stats=True)
  (2): ReLU(inplace=True)
  (3): AvgPool2d(kernel_size=2, stride=1, padding=0)
  (4): Conv2d(64, 128, kernel_size=(4, 4), stride=(2, 2), padding=(1, 1))
  (5): BatchNorm2d(128, eps=128, momentum=0.1, affine=True, track_running_stats=True)
  (6): ReLU(inplace=True)
  (7): AvgPool2d(kernel_size=2, stride=1, padding=0)
  (8): Conv2d(128, 256, kernel_size=(4, 4), stride=(2, 2), padding=(1, 1))
  (9): BatchNorm2d(256, eps=256, momentum=0.1, affine=True, track_running_stats=True)
  (10): ReLU(inplace=True)
  (11): Conv2d(256, 256, kernel_size=(4, 4), stride=(2, 2), padding=(1, 1))
  (12): BatchNorm2d(256, eps=256, momentum=0.1, affine=True, track_running_stats=True)
  (13): ReLU(inplace=True)
  (14): AvgPool2d(kernel_size=2, stride=1, padding=0)
  (15): Conv2d(256, 512, kernel_size=(4, 4), stride=(2, 2), padding=(1, 1))
  (16): BatchNorm2d(512, eps=512, momentum=0.1, affine=True, track_running_stats=True)
  (17): ReLU(inplace=True)
  (18): AvgPool2d(kernel_size=2, stride=1, padding=0)
  (19): Flatten()
  (20): ODEBlock(
    (odefunc): ODEfunc(
      (fc1): Linear(in_features=784, out_features=16, bias=True)
      (fc2): Linear(in_features=16, out_features=784, bias=True)
    )
  )
  (21): Linear(in_features=784, out_features=10, bias=True)
)
Number of parameters: 3840202
Number of parameters: 3840202
Number of parameters: 3840202
Number of parameters: 3840202
Number of parameters: 3840202
Number of parameters: 3840202
/home/manzand/Documents/Python/neuralODE_examples/cifar/odenet_cifar_example_small.py
/home/manzand/Documents/Python/neuralODE_examples/cifar/odenet_cifar_example_small.py
/home/manzand/Documents/Python/neuralODE_examples/cifar/odenet_cifar_example_small.py
…
Namespace(adjoint=False, batch_size=128, data_aug=False, debug=False, downsampling_method='conv', gpu=0, lr=0.01, nepochs=200, network='odenet', save='../logs/cifarsmall', test_batch_size=1000, tol=0.001)
Namespace(adjoint=False, batch_size=128, data_aug=False, debug=False, downsampling_method='conv', gpu=0, lr=0.01, nepochs=200, network='odenet', save='../logs/cifarsmall', test_batch_size=1000, tol=0.001)
Namespace(adjoint=False, batch_size=128, data_aug=False, debug=False, downsampling_method='conv', gpu=0, lr=0.01, nepochs=200, network='odenet', save='../logs/cifarsmall', test_batch_size=1000, tol=0.001)
Sequential(
  (0): Conv2d(3, 64, kernel_size=(3, 3), stride=(1, 1))
  (1): BatchNorm2d(64, eps=64, momentum=0.1, affine=True, track_running_stats=True)
  (2): ReLU(inplace=True)
  (3): AvgPool2d(kernel_size=2, stride=1, padding=0)
  (4): Conv2d(64, 128, kernel_size=(4, 4), stride=(2, 2), padding=(1, 1))
  (5): BatchNorm2d(128, eps=128, momentum=0.1, affine=True, track_running_stats=True)
  (6): ReLU(inplace=True)
  (7): AvgPool2d(kernel_size=2, stride=1, padding=0)
  (8): Conv2d(128, 256, kernel_size=(4, 4), stride=(2, 2), padding=(1, 1))
  (9): BatchNorm2d(256, eps=256, momentum=0.1, affine=True, track_running_stats=True)
  (10): ReLU(inplace=True)
  (11): Conv2d(256, 256, kernel_size=(4, 4), stride=(2, 2), padding=(1, 1))
  (12): BatchNorm2d(256, eps=256, momentum=0.1, affine=True, track_running_stats=True)
  (13): ReLU(inplace=True)
  (14): AvgPool2d(kernel_size=2, stride=1, padding=0)
  (15): Conv2d(256, 512, kernel_size=(4, 4), stride=(2, 2), padding=(1, 1))
  (16): BatchNorm2d(512, eps=512, momentum=0.1, affine=True, track_running_stats=True)
  (17): ReLU(inplace=True)
  (18): AvgPool2d(kernel_size=2, stride=2, padding=0)
  (19): Flatten()
  (20): ODEBlock(
    (odefunc): ODEfunc(
      (fc1): Linear(in_features=784, out_features=16, bias=True)
      (fc2): Linear(in_features=16, out_features=784, bias=True)
    )
  )
  (21): Linear(in_features=784, out_features=10, bias=True)
)
Sequential(
  (0): Conv2d(3, 64, kernel_size=(3, 3), stride=(1, 1))
  (1): BatchNorm2d(64, eps=64, momentum=0.1, affine=True, track_running_stats=True)
  (2): ReLU(inplace=True)
  (3): AvgPool2d(kernel_size=2, stride=1, padding=0)
  (4): Conv2d(64, 128, kernel_size=(4, 4), stride=(2, 2), padding=(1, 1))
  (5): BatchNorm2d(128, eps=128, momentum=0.1, affine=True, track_running_stats=True)
  (6): ReLU(inplace=True)
  (7): AvgPool2d(kernel_size=2, stride=1, padding=0)
  (8): Conv2d(128, 256, kernel_size=(4, 4), stride=(2, 2), padding=(1, 1))
  (9): BatchNorm2d(256, eps=256, momentum=0.1, affine=True, track_running_stats=True)
  (10): ReLU(inplace=True)
  (11): Conv2d(256, 256, kernel_size=(4, 4), stride=(2, 2), padding=(1, 1))
  (12): BatchNorm2d(256, eps=256, momentum=0.1, affine=True, track_running_stats=True)
  (13): ReLU(inplace=True)
  (14): AvgPool2d(kernel_size=2, stride=1, padding=0)
  (15): Conv2d(256, 512, kernel_size=(4, 4), stride=(2, 2), padding=(1, 1))
  (16): BatchNorm2d(512, eps=512, momentum=0.1, affine=True, track_running_stats=True)
  (17): ReLU(inplace=True)
  (18): AvgPool2d(kernel_size=2, stride=2, padding=0)
  (19): Flatten()
  (20): ODEBlock(
    (odefunc): ODEfunc(
      (fc1): Linear(in_features=784, out_features=16, bias=True)
      (fc2): Linear(in_features=16, out_features=784, bias=True)
    )
  )
  (21): Linear(in_features=784, out_features=10, bias=True)
)
Sequential(
  (0): Conv2d(3, 64, kernel_size=(3, 3), stride=(1, 1))
  (1): BatchNorm2d(64, eps=64, momentum=0.1, affine=True, track_running_stats=True)
  (2): ReLU(inplace=True)
  (3): AvgPool2d(kernel_size=2, stride=1, padding=0)
  (4): Conv2d(64, 128, kernel_size=(4, 4), stride=(2, 2), padding=(1, 1))
  (5): BatchNorm2d(128, eps=128, momentum=0.1, affine=True, track_running_stats=True)
  (6): ReLU(inplace=True)
  (7): AvgPool2d(kernel_size=2, stride=1, padding=0)
  (8): Conv2d(128, 256, kernel_size=(4, 4), stride=(2, 2), padding=(1, 1))
  (9): BatchNorm2d(256, eps=256, momentum=0.1, affine=True, track_running_stats=True)
  (10): ReLU(inplace=True)
  (11): Conv2d(256, 256, kernel_size=(4, 4), stride=(2, 2), padding=(1, 1))
  (12): BatchNorm2d(256, eps=256, momentum=0.1, affine=True, track_running_stats=True)
  (13): ReLU(inplace=True)
  (14): AvgPool2d(kernel_size=2, stride=1, padding=0)
  (15): Conv2d(256, 512, kernel_size=(4, 4), stride=(2, 2), padding=(1, 1))
  (16): BatchNorm2d(512, eps=512, momentum=0.1, affine=True, track_running_stats=True)
  (17): ReLU(inplace=True)
  (18): AvgPool2d(kernel_size=2, stride=2, padding=0)
  (19): Flatten()
  (20): ODEBlock(
    (odefunc): ODEfunc(
      (fc1): Linear(in_features=784, out_features=16, bias=True)
      (fc2): Linear(in_features=16, out_features=784, bias=True)
    )
  )
  (21): Linear(in_features=784, out_features=10, bias=True)
)
Sequential(
  (0): Conv2d(3, 64, kernel_size=(3, 3), stride=(1, 1))
  (1): BatchNorm2d(64, eps=64, momentum=0.1, affine=True, track_running_stats=True)
  (2): ReLU(inplace=True)
  (3): AvgPool2d(kernel_size=2, stride=1, padding=0)
  (4): Conv2d(64, 128, kernel_size=(4, 4), stride=(2, 2), padding=(1, 1))
  (5): BatchNorm2d(128, eps=128, momentum=0.1, affine=True, track_running_stats=True)
  (6): ReLU(inplace=True)
  (7): AvgPool2d(kernel_size=2, stride=1, padding=0)
  (8): Conv2d(128, 256, kernel_size=(4, 4), stride=(2, 2), padding=(1, 1))
  (9): BatchNorm2d(256, eps=256, momentum=0.1, affine=True, track_running_stats=True)
  (10): ReLU(inplace=True)
  (11): Conv2d(256, 256, kernel_size=(4, 4), stride=(2, 2), padding=(1, 1))
  (12): BatchNorm2d(256, eps=256, momentum=0.1, affine=True, track_running_stats=True)
  (13): ReLU(inplace=True)
  (14): AvgPool2d(kernel_size=2, stride=1, padding=0)
  (15): Conv2d(256, 512, kernel_size=(4, 4), stride=(2, 2), padding=(1, 1))
  (16): BatchNorm2d(512, eps=512, momentum=0.1, affine=True, track_running_stats=True)
  (17): ReLU(inplace=True)
  (18): AvgPool2d(kernel_size=2, stride=2, padding=0)
  (19): Flatten()
  (20): ODEBlock(
    (odefunc): ODEfunc(
      (fc1): Linear(in_features=784, out_features=16, bias=True)
      (fc2): Linear(in_features=16, out_features=784, bias=True)
    )
  )
  (21): Linear(in_features=784, out_features=10, bias=True)
)
Sequential(
  (0): Conv2d(3, 64, kernel_size=(3, 3), stride=(1, 1))
  (1): BatchNorm2d(64, eps=64, momentum=0.1, affine=True, track_running_stats=True)
  (2): ReLU(inplace=True)
  (3): AvgPool2d(kernel_size=2, stride=1, padding=0)
  (4): Conv2d(64, 128, kernel_size=(4, 4), stride=(2, 2), padding=(1, 1))
  (5): BatchNorm2d(128, eps=128, momentum=0.1, affine=True, track_running_stats=True)
  (6): ReLU(inplace=True)
  (7): AvgPool2d(kernel_size=2, stride=1, padding=0)
  (8): Conv2d(128, 256, kernel_size=(4, 4), stride=(2, 2), padding=(1, 1))
  (9): BatchNorm2d(256, eps=256, momentum=0.1, affine=True, track_running_stats=True)
  (10): ReLU(inplace=True)
  (11): Conv2d(256, 256, kernel_size=(4, 4), stride=(2, 2), padding=(1, 1))
  (12): BatchNorm2d(256, eps=256, momentum=0.1, affine=True, track_running_stats=True)
  (13): ReLU(inplace=True)
  (14): AvgPool2d(kernel_size=2, stride=1, padding=0)
  (15): Conv2d(256, 512, kernel_size=(4, 4), stride=(2, 2), padding=(1, 1))
  (16): BatchNorm2d(512, eps=512, momentum=0.1, affine=True, track_running_stats=True)
  (17): ReLU(inplace=True)
  (18): AvgPool2d(kernel_size=2, stride=2, padding=0)
  (19): Flatten()
  (20): ODEBlock(
    (odefunc): ODEfunc(
      (fc1): Linear(in_features=784, out_features=16, bias=True)
      (fc2): Linear(in_features=16, out_features=784, bias=True)
    )
  )
  (21): Linear(in_features=784, out_features=10, bias=True)
)
Sequential(
  (0): Conv2d(3, 64, kernel_size=(3, 3), stride=(1, 1))
  (1): BatchNorm2d(64, eps=64, momentum=0.1, affine=True, track_running_stats=True)
  (2): ReLU(inplace=True)
  (3): AvgPool2d(kernel_size=2, stride=1, padding=0)
  (4): Conv2d(64, 128, kernel_size=(4, 4), stride=(2, 2), padding=(1, 1))
  (5): BatchNorm2d(128, eps=128, momentum=0.1, affine=True, track_running_stats=True)
  (6): ReLU(inplace=True)
  (7): AvgPool2d(kernel_size=2, stride=1, padding=0)
  (8): Conv2d(128, 256, kernel_size=(4, 4), stride=(2, 2), padding=(1, 1))
  (9): BatchNorm2d(256, eps=256, momentum=0.1, affine=True, track_running_stats=True)
  (10): ReLU(inplace=True)
  (11): Conv2d(256, 256, kernel_size=(4, 4), stride=(2, 2), padding=(1, 1))
  (12): BatchNorm2d(256, eps=256, momentum=0.1, affine=True, track_running_stats=True)
  (13): ReLU(inplace=True)
  (14): AvgPool2d(kernel_size=2, stride=1, padding=0)
  (15): Conv2d(256, 512, kernel_size=(4, 4), stride=(2, 2), padding=(1, 1))
  (16): BatchNorm2d(512, eps=512, momentum=0.1, affine=True, track_running_stats=True)
  (17): ReLU(inplace=True)
  (18): AvgPool2d(kernel_size=2, stride=2, padding=0)
  (19): Flatten()
  (20): ODEBlock(
    (odefunc): ODEfunc(
      (fc1): Linear(in_features=784, out_features=16, bias=True)
      (fc2): Linear(in_features=16, out_features=784, bias=True)
    )
  )
  (21): Linear(in_features=784, out_features=10, bias=True)
)
Sequential(
  (0): Conv2d(3, 64, kernel_size=(3, 3), stride=(1, 1))
  (1): BatchNorm2d(64, eps=64, momentum=0.1, affine=True, track_running_stats=True)
  (2): ReLU(inplace=True)
  (3): AvgPool2d(kernel_size=2, stride=1, padding=0)
  (4): Conv2d(64, 128, kernel_size=(4, 4), stride=(2, 2), padding=(1, 1))
  (5): BatchNorm2d(128, eps=128, momentum=0.1, affine=True, track_running_stats=True)
  (6): ReLU(inplace=True)
  (7): AvgPool2d(kernel_size=2, stride=1, padding=0)
  (8): Conv2d(128, 256, kernel_size=(4, 4), stride=(2, 2), padding=(1, 1))
  (9): BatchNorm2d(256, eps=256, momentum=0.1, affine=True, track_running_stats=True)
  (10): ReLU(inplace=True)
  (11): Conv2d(256, 256, kernel_size=(4, 4), stride=(2, 2), padding=(1, 1))
  (12): BatchNorm2d(256, eps=256, momentum=0.1, affine=True, track_running_stats=True)
  (13): ReLU(inplace=True)
  (14): AvgPool2d(kernel_size=2, stride=1, padding=0)
  (15): Conv2d(256, 512, kernel_size=(4, 4), stride=(2, 2), padding=(1, 1))
  (16): BatchNorm2d(512, eps=512, momentum=0.1, affine=True, track_running_stats=True)
  (17): ReLU(inplace=True)
  (18): AvgPool2d(kernel_size=2, stride=2, padding=0)
  (19): Flatten()
  (20): ODEBlock(
    (odefunc): ODEfunc(
      (fc1): Linear(in_features=784, out_features=16, bias=True)
      (fc2): Linear(in_features=16, out_features=784, bias=True)
    )
  )
  (21): Linear(in_features=784, out_features=10, bias=True)
)
Number of parameters: 3840202
Number of parameters: 3840202
Number of parameters: 3840202
Number of parameters: 3840202
Number of parameters: 3840202
Number of parameters: 3840202
Number of parameters: 3840202
/home/manzand/Documents/Python/neuralODE_examples/cifar/odenet_cifar_example_small.py
/home/manzand/Documents/Python/neuralODE_examples/cifar/odenet_cifar_example_small.py
…
Namespace(adjoint=False, batch_size=128, data_aug=False, debug=False, downsampling_method='conv', gpu=0, lr=0.01, nepochs=200, network='odenet', save='../logs/cifarsmall', test_batch_size=1000, tol=0.001)
Namespace(adjoint=False, batch_size=128, data_aug=False, debug=False, downsampling_method='conv', gpu=0, lr=0.01, nepochs=200, network='odenet', save='../logs/cifarsmall', test_batch_size=1000, tol=0.001)
Namespace(adjoint=False, batch_size=128, data_aug=False, debug=False, downsampling_method='conv', gpu=0, lr=0.01, nepochs=200, network='odenet', save='../logs/cifarsmall', test_batch_size=1000, tol=0.001)
Sequential(
  (0): Conv2d(3, 64, kernel_size=(3, 3), stride=(1, 1))
  (1): BatchNorm2d(64, eps=64, momentum=0.1, affine=True, track_running_stats=True)
  (2): ReLU(inplace=True)
  (3): AvgPool2d(kernel_size=2, stride=1, padding=0)
  (4): Conv2d(64, 128, kernel_size=(4, 4), stride=(2, 2), padding=(1, 1))
  (5): BatchNorm2d(128, eps=128, momentum=0.1, affine=True, track_running_stats=True)
  (6): ReLU(inplace=True)
  (7): AvgPool2d(kernel_size=2, stride=1, padding=0)
  (8): Conv2d(128, 256, kernel_size=(4, 4), stride=(2, 2), padding=(1, 1))
  (9): BatchNorm2d(256, eps=256, momentum=0.1, affine=True, track_running_stats=True)
  (10): ReLU(inplace=True)
  (11): Conv2d(256, 256, kernel_size=(4, 4), stride=(2, 2), padding=(1, 1))
  (12): BatchNorm2d(256, eps=256, momentum=0.1, affine=True, track_running_stats=True)
  (13): ReLU(inplace=True)
  (14): AvgPool2d(kernel_size=2, stride=1, padding=0)
  (15): Conv2d(256, 512, kernel_size=(4, 4), stride=(2, 2), padding=(1, 1))
  (16): BatchNorm2d(512, eps=512, momentum=0.1, affine=True, track_running_stats=True)
  (17): ReLU(inplace=True)
  (18): Flatten()
  (19): ODEBlock(
    (odefunc): ODEfunc(
      (fc1): Linear(in_features=784, out_features=16, bias=True)
      (fc2): Linear(in_features=16, out_features=784, bias=True)
    )
  )
  (20): Linear(in_features=784, out_features=10, bias=True)
)
Sequential(
  (0): Conv2d(3, 64, kernel_size=(3, 3), stride=(1, 1))
  (1): BatchNorm2d(64, eps=64, momentum=0.1, affine=True, track_running_stats=True)
  (2): ReLU(inplace=True)
  (3): AvgPool2d(kernel_size=2, stride=1, padding=0)
  (4): Conv2d(64, 128, kernel_size=(4, 4), stride=(2, 2), padding=(1, 1))
  (5): BatchNorm2d(128, eps=128, momentum=0.1, affine=True, track_running_stats=True)
  (6): ReLU(inplace=True)
  (7): AvgPool2d(kernel_size=2, stride=1, padding=0)
  (8): Conv2d(128, 256, kernel_size=(4, 4), stride=(2, 2), padding=(1, 1))
  (9): BatchNorm2d(256, eps=256, momentum=0.1, affine=True, track_running_stats=True)
  (10): ReLU(inplace=True)
  (11): Conv2d(256, 256, kernel_size=(4, 4), stride=(2, 2), padding=(1, 1))
  (12): BatchNorm2d(256, eps=256, momentum=0.1, affine=True, track_running_stats=True)
  (13): ReLU(inplace=True)
  (14): AvgPool2d(kernel_size=2, stride=1, padding=0)
  (15): Conv2d(256, 512, kernel_size=(4, 4), stride=(2, 2), padding=(1, 1))
  (16): BatchNorm2d(512, eps=512, momentum=0.1, affine=True, track_running_stats=True)
  (17): ReLU(inplace=True)
  (18): Flatten()
  (19): ODEBlock(
    (odefunc): ODEfunc(
      (fc1): Linear(in_features=784, out_features=16, bias=True)
      (fc2): Linear(in_features=16, out_features=784, bias=True)
    )
  )
  (20): Linear(in_features=784, out_features=10, bias=True)
)
Sequential(
  (0): Conv2d(3, 64, kernel_size=(3, 3), stride=(1, 1))
  (1): BatchNorm2d(64, eps=64, momentum=0.1, affine=True, track_running_stats=True)
  (2): ReLU(inplace=True)
  (3): AvgPool2d(kernel_size=2, stride=1, padding=0)
  (4): Conv2d(64, 128, kernel_size=(4, 4), stride=(2, 2), padding=(1, 1))
  (5): BatchNorm2d(128, eps=128, momentum=0.1, affine=True, track_running_stats=True)
  (6): ReLU(inplace=True)
  (7): AvgPool2d(kernel_size=2, stride=1, padding=0)
  (8): Conv2d(128, 256, kernel_size=(4, 4), stride=(2, 2), padding=(1, 1))
  (9): BatchNorm2d(256, eps=256, momentum=0.1, affine=True, track_running_stats=True)
  (10): ReLU(inplace=True)
  (11): Conv2d(256, 256, kernel_size=(4, 4), stride=(2, 2), padding=(1, 1))
  (12): BatchNorm2d(256, eps=256, momentum=0.1, affine=True, track_running_stats=True)
  (13): ReLU(inplace=True)
  (14): AvgPool2d(kernel_size=2, stride=1, padding=0)
  (15): Conv2d(256, 512, kernel_size=(4, 4), stride=(2, 2), padding=(1, 1))
  (16): BatchNorm2d(512, eps=512, momentum=0.1, affine=True, track_running_stats=True)
  (17): ReLU(inplace=True)
  (18): Flatten()
  (19): ODEBlock(
    (odefunc): ODEfunc(
      (fc1): Linear(in_features=784, out_features=16, bias=True)
      (fc2): Linear(in_features=16, out_features=784, bias=True)
    )
  )
  (20): Linear(in_features=784, out_features=10, bias=True)
)
Sequential(
  (0): Conv2d(3, 64, kernel_size=(3, 3), stride=(1, 1))
  (1): BatchNorm2d(64, eps=64, momentum=0.1, affine=True, track_running_stats=True)
  (2): ReLU(inplace=True)
  (3): AvgPool2d(kernel_size=2, stride=1, padding=0)
  (4): Conv2d(64, 128, kernel_size=(4, 4), stride=(2, 2), padding=(1, 1))
  (5): BatchNorm2d(128, eps=128, momentum=0.1, affine=True, track_running_stats=True)
  (6): ReLU(inplace=True)
  (7): AvgPool2d(kernel_size=2, stride=1, padding=0)
  (8): Conv2d(128, 256, kernel_size=(4, 4), stride=(2, 2), padding=(1, 1))
  (9): BatchNorm2d(256, eps=256, momentum=0.1, affine=True, track_running_stats=True)
  (10): ReLU(inplace=True)
  (11): Conv2d(256, 256, kernel_size=(4, 4), stride=(2, 2), padding=(1, 1))
  (12): BatchNorm2d(256, eps=256, momentum=0.1, affine=True, track_running_stats=True)
  (13): ReLU(inplace=True)
  (14): AvgPool2d(kernel_size=2, stride=1, padding=0)
  (15): Conv2d(256, 512, kernel_size=(4, 4), stride=(2, 2), padding=(1, 1))
  (16): BatchNorm2d(512, eps=512, momentum=0.1, affine=True, track_running_stats=True)
  (17): ReLU(inplace=True)
  (18): Flatten()
  (19): ODEBlock(
    (odefunc): ODEfunc(
      (fc1): Linear(in_features=784, out_features=16, bias=True)
      (fc2): Linear(in_features=16, out_features=784, bias=True)
    )
  )
  (20): Linear(in_features=784, out_features=10, bias=True)
)
Sequential(
  (0): Conv2d(3, 64, kernel_size=(3, 3), stride=(1, 1))
  (1): BatchNorm2d(64, eps=64, momentum=0.1, affine=True, track_running_stats=True)
  (2): ReLU(inplace=True)
  (3): AvgPool2d(kernel_size=2, stride=1, padding=0)
  (4): Conv2d(64, 128, kernel_size=(4, 4), stride=(2, 2), padding=(1, 1))
  (5): BatchNorm2d(128, eps=128, momentum=0.1, affine=True, track_running_stats=True)
  (6): ReLU(inplace=True)
  (7): AvgPool2d(kernel_size=2, stride=1, padding=0)
  (8): Conv2d(128, 256, kernel_size=(4, 4), stride=(2, 2), padding=(1, 1))
  (9): BatchNorm2d(256, eps=256, momentum=0.1, affine=True, track_running_stats=True)
  (10): ReLU(inplace=True)
  (11): Conv2d(256, 256, kernel_size=(4, 4), stride=(2, 2), padding=(1, 1))
  (12): BatchNorm2d(256, eps=256, momentum=0.1, affine=True, track_running_stats=True)
  (13): ReLU(inplace=True)
  (14): AvgPool2d(kernel_size=2, stride=1, padding=0)
  (15): Conv2d(256, 512, kernel_size=(4, 4), stride=(2, 2), padding=(1, 1))
  (16): BatchNorm2d(512, eps=512, momentum=0.1, affine=True, track_running_stats=True)
  (17): ReLU(inplace=True)
  (18): Flatten()
  (19): ODEBlock(
    (odefunc): ODEfunc(
      (fc1): Linear(in_features=784, out_features=16, bias=True)
      (fc2): Linear(in_features=16, out_features=784, bias=True)
    )
  )
  (20): Linear(in_features=784, out_features=10, bias=True)
)
Sequential(
  (0): Conv2d(3, 64, kernel_size=(3, 3), stride=(1, 1))
  (1): BatchNorm2d(64, eps=64, momentum=0.1, affine=True, track_running_stats=True)
  (2): ReLU(inplace=True)
  (3): AvgPool2d(kernel_size=2, stride=1, padding=0)
  (4): Conv2d(64, 128, kernel_size=(4, 4), stride=(2, 2), padding=(1, 1))
  (5): BatchNorm2d(128, eps=128, momentum=0.1, affine=True, track_running_stats=True)
  (6): ReLU(inplace=True)
  (7): AvgPool2d(kernel_size=2, stride=1, padding=0)
  (8): Conv2d(128, 256, kernel_size=(4, 4), stride=(2, 2), padding=(1, 1))
  (9): BatchNorm2d(256, eps=256, momentum=0.1, affine=True, track_running_stats=True)
  (10): ReLU(inplace=True)
  (11): Conv2d(256, 256, kernel_size=(4, 4), stride=(2, 2), padding=(1, 1))
  (12): BatchNorm2d(256, eps=256, momentum=0.1, affine=True, track_running_stats=True)
  (13): ReLU(inplace=True)
  (14): AvgPool2d(kernel_size=2, stride=1, padding=0)
  (15): Conv2d(256, 512, kernel_size=(4, 4), stride=(2, 2), padding=(1, 1))
  (16): BatchNorm2d(512, eps=512, momentum=0.1, affine=True, track_running_stats=True)
  (17): ReLU(inplace=True)
  (18): Flatten()
  (19): ODEBlock(
    (odefunc): ODEfunc(
      (fc1): Linear(in_features=784, out_features=16, bias=True)
      (fc2): Linear(in_features=16, out_features=784, bias=True)
    )
  )
  (20): Linear(in_features=784, out_features=10, bias=True)
)
Sequential(
  (0): Conv2d(3, 64, kernel_size=(3, 3), stride=(1, 1))
  (1): BatchNorm2d(64, eps=64, momentum=0.1, affine=True, track_running_stats=True)
  (2): ReLU(inplace=True)
  (3): AvgPool2d(kernel_size=2, stride=1, padding=0)
  (4): Conv2d(64, 128, kernel_size=(4, 4), stride=(2, 2), padding=(1, 1))
  (5): BatchNorm2d(128, eps=128, momentum=0.1, affine=True, track_running_stats=True)
  (6): ReLU(inplace=True)
  (7): AvgPool2d(kernel_size=2, stride=1, padding=0)
  (8): Conv2d(128, 256, kernel_size=(4, 4), stride=(2, 2), padding=(1, 1))
  (9): BatchNorm2d(256, eps=256, momentum=0.1, affine=True, track_running_stats=True)
  (10): ReLU(inplace=True)
  (11): Conv2d(256, 256, kernel_size=(4, 4), stride=(2, 2), padding=(1, 1))
  (12): BatchNorm2d(256, eps=256, momentum=0.1, affine=True, track_running_stats=True)
  (13): ReLU(inplace=True)
  (14): AvgPool2d(kernel_size=2, stride=1, padding=0)
  (15): Conv2d(256, 512, kernel_size=(4, 4), stride=(2, 2), padding=(1, 1))
  (16): BatchNorm2d(512, eps=512, momentum=0.1, affine=True, track_running_stats=True)
  (17): ReLU(inplace=True)
  (18): Flatten()
  (19): ODEBlock(
    (odefunc): ODEfunc(
      (fc1): Linear(in_features=784, out_features=16, bias=True)
      (fc2): Linear(in_features=16, out_features=784, bias=True)
    )
  )
  (20): Linear(in_features=784, out_features=10, bias=True)
)
Sequential(
  (0): Conv2d(3, 64, kernel_size=(3, 3), stride=(1, 1))
  (1): BatchNorm2d(64, eps=64, momentum=0.1, affine=True, track_running_stats=True)
  (2): ReLU(inplace=True)
  (3): AvgPool2d(kernel_size=2, stride=1, padding=0)
  (4): Conv2d(64, 128, kernel_size=(4, 4), stride=(2, 2), padding=(1, 1))
  (5): BatchNorm2d(128, eps=128, momentum=0.1, affine=True, track_running_stats=True)
  (6): ReLU(inplace=True)
  (7): AvgPool2d(kernel_size=2, stride=1, padding=0)
  (8): Conv2d(128, 256, kernel_size=(4, 4), stride=(2, 2), padding=(1, 1))
  (9): BatchNorm2d(256, eps=256, momentum=0.1, affine=True, track_running_stats=True)
  (10): ReLU(inplace=True)
  (11): Conv2d(256, 256, kernel_size=(4, 4), stride=(2, 2), padding=(1, 1))
  (12): BatchNorm2d(256, eps=256, momentum=0.1, affine=True, track_running_stats=True)
  (13): ReLU(inplace=True)
  (14): AvgPool2d(kernel_size=2, stride=1, padding=0)
  (15): Conv2d(256, 512, kernel_size=(4, 4), stride=(2, 2), padding=(1, 1))
  (16): BatchNorm2d(512, eps=512, momentum=0.1, affine=True, track_running_stats=True)
  (17): ReLU(inplace=True)
  (18): Flatten()
  (19): ODEBlock(
    (odefunc): ODEfunc(
      (fc1): Linear(in_features=784, out_features=16, bias=True)
      (fc2): Linear(in_features=16, out_features=784, bias=True)
    )
  )
  (20): Linear(in_features=784, out_features=10, bias=True)
)
Number of parameters: 3840202
Number of parameters: 3840202
Number of parameters: 3840202
Number of parameters: 3840202
Number of parameters: 3840202
Number of parameters: 3840202
Number of parameters: 3840202
Number of parameters: 3840202
/home/manzand/Documents/Python/neuralODE_examples/cifar/odenet_cifar_example_small.py
/home/manzand/Documents/Python/neuralODE_examples/cifar/odenet_cifar_example_small.py
…
Namespace(adjoint=False, batch_size=128, data_aug=False, debug=False, downsampling_method='conv', gpu=0, lr=0.01, nepochs=200, network='odenet', save='../logs/cifarsmall', test_batch_size=1000, tol=0.001)
Namespace(adjoint=False, batch_size=128, data_aug=False, debug=False, downsampling_method='conv', gpu=0, lr=0.01, nepochs=200, network='odenet', save='../logs/cifarsmall', test_batch_size=1000, tol=0.001)
Namespace(adjoint=False, batch_size=128, data_aug=False, debug=False, downsampling_method='conv', gpu=0, lr=0.01, nepochs=200, network='odenet', save='../logs/cifarsmall', test_batch_size=1000, tol=0.001)
Sequential(
  (0): Conv2d(3, 64, kernel_size=(3, 3), stride=(1, 1))
  (1): BatchNorm2d(64, eps=64, momentum=0.1, affine=True, track_running_stats=True)
  (2): ReLU(inplace=True)
  (3): AvgPool2d(kernel_size=2, stride=1, padding=0)
  (4): Conv2d(64, 128, kernel_size=(4, 4), stride=(2, 2), padding=(1, 1))
  (5): BatchNorm2d(128, eps=128, momentum=0.1, affine=True, track_running_stats=True)
  (6): ReLU(inplace=True)
  (7): AvgPool2d(kernel_size=2, stride=1, padding=0)
  (8): Conv2d(128, 256, kernel_size=(4, 4), stride=(2, 2), padding=(1, 1))
  (9): BatchNorm2d(256, eps=256, momentum=0.1, affine=True, track_running_stats=True)
  (10): ReLU(inplace=True)
  (11): Conv2d(256, 256, kernel_size=(4, 4), stride=(2, 2), padding=(1, 1))
  (12): BatchNorm2d(256, eps=256, momentum=0.1, affine=True, track_running_stats=True)
  (13): ReLU(inplace=True)
  (14): AvgPool2d(kernel_size=2, stride=1, padding=0)
  (15): Conv2d(256, 512, kernel_size=(4, 4), stride=(2, 2), padding=(1, 1))
  (16): BatchNorm2d(512, eps=512, momentum=0.1, affine=True, track_running_stats=True)
  (17): ReLU(inplace=True)
  (18): Flatten()
  (19): ODEBlock(
    (odefunc): ODEfunc(
      (fc1): Linear(in_features=512, out_features=16, bias=True)
      (fc2): Linear(in_features=16, out_features=512, bias=True)
    )
  )
  (20): Linear(in_features=512, out_features=10, bias=True)
)
Sequential(
  (0): Conv2d(3, 64, kernel_size=(3, 3), stride=(1, 1))
  (1): BatchNorm2d(64, eps=64, momentum=0.1, affine=True, track_running_stats=True)
  (2): ReLU(inplace=True)
  (3): AvgPool2d(kernel_size=2, stride=1, padding=0)
  (4): Conv2d(64, 128, kernel_size=(4, 4), stride=(2, 2), padding=(1, 1))
  (5): BatchNorm2d(128, eps=128, momentum=0.1, affine=True, track_running_stats=True)
  (6): ReLU(inplace=True)
  (7): AvgPool2d(kernel_size=2, stride=1, padding=0)
  (8): Conv2d(128, 256, kernel_size=(4, 4), stride=(2, 2), padding=(1, 1))
  (9): BatchNorm2d(256, eps=256, momentum=0.1, affine=True, track_running_stats=True)
  (10): ReLU(inplace=True)
  (11): Conv2d(256, 256, kernel_size=(4, 4), stride=(2, 2), padding=(1, 1))
  (12): BatchNorm2d(256, eps=256, momentum=0.1, affine=True, track_running_stats=True)
  (13): ReLU(inplace=True)
  (14): AvgPool2d(kernel_size=2, stride=1, padding=0)
  (15): Conv2d(256, 512, kernel_size=(4, 4), stride=(2, 2), padding=(1, 1))
  (16): BatchNorm2d(512, eps=512, momentum=0.1, affine=True, track_running_stats=True)
  (17): ReLU(inplace=True)
  (18): Flatten()
  (19): ODEBlock(
    (odefunc): ODEfunc(
      (fc1): Linear(in_features=512, out_features=16, bias=True)
      (fc2): Linear(in_features=16, out_features=512, bias=True)
    )
  )
  (20): Linear(in_features=512, out_features=10, bias=True)
)
Sequential(
  (0): Conv2d(3, 64, kernel_size=(3, 3), stride=(1, 1))
  (1): BatchNorm2d(64, eps=64, momentum=0.1, affine=True, track_running_stats=True)
  (2): ReLU(inplace=True)
  (3): AvgPool2d(kernel_size=2, stride=1, padding=0)
  (4): Conv2d(64, 128, kernel_size=(4, 4), stride=(2, 2), padding=(1, 1))
  (5): BatchNorm2d(128, eps=128, momentum=0.1, affine=True, track_running_stats=True)
  (6): ReLU(inplace=True)
  (7): AvgPool2d(kernel_size=2, stride=1, padding=0)
  (8): Conv2d(128, 256, kernel_size=(4, 4), stride=(2, 2), padding=(1, 1))
  (9): BatchNorm2d(256, eps=256, momentum=0.1, affine=True, track_running_stats=True)
  (10): ReLU(inplace=True)
  (11): Conv2d(256, 256, kernel_size=(4, 4), stride=(2, 2), padding=(1, 1))
  (12): BatchNorm2d(256, eps=256, momentum=0.1, affine=True, track_running_stats=True)
  (13): ReLU(inplace=True)
  (14): AvgPool2d(kernel_size=2, stride=1, padding=0)
  (15): Conv2d(256, 512, kernel_size=(4, 4), stride=(2, 2), padding=(1, 1))
  (16): BatchNorm2d(512, eps=512, momentum=0.1, affine=True, track_running_stats=True)
  (17): ReLU(inplace=True)
  (18): Flatten()
  (19): ODEBlock(
    (odefunc): ODEfunc(
      (fc1): Linear(in_features=512, out_features=16, bias=True)
      (fc2): Linear(in_features=16, out_features=512, bias=True)
    )
  )
  (20): Linear(in_features=512, out_features=10, bias=True)
)
Sequential(
  (0): Conv2d(3, 64, kernel_size=(3, 3), stride=(1, 1))
  (1): BatchNorm2d(64, eps=64, momentum=0.1, affine=True, track_running_stats=True)
  (2): ReLU(inplace=True)
  (3): AvgPool2d(kernel_size=2, stride=1, padding=0)
  (4): Conv2d(64, 128, kernel_size=(4, 4), stride=(2, 2), padding=(1, 1))
  (5): BatchNorm2d(128, eps=128, momentum=0.1, affine=True, track_running_stats=True)
  (6): ReLU(inplace=True)
  (7): AvgPool2d(kernel_size=2, stride=1, padding=0)
  (8): Conv2d(128, 256, kernel_size=(4, 4), stride=(2, 2), padding=(1, 1))
  (9): BatchNorm2d(256, eps=256, momentum=0.1, affine=True, track_running_stats=True)
  (10): ReLU(inplace=True)
  (11): Conv2d(256, 256, kernel_size=(4, 4), stride=(2, 2), padding=(1, 1))
  (12): BatchNorm2d(256, eps=256, momentum=0.1, affine=True, track_running_stats=True)
  (13): ReLU(inplace=True)
  (14): AvgPool2d(kernel_size=2, stride=1, padding=0)
  (15): Conv2d(256, 512, kernel_size=(4, 4), stride=(2, 2), padding=(1, 1))
  (16): BatchNorm2d(512, eps=512, momentum=0.1, affine=True, track_running_stats=True)
  (17): ReLU(inplace=True)
  (18): Flatten()
  (19): ODEBlock(
    (odefunc): ODEfunc(
      (fc1): Linear(in_features=512, out_features=16, bias=True)
      (fc2): Linear(in_features=16, out_features=512, bias=True)
    )
  )
  (20): Linear(in_features=512, out_features=10, bias=True)
)
Sequential(
  (0): Conv2d(3, 64, kernel_size=(3, 3), stride=(1, 1))
  (1): BatchNorm2d(64, eps=64, momentum=0.1, affine=True, track_running_stats=True)
  (2): ReLU(inplace=True)
  (3): AvgPool2d(kernel_size=2, stride=1, padding=0)
  (4): Conv2d(64, 128, kernel_size=(4, 4), stride=(2, 2), padding=(1, 1))
  (5): BatchNorm2d(128, eps=128, momentum=0.1, affine=True, track_running_stats=True)
  (6): ReLU(inplace=True)
  (7): AvgPool2d(kernel_size=2, stride=1, padding=0)
  (8): Conv2d(128, 256, kernel_size=(4, 4), stride=(2, 2), padding=(1, 1))
  (9): BatchNorm2d(256, eps=256, momentum=0.1, affine=True, track_running_stats=True)
  (10): ReLU(inplace=True)
  (11): Conv2d(256, 256, kernel_size=(4, 4), stride=(2, 2), padding=(1, 1))
  (12): BatchNorm2d(256, eps=256, momentum=0.1, affine=True, track_running_stats=True)
  (13): ReLU(inplace=True)
  (14): AvgPool2d(kernel_size=2, stride=1, padding=0)
  (15): Conv2d(256, 512, kernel_size=(4, 4), stride=(2, 2), padding=(1, 1))
  (16): BatchNorm2d(512, eps=512, momentum=0.1, affine=True, track_running_stats=True)
  (17): ReLU(inplace=True)
  (18): Flatten()
  (19): ODEBlock(
    (odefunc): ODEfunc(
      (fc1): Linear(in_features=512, out_features=16, bias=True)
      (fc2): Linear(in_features=16, out_features=512, bias=True)
    )
  )
  (20): Linear(in_features=512, out_features=10, bias=True)
)
Sequential(
  (0): Conv2d(3, 64, kernel_size=(3, 3), stride=(1, 1))
  (1): BatchNorm2d(64, eps=64, momentum=0.1, affine=True, track_running_stats=True)
  (2): ReLU(inplace=True)
  (3): AvgPool2d(kernel_size=2, stride=1, padding=0)
  (4): Conv2d(64, 128, kernel_size=(4, 4), stride=(2, 2), padding=(1, 1))
  (5): BatchNorm2d(128, eps=128, momentum=0.1, affine=True, track_running_stats=True)
  (6): ReLU(inplace=True)
  (7): AvgPool2d(kernel_size=2, stride=1, padding=0)
  (8): Conv2d(128, 256, kernel_size=(4, 4), stride=(2, 2), padding=(1, 1))
  (9): BatchNorm2d(256, eps=256, momentum=0.1, affine=True, track_running_stats=True)
  (10): ReLU(inplace=True)
  (11): Conv2d(256, 256, kernel_size=(4, 4), stride=(2, 2), padding=(1, 1))
  (12): BatchNorm2d(256, eps=256, momentum=0.1, affine=True, track_running_stats=True)
  (13): ReLU(inplace=True)
  (14): AvgPool2d(kernel_size=2, stride=1, padding=0)
  (15): Conv2d(256, 512, kernel_size=(4, 4), stride=(2, 2), padding=(1, 1))
  (16): BatchNorm2d(512, eps=512, momentum=0.1, affine=True, track_running_stats=True)
  (17): ReLU(inplace=True)
  (18): Flatten()
  (19): ODEBlock(
    (odefunc): ODEfunc(
      (fc1): Linear(in_features=512, out_features=16, bias=True)
      (fc2): Linear(in_features=16, out_features=512, bias=True)
    )
  )
  (20): Linear(in_features=512, out_features=10, bias=True)
)
Sequential(
  (0): Conv2d(3, 64, kernel_size=(3, 3), stride=(1, 1))
  (1): BatchNorm2d(64, eps=64, momentum=0.1, affine=True, track_running_stats=True)
  (2): ReLU(inplace=True)
  (3): AvgPool2d(kernel_size=2, stride=1, padding=0)
  (4): Conv2d(64, 128, kernel_size=(4, 4), stride=(2, 2), padding=(1, 1))
  (5): BatchNorm2d(128, eps=128, momentum=0.1, affine=True, track_running_stats=True)
  (6): ReLU(inplace=True)
  (7): AvgPool2d(kernel_size=2, stride=1, padding=0)
  (8): Conv2d(128, 256, kernel_size=(4, 4), stride=(2, 2), padding=(1, 1))
  (9): BatchNorm2d(256, eps=256, momentum=0.1, affine=True, track_running_stats=True)
  (10): ReLU(inplace=True)
  (11): Conv2d(256, 256, kernel_size=(4, 4), stride=(2, 2), padding=(1, 1))
  (12): BatchNorm2d(256, eps=256, momentum=0.1, affine=True, track_running_stats=True)
  (13): ReLU(inplace=True)
  (14): AvgPool2d(kernel_size=2, stride=1, padding=0)
  (15): Conv2d(256, 512, kernel_size=(4, 4), stride=(2, 2), padding=(1, 1))
  (16): BatchNorm2d(512, eps=512, momentum=0.1, affine=True, track_running_stats=True)
  (17): ReLU(inplace=True)
  (18): Flatten()
  (19): ODEBlock(
    (odefunc): ODEfunc(
      (fc1): Linear(in_features=512, out_features=16, bias=True)
      (fc2): Linear(in_features=16, out_features=512, bias=True)
    )
  )
  (20): Linear(in_features=512, out_features=10, bias=True)
)
Sequential(
  (0): Conv2d(3, 64, kernel_size=(3, 3), stride=(1, 1))
  (1): BatchNorm2d(64, eps=64, momentum=0.1, affine=True, track_running_stats=True)
  (2): ReLU(inplace=True)
  (3): AvgPool2d(kernel_size=2, stride=1, padding=0)
  (4): Conv2d(64, 128, kernel_size=(4, 4), stride=(2, 2), padding=(1, 1))
  (5): BatchNorm2d(128, eps=128, momentum=0.1, affine=True, track_running_stats=True)
  (6): ReLU(inplace=True)
  (7): AvgPool2d(kernel_size=2, stride=1, padding=0)
  (8): Conv2d(128, 256, kernel_size=(4, 4), stride=(2, 2), padding=(1, 1))
  (9): BatchNorm2d(256, eps=256, momentum=0.1, affine=True, track_running_stats=True)
  (10): ReLU(inplace=True)
  (11): Conv2d(256, 256, kernel_size=(4, 4), stride=(2, 2), padding=(1, 1))
  (12): BatchNorm2d(256, eps=256, momentum=0.1, affine=True, track_running_stats=True)
  (13): ReLU(inplace=True)
  (14): AvgPool2d(kernel_size=2, stride=1, padding=0)
  (15): Conv2d(256, 512, kernel_size=(4, 4), stride=(2, 2), padding=(1, 1))
  (16): BatchNorm2d(512, eps=512, momentum=0.1, affine=True, track_running_stats=True)
  (17): ReLU(inplace=True)
  (18): Flatten()
  (19): ODEBlock(
    (odefunc): ODEfunc(
      (fc1): Linear(in_features=512, out_features=16, bias=True)
      (fc2): Linear(in_features=16, out_features=512, bias=True)
    )
  )
  (20): Linear(in_features=512, out_features=10, bias=True)
)
Sequential(
  (0): Conv2d(3, 64, kernel_size=(3, 3), stride=(1, 1))
  (1): BatchNorm2d(64, eps=64, momentum=0.1, affine=True, track_running_stats=True)
  (2): ReLU(inplace=True)
  (3): AvgPool2d(kernel_size=2, stride=1, padding=0)
  (4): Conv2d(64, 128, kernel_size=(4, 4), stride=(2, 2), padding=(1, 1))
  (5): BatchNorm2d(128, eps=128, momentum=0.1, affine=True, track_running_stats=True)
  (6): ReLU(inplace=True)
  (7): AvgPool2d(kernel_size=2, stride=1, padding=0)
  (8): Conv2d(128, 256, kernel_size=(4, 4), stride=(2, 2), padding=(1, 1))
  (9): BatchNorm2d(256, eps=256, momentum=0.1, affine=True, track_running_stats=True)
  (10): ReLU(inplace=True)
  (11): Conv2d(256, 256, kernel_size=(4, 4), stride=(2, 2), padding=(1, 1))
  (12): BatchNorm2d(256, eps=256, momentum=0.1, affine=True, track_running_stats=True)
  (13): ReLU(inplace=True)
  (14): AvgPool2d(kernel_size=2, stride=1, padding=0)
  (15): Conv2d(256, 512, kernel_size=(4, 4), stride=(2, 2), padding=(1, 1))
  (16): BatchNorm2d(512, eps=512, momentum=0.1, affine=True, track_running_stats=True)
  (17): ReLU(inplace=True)
  (18): Flatten()
  (19): ODEBlock(
    (odefunc): ODEfunc(
      (fc1): Linear(in_features=512, out_features=16, bias=True)
      (fc2): Linear(in_features=16, out_features=512, bias=True)
    )
  )
  (20): Linear(in_features=512, out_features=10, bias=True)
)
Number of parameters: 3828506
Number of parameters: 3828506
Number of parameters: 3828506
Number of parameters: 3828506
Number of parameters: 3828506
Number of parameters: 3828506
Number of parameters: 3828506
Number of parameters: 3828506
Number of parameters: 3828506
Epoch 0000 | Time 1.313 (1.313) | NFE-F 32.0 | NFE-B 0.0 | Train Acc 0.1000 | Test Acc 0.1000
…
                    )
                )
    names = []
    params = []
    for name,param in model.named_parameters():
        names.append(name)
        params.append(param.detach().numpy())
    nn1 = dict({'Wb':params,'names':names})
    for name,param in model.named_buffers():
        names.append(name)
        params.append(param.detach().numpy())
    savemat("odecnn_cifar_small.mat",nn1)
Namespace(adjoint=False, batch_size=128, data_aug=False, debug=False, downsampling_method='conv', gpu=0, lr=0.01, nepochs=200, network='odenet', save='../logs/cifarsmall', test_batch_size=1000, tol=0.001)
Sequential(
  (0): Conv2d(3, 64, kernel_size=(3, 3), stride=(1, 1))
  (1): BatchNorm2d(64, eps=64, momentum=0.1, affine=True, track_running_stats=True)
  (2): ReLU(inplace=True)
  (3): AvgPool2d(kernel_size=2, stride=1, padding=0)
  (4): Conv2d(64, 128, kernel_size=(4, 4), stride=(2, 2), padding=(1, 1))
  (5): BatchNorm2d(128, eps=128, momentum=0.1, affine=True, track_running_stats=True)
  (6): ReLU(inplace=True)
  (7): AvgPool2d(kernel_size=2, stride=1, padding=0)
  (8): Conv2d(128, 256, kernel_size=(4, 4), stride=(2, 2), padding=(1, 1))
  (9): BatchNorm2d(256, eps=256, momentum=0.1, affine=True, track_running_stats=True)
  (10): ReLU(inplace=True)
  (11): Conv2d(256, 256, kernel_size=(4, 4), stride=(2, 2), padding=(1, 1))
  (12): BatchNorm2d(256, eps=256, momentum=0.1, affine=True, track_running_stats=True)
  (13): ReLU(inplace=True)
  (14): AvgPool2d(kernel_size=2, stride=1, padding=0)
  (15): Conv2d(256, 512, kernel_size=(4, 4), stride=(2, 2), padding=(1, 1))
  (16): BatchNorm2d(512, eps=512, momentum=0.1, affine=True, track_running_stats=True)
  (17): ReLU(inplace=True)
  (18): Flatten()
  (19): ODEBlock(
    (odefunc): ODEfunc(
      (fc1): Linear(in_features=512, out_features=16, bias=True)
      (fc2): Linear(in_features=16, out_features=512, bias=True)
    )
  )
  (20): Linear(in_features=512, out_features=10, bias=True)
)
Number of parameters: 3828506
Epoch 0000 | Time 1.143 (1.143) | NFE-F 32.0 | NFE-B 0.0 | Train Acc 0.1000 | Test Acc 0.1000
Epoch 0001 | Time 1.238 (0.846) | NFE-F 26.5 | NFE-B 0.0 | Train Acc 0.1000 | Test Acc 0.1000
Epoch 0002 | Time 1.165 (0.849) | NFE-F 26.3 | NFE-B 0.0 | Train Acc 0.1000 | Test Acc 0.1000
Epoch 0003 | Time 1.048 (0.828) | NFE-F 20.5 | NFE-B 0.0 | Train Acc 0.1000 | Test Acc 0.1000
…
