…
                    )
                )
    names = []
    params = []
    for name,param in model.named_parameters():
        names.append(name)
        params.append(param.detach().numpy())
    nn1 = dict({'Wb':params,'names':names})
    for name,param in model.named_buffers():
        names.append(name)
        params.append(param.detach().numpy())
    savemat("odecnn_cifar_mid.mat",nn1)
Namespace(adjoint=False, batch_size=128, data_aug=False, debug=False, downsampling_method='conv', gpu=0, lr=0.01, nepochs=100, network='odenet', save='./experiment3', test_batch_size=1000, tol=0.001)
Sequential(
  (0): Conv2d(3, 20, kernel_size=(3, 3), stride=(1, 1))
  (1): BatchNorm2d(20, eps=20, momentum=0.1, affine=True, track_running_stats=True)
  (2): ReLU(inplace=True)
  (3): Conv2d(20, 10, kernel_size=(4, 4), stride=(2, 2), padding=(1, 1))
  (4): BatchNorm2d(10, eps=10, momentum=0.1, affine=True, track_running_stats=True)
  (5): ReLU(inplace=True)
  (6): Flatten()
  (7): ODEBlock(
    (odefunc): ODEfunc(
      (fc1): Linear(in_features=1690, out_features=16, bias=True)
      (fc2): Linear(in_features=16, out_features=1690, bias=True)
    )
  )
  (8): Linear(in_features=1690, out_features=10, bias=True)
)
Number of parameters: 76526
/home/manzand/Documents/Python/neuralODE_examples/odenet_cifar_example.py
/home/manzand/Documents/Python/neuralODE_examples/odenet_cifar_example.py
#!/usr/bin/env python3
# -*- coding: utf-8 -*-
"""
Created on Tue Jan 19 15:10:31 2021

@author: manzand
"""

import os
import argparse
import logging
import time
import numpy as np
…
    nn1 = dict({'Wb':params,'names':names})
    for name,param in model.named_buffers():
        names.append(name)
        params.append(param.detach().numpy())
    savemat("odecnn_cifar_mid.mat",nn1)
Namespace(adjoint=False, batch_size=128, data_aug=False, debug=False, downsampling_method='conv', gpu=0, lr=0.01, nepochs=100, network='odenet', save='./experiment3', test_batch_size=1000, tol=0.001)
Namespace(adjoint=False, batch_size=128, data_aug=False, debug=False, downsampling_method='conv', gpu=0, lr=0.01, nepochs=100, network='odenet', save='./experiment3', test_batch_size=1000, tol=0.001)
Sequential(
  (0): Conv2d(3, 20, kernel_size=(3, 3), stride=(1, 1))
  (1): BatchNorm2d(20, eps=20, momentum=0.1, affine=True, track_running_stats=True)
  (2): ReLU(inplace=True)
  (3): Conv2d(20, 10, kernel_size=(4, 4), stride=(2, 2), padding=(1, 1))
  (4): BatchNorm2d(10, eps=10, momentum=0.1, affine=True, track_running_stats=True)
  (5): ReLU(inplace=True)
  (6): Flatten()
  (7): ODEBlock(
    (odefunc): ODEfunc(
      (fc1): Linear(in_features=2250, out_features=16, bias=True)
      (fc2): Linear(in_features=16, out_features=2250, bias=True)
    )
  )
  (8): Linear(in_features=2250, out_features=10, bias=True)
)
Sequential(
  (0): Conv2d(3, 20, kernel_size=(3, 3), stride=(1, 1))
  (1): BatchNorm2d(20, eps=20, momentum=0.1, affine=True, track_running_stats=True)
  (2): ReLU(inplace=True)
  (3): Conv2d(20, 10, kernel_size=(4, 4), stride=(2, 2), padding=(1, 1))
  (4): BatchNorm2d(10, eps=10, momentum=0.1, affine=True, track_running_stats=True)
  (5): ReLU(inplace=True)
  (6): Flatten()
  (7): ODEBlock(
    (odefunc): ODEfunc(
      (fc1): Linear(in_features=2250, out_features=16, bias=True)
      (fc2): Linear(in_features=16, out_features=2250, bias=True)
    )
  )
  (8): Linear(in_features=2250, out_features=10, bias=True)
)
Number of parameters: 100606
Number of parameters: 100606
Epoch 0000 | Time 0.829 (0.829) | NFE-F 20.0 | NFE-B 0.0 | Train Acc 0.1000 | Test Acc 0.1000
Epoch 0000 | Time 0.829 (0.829) | NFE-F 20.0 | NFE-B 0.0 | Train Acc 0.1000 | Test Acc 0.1000
Epoch 0001 | Time 0.744 (0.415) | NFE-F 14.6 | NFE-B 0.0 | Train Acc 0.3059 | Test Acc 0.3099
Epoch 0001 | Time 0.744 (0.415) | NFE-F 14.6 | NFE-B 0.0 | Train Acc 0.3059 | Test Acc 0.3099
…
