…
                    )
                )
    names = []
    params = []
    for name,param in model.named_parameters():
        names.append(name)
        params.append(param.detach().numpy())
    nn1 = dict({'Wb':params,'names':names})
    for name,param in model.named_buffers():
        names.append(name)
        params.append(param.detach().numpy())
    savemat("odecnn_gtsrb_small.mat",nn1)
Namespace(adjoint=False, batch_size=128, data_aug=False, debug=False, downsampling_method='conv', gpu=0, lr=0.01, nepochs=100, network='odenet', save='./experiment1', test_batch_size=1000, tol=0.001)
Sequential(
  (0): Conv2d(1, 16, kernel_size=(3, 3), stride=(1, 1))
  (1): BatchNorm2d(16, eps=16, momentum=0.1, affine=True, track_running_stats=True)
  (2): ReLU(inplace=True)
  (3): Conv2d(16, 16, kernel_size=(4, 4), stride=(2, 2), padding=(1, 1))
  (4): BatchNorm2d(16, eps=16, momentum=0.1, affine=True, track_running_stats=True)
  (5): ReLU(inplace=True)
  (6): Flatten()
  (7): ODEBlock(
    (odefunc): ODEfunc(
      (fc1): Linear(in_features=2704, out_features=10, bias=True)
      (fc2): Linear(in_features=10, out_features=2704, bias=True)
    )
  )
  (8): Linear(in_features=2704, out_features=10, bias=True)
)
Number of parameters: 88180
/home/manzand/Documents/Python/neuralODE_examples/gtsrb/odenet_gtsrb_example_small.py
/home/manzand/Documents/Python/neuralODE_examples/gtsrb/odenet_gtsrb_example_small.py
#!/usr/bin/env python3
# -*- coding: utf-8 -*-
"""
Created on Thu Feb  4 09:04:31 2021

@author: manzand
"""

#!/usr/bin/env python3
# -*- coding: utf-8 -*-
…
    nn1 = dict({'Wb':params,'names':names})
    for name,param in model.named_buffers():
        names.append(name)
        params.append(param.detach().numpy())
    savemat("odecnn_gtsrb_small.mat",nn1)
Namespace(adjoint=False, batch_size=128, data_aug=False, debug=False, downsampling_method='conv', gpu=0, lr=0.01, nepochs=100, network='odenet', save='./experiment1', test_batch_size=1000, tol=0.001)
Namespace(adjoint=False, batch_size=128, data_aug=False, debug=False, downsampling_method='conv', gpu=0, lr=0.01, nepochs=100, network='odenet', save='./experiment1', test_batch_size=1000, tol=0.001)
Sequential(
  (0): Conv2d(1, 16, kernel_size=(3, 3), stride=(1, 1))
  (1): BatchNorm2d(16, eps=16, momentum=0.1, affine=True, track_running_stats=True)
  (2): ReLU(inplace=True)
  (3): Conv2d(16, 16, kernel_size=(4, 4), stride=(2, 2), padding=(1, 1))
  (4): BatchNorm2d(16, eps=16, momentum=0.1, affine=True, track_running_stats=True)
  (5): ReLU(inplace=True)
  (6): Flatten()
  (7): ODEBlock(
    (odefunc): ODEfunc(
      (fc1): Linear(in_features=2704, out_features=10, bias=True)
      (fc2): Linear(in_features=10, out_features=2704, bias=True)
    )
  )
  (8): Linear(in_features=2704, out_features=10, bias=True)
)
Sequential(
  (0): Conv2d(1, 16, kernel_size=(3, 3), stride=(1, 1))
  (1): BatchNorm2d(16, eps=16, momentum=0.1, affine=True, track_running_stats=True)
  (2): ReLU(inplace=True)
  (3): Conv2d(16, 16, kernel_size=(4, 4), stride=(2, 2), padding=(1, 1))
  (4): BatchNorm2d(16, eps=16, momentum=0.1, affine=True, track_running_stats=True)
  (5): ReLU(inplace=True)
  (6): Flatten()
  (7): ODEBlock(
    (odefunc): ODEfunc(
      (fc1): Linear(in_features=2704, out_features=10, bias=True)
      (fc2): Linear(in_features=10, out_features=2704, bias=True)
    )
  )
  (8): Linear(in_features=2704, out_features=10, bias=True)
)
Number of parameters: 88180
Number of parameters: 88180
/home/manzand/Documents/Python/neuralODE_examples/gtsrb/odenet_gtsrb_example_small.py
/home/manzand/Documents/Python/neuralODE_examples/gtsrb/odenet_gtsrb_example_small.py
/home/manzand/Documents/Python/neuralODE_examples/gtsrb/odenet_gtsrb_example_small.py
#!/usr/bin/env python3
# -*- coding: utf-8 -*-
…
Namespace(adjoint=False, batch_size=128, data_aug=False, debug=False, downsampling_method='conv', gpu=0, lr=0.01, nepochs=100, network='odenet', save='./experiment1', test_batch_size=1000, tol=0.001)
Namespace(adjoint=False, batch_size=128, data_aug=False, debug=False, downsampling_method='conv', gpu=0, lr=0.01, nepochs=100, network='odenet', save='./experiment1', test_batch_size=1000, tol=0.001)
Namespace(adjoint=False, batch_size=128, data_aug=False, debug=False, downsampling_method='conv', gpu=0, lr=0.01, nepochs=100, network='odenet', save='./experiment1', test_batch_size=1000, tol=0.001)
Sequential(
  (0): Conv2d(1, 16, kernel_size=(3, 3), stride=(1, 1))
  (1): BatchNorm2d(16, eps=16, momentum=0.1, affine=True, track_running_stats=True)
  (2): ReLU(inplace=True)
  (3): Conv2d(16, 16, kernel_size=(4, 4), stride=(2, 2), padding=(1, 1))
  (4): BatchNorm2d(16, eps=16, momentum=0.1, affine=True, track_running_stats=True)
  (5): ReLU(inplace=True)
  (6): Flatten()
  (7): ODEBlock(
    (odefunc): ODEfunc(
      (fc1): Linear(in_features=2704, out_features=10, bias=True)
      (fc2): Linear(in_features=10, out_features=2704, bias=True)
    )
  )
  (8): Linear(in_features=2704, out_features=10, bias=True)
)
Sequential(
  (0): Conv2d(1, 16, kernel_size=(3, 3), stride=(1, 1))
  (1): BatchNorm2d(16, eps=16, momentum=0.1, affine=True, track_running_stats=True)
  (2): ReLU(inplace=True)
  (3): Conv2d(16, 16, kernel_size=(4, 4), stride=(2, 2), padding=(1, 1))
  (4): BatchNorm2d(16, eps=16, momentum=0.1, affine=True, track_running_stats=True)
  (5): ReLU(inplace=True)
  (6): Flatten()
  (7): ODEBlock(
    (odefunc): ODEfunc(
      (fc1): Linear(in_features=2704, out_features=10, bias=True)
      (fc2): Linear(in_features=10, out_features=2704, bias=True)
    )
  )
  (8): Linear(in_features=2704, out_features=10, bias=True)
)
Sequential(
  (0): Conv2d(1, 16, kernel_size=(3, 3), stride=(1, 1))
  (1): BatchNorm2d(16, eps=16, momentum=0.1, affine=True, track_running_stats=True)
  (2): ReLU(inplace=True)
  (3): Conv2d(16, 16, kernel_size=(4, 4), stride=(2, 2), padding=(1, 1))
  (4): BatchNorm2d(16, eps=16, momentum=0.1, affine=True, track_running_stats=True)
  (5): ReLU(inplace=True)
  (6): Flatten()
  (7): ODEBlock(
    (odefunc): ODEfunc(
      (fc1): Linear(in_features=2704, out_features=10, bias=True)
      (fc2): Linear(in_features=10, out_features=2704, bias=True)
    )
  )
  (8): Linear(in_features=2704, out_features=10, bias=True)
)
Number of parameters: 88180
Number of parameters: 88180
Number of parameters: 88180
/home/manzand/Documents/Python/neuralODE_examples/gtsrb/odenet_gtsrb_example_small.py
/home/manzand/Documents/Python/neuralODE_examples/gtsrb/odenet_gtsrb_example_small.py
/home/manzand/Documents/Python/neuralODE_examples/gtsrb/odenet_gtsrb_example_small.py
/home/manzand/Documents/Python/neuralODE_examples/gtsrb/odenet_gtsrb_example_small.py
…
Namespace(adjoint=False, batch_size=128, data_aug=False, debug=False, downsampling_method='conv', gpu=0, lr=0.01, nepochs=100, network='odenet', save='./experiment1', test_batch_size=1000, tol=0.001)
Namespace(adjoint=False, batch_size=128, data_aug=False, debug=False, downsampling_method='conv', gpu=0, lr=0.01, nepochs=100, network='odenet', save='./experiment1', test_batch_size=1000, tol=0.001)
Namespace(adjoint=False, batch_size=128, data_aug=False, debug=False, downsampling_method='conv', gpu=0, lr=0.01, nepochs=100, network='odenet', save='./experiment1', test_batch_size=1000, tol=0.001)
Sequential(
  (0): Conv2d(3, 16, kernel_size=(3, 3), stride=(1, 1))
  (1): BatchNorm2d(16, eps=16, momentum=0.1, affine=True, track_running_stats=True)
  (2): ReLU(inplace=True)
  (3): Conv2d(16, 16, kernel_size=(4, 4), stride=(2, 2), padding=(1, 1))
  (4): BatchNorm2d(16, eps=16, momentum=0.1, affine=True, track_running_stats=True)
  (5): ReLU(inplace=True)
  (6): Flatten()
  (7): ODEBlock(
    (odefunc): ODEfunc(
      (fc1): Linear(in_features=2704, out_features=10, bias=True)
      (fc2): Linear(in_features=10, out_features=2704, bias=True)
    )
  )
  (8): Linear(in_features=2704, out_features=10, bias=True)
)
Sequential(
  (0): Conv2d(3, 16, kernel_size=(3, 3), stride=(1, 1))
  (1): BatchNorm2d(16, eps=16, momentum=0.1, affine=True, track_running_stats=True)
  (2): ReLU(inplace=True)
  (3): Conv2d(16, 16, kernel_size=(4, 4), stride=(2, 2), padding=(1, 1))
  (4): BatchNorm2d(16, eps=16, momentum=0.1, affine=True, track_running_stats=True)
  (5): ReLU(inplace=True)
  (6): Flatten()
  (7): ODEBlock(
    (odefunc): ODEfunc(
      (fc1): Linear(in_features=2704, out_features=10, bias=True)
      (fc2): Linear(in_features=10, out_features=2704, bias=True)
    )
  )
  (8): Linear(in_features=2704, out_features=10, bias=True)
)
Sequential(
  (0): Conv2d(3, 16, kernel_size=(3, 3), stride=(1, 1))
  (1): BatchNorm2d(16, eps=16, momentum=0.1, affine=True, track_running_stats=True)
  (2): ReLU(inplace=True)
  (3): Conv2d(16, 16, kernel_size=(4, 4), stride=(2, 2), padding=(1, 1))
  (4): BatchNorm2d(16, eps=16, momentum=0.1, affine=True, track_running_stats=True)
  (5): ReLU(inplace=True)
  (6): Flatten()
  (7): ODEBlock(
    (odefunc): ODEfunc(
      (fc1): Linear(in_features=2704, out_features=10, bias=True)
      (fc2): Linear(in_features=10, out_features=2704, bias=True)
    )
  )
  (8): Linear(in_features=2704, out_features=10, bias=True)
)
Sequential(
  (0): Conv2d(3, 16, kernel_size=(3, 3), stride=(1, 1))
  (1): BatchNorm2d(16, eps=16, momentum=0.1, affine=True, track_running_stats=True)
  (2): ReLU(inplace=True)
  (3): Conv2d(16, 16, kernel_size=(4, 4), stride=(2, 2), padding=(1, 1))
  (4): BatchNorm2d(16, eps=16, momentum=0.1, affine=True, track_running_stats=True)
  (5): ReLU(inplace=True)
  (6): Flatten()
  (7): ODEBlock(
    (odefunc): ODEfunc(
      (fc1): Linear(in_features=2704, out_features=10, bias=True)
      (fc2): Linear(in_features=10, out_features=2704, bias=True)
    )
  )
  (8): Linear(in_features=2704, out_features=10, bias=True)
)
Number of parameters: 88468
Number of parameters: 88468
Number of parameters: 88468
Number of parameters: 88468
/home/manzand/Documents/Python/neuralODE_examples/gtsrb/odenet_gtsrb_example_small.py
/home/manzand/Documents/Python/neuralODE_examples/gtsrb/odenet_gtsrb_example_small.py
/home/manzand/Documents/Python/neuralODE_examples/gtsrb/odenet_gtsrb_example_small.py
…
Namespace(adjoint=False, batch_size=128, data_aug=False, debug=False, downsampling_method='conv', gpu=0, lr=0.01, nepochs=100, network='odenet', save='./experiment1', test_batch_size=1000, tol=0.001)
Namespace(adjoint=False, batch_size=128, data_aug=False, debug=False, downsampling_method='conv', gpu=0, lr=0.01, nepochs=100, network='odenet', save='./experiment1', test_batch_size=1000, tol=0.001)
Namespace(adjoint=False, batch_size=128, data_aug=False, debug=False, downsampling_method='conv', gpu=0, lr=0.01, nepochs=100, network='odenet', save='./experiment1', test_batch_size=1000, tol=0.001)
Sequential(
  (0): Conv2d(3, 16, kernel_size=(3, 3), stride=(1, 1))
  (1): BatchNorm2d(16, eps=16, momentum=0.1, affine=True, track_running_stats=True)
  (2): ReLU(inplace=True)
  (3): Conv2d(16, 16, kernel_size=(4, 4), stride=(2, 2), padding=(1, 1))
  (4): BatchNorm2d(16, eps=16, momentum=0.1, affine=True, track_running_stats=True)
  (5): ReLU(inplace=True)
  (6): Flatten()
  (7): ODEBlock(
    (odefunc): ODEfunc(
      (fc1): Linear(in_features=3600, out_features=10, bias=True)
      (fc2): Linear(in_features=10, out_features=3600, bias=True)
    )
  )
  (8): Linear(in_features=3600, out_features=10, bias=True)
)
Sequential(
  (0): Conv2d(3, 16, kernel_size=(3, 3), stride=(1, 1))
  (1): BatchNorm2d(16, eps=16, momentum=0.1, affine=True, track_running_stats=True)
  (2): ReLU(inplace=True)
  (3): Conv2d(16, 16, kernel_size=(4, 4), stride=(2, 2), padding=(1, 1))
  (4): BatchNorm2d(16, eps=16, momentum=0.1, affine=True, track_running_stats=True)
  (5): ReLU(inplace=True)
  (6): Flatten()
  (7): ODEBlock(
    (odefunc): ODEfunc(
      (fc1): Linear(in_features=3600, out_features=10, bias=True)
      (fc2): Linear(in_features=10, out_features=3600, bias=True)
    )
  )
  (8): Linear(in_features=3600, out_features=10, bias=True)
)
Sequential(
  (0): Conv2d(3, 16, kernel_size=(3, 3), stride=(1, 1))
  (1): BatchNorm2d(16, eps=16, momentum=0.1, affine=True, track_running_stats=True)
  (2): ReLU(inplace=True)
  (3): Conv2d(16, 16, kernel_size=(4, 4), stride=(2, 2), padding=(1, 1))
  (4): BatchNorm2d(16, eps=16, momentum=0.1, affine=True, track_running_stats=True)
  (5): ReLU(inplace=True)
  (6): Flatten()
  (7): ODEBlock(
    (odefunc): ODEfunc(
      (fc1): Linear(in_features=3600, out_features=10, bias=True)
      (fc2): Linear(in_features=10, out_features=3600, bias=True)
    )
  )
  (8): Linear(in_features=3600, out_features=10, bias=True)
)
Sequential(
  (0): Conv2d(3, 16, kernel_size=(3, 3), stride=(1, 1))
  (1): BatchNorm2d(16, eps=16, momentum=0.1, affine=True, track_running_stats=True)
  (2): ReLU(inplace=True)
  (3): Conv2d(16, 16, kernel_size=(4, 4), stride=(2, 2), padding=(1, 1))
  (4): BatchNorm2d(16, eps=16, momentum=0.1, affine=True, track_running_stats=True)
  (5): ReLU(inplace=True)
  (6): Flatten()
  (7): ODEBlock(
    (odefunc): ODEfunc(
      (fc1): Linear(in_features=3600, out_features=10, bias=True)
      (fc2): Linear(in_features=10, out_features=3600, bias=True)
    )
  )
  (8): Linear(in_features=3600, out_features=10, bias=True)
)
Sequential(
  (0): Conv2d(3, 16, kernel_size=(3, 3), stride=(1, 1))
  (1): BatchNorm2d(16, eps=16, momentum=0.1, affine=True, track_running_stats=True)
  (2): ReLU(inplace=True)
  (3): Conv2d(16, 16, kernel_size=(4, 4), stride=(2, 2), padding=(1, 1))
  (4): BatchNorm2d(16, eps=16, momentum=0.1, affine=True, track_running_stats=True)
  (5): ReLU(inplace=True)
  (6): Flatten()
  (7): ODEBlock(
    (odefunc): ODEfunc(
      (fc1): Linear(in_features=3600, out_features=10, bias=True)
      (fc2): Linear(in_features=10, out_features=3600, bias=True)
    )
  )
  (8): Linear(in_features=3600, out_features=10, bias=True)
)
Number of parameters: 116244
Number of parameters: 116244
Number of parameters: 116244
Number of parameters: 116244
Number of parameters: 116244
/home/manzand/Documents/Python/neuralODE_examples/gtsrb/odenet_gtsrb_example_small.py
/home/manzand/Documents/Python/neuralODE_examples/gtsrb/odenet_gtsrb_example_small.py
/home/manzand/Documents/Python/neuralODE_examples/gtsrb/odenet_gtsrb_example_small.py
…
Namespace(adjoint=False, batch_size=128, data_aug=False, debug=False, downsampling_method='conv', gpu=0, lr=0.01, nepochs=100, network='odenet', save='./experiment1', test_batch_size=1000, tol=0.001)
Namespace(adjoint=False, batch_size=128, data_aug=False, debug=False, downsampling_method='conv', gpu=0, lr=0.01, nepochs=100, network='odenet', save='./experiment1', test_batch_size=1000, tol=0.001)
Namespace(adjoint=False, batch_size=128, data_aug=False, debug=False, downsampling_method='conv', gpu=0, lr=0.01, nepochs=100, network='odenet', save='./experiment1', test_batch_size=1000, tol=0.001)
Sequential(
  (0): Conv2d(3, 16, kernel_size=(3, 3), stride=(1, 1))
  (1): BatchNorm2d(16, eps=16, momentum=0.1, affine=True, track_running_stats=True)
  (2): ReLU(inplace=True)
  (3): Conv2d(16, 16, kernel_size=(4, 4), stride=(2, 2), padding=(1, 1))
  (4): BatchNorm2d(16, eps=16, momentum=0.1, affine=True, track_running_stats=True)
  (5): ReLU(inplace=True)
  (6): Flatten()
  (7): ODEBlock(
    (odefunc): ODEfunc(
      (fc1): Linear(in_features=3600, out_features=10, bias=True)
      (fc2): Linear(in_features=10, out_features=3600, bias=True)
    )
  )
  (8): Linear(in_features=3600, out_features=42, bias=True)
)
Sequential(
  (0): Conv2d(3, 16, kernel_size=(3, 3), stride=(1, 1))
  (1): BatchNorm2d(16, eps=16, momentum=0.1, affine=True, track_running_stats=True)
  (2): ReLU(inplace=True)
  (3): Conv2d(16, 16, kernel_size=(4, 4), stride=(2, 2), padding=(1, 1))
  (4): BatchNorm2d(16, eps=16, momentum=0.1, affine=True, track_running_stats=True)
  (5): ReLU(inplace=True)
  (6): Flatten()
  (7): ODEBlock(
    (odefunc): ODEfunc(
      (fc1): Linear(in_features=3600, out_features=10, bias=True)
      (fc2): Linear(in_features=10, out_features=3600, bias=True)
    )
  )
  (8): Linear(in_features=3600, out_features=42, bias=True)
)
Sequential(
  (0): Conv2d(3, 16, kernel_size=(3, 3), stride=(1, 1))
  (1): BatchNorm2d(16, eps=16, momentum=0.1, affine=True, track_running_stats=True)
  (2): ReLU(inplace=True)
  (3): Conv2d(16, 16, kernel_size=(4, 4), stride=(2, 2), padding=(1, 1))
  (4): BatchNorm2d(16, eps=16, momentum=0.1, affine=True, track_running_stats=True)
  (5): ReLU(inplace=True)
  (6): Flatten()
  (7): ODEBlock(
    (odefunc): ODEfunc(
      (fc1): Linear(in_features=3600, out_features=10, bias=True)
      (fc2): Linear(in_features=10, out_features=3600, bias=True)
    )
  )
  (8): Linear(in_features=3600, out_features=42, bias=True)
)
Sequential(
  (0): Conv2d(3, 16, kernel_size=(3, 3), stride=(1, 1))
  (1): BatchNorm2d(16, eps=16, momentum=0.1, affine=True, track_running_stats=True)
  (2): ReLU(inplace=True)
  (3): Conv2d(16, 16, kernel_size=(4, 4), stride=(2, 2), padding=(1, 1))
  (4): BatchNorm2d(16, eps=16, momentum=0.1, affine=True, track_running_stats=True)
  (5): ReLU(inplace=True)
  (6): Flatten()
  (7): ODEBlock(
    (odefunc): ODEfunc(
      (fc1): Linear(in_features=3600, out_features=10, bias=True)
      (fc2): Linear(in_features=10, out_features=3600, bias=True)
    )
  )
  (8): Linear(in_features=3600, out_features=42, bias=True)
)
Sequential(
  (0): Conv2d(3, 16, kernel_size=(3, 3), stride=(1, 1))
  (1): BatchNorm2d(16, eps=16, momentum=0.1, affine=True, track_running_stats=True)
  (2): ReLU(inplace=True)
  (3): Conv2d(16, 16, kernel_size=(4, 4), stride=(2, 2), padding=(1, 1))
  (4): BatchNorm2d(16, eps=16, momentum=0.1, affine=True, track_running_stats=True)
  (5): ReLU(inplace=True)
  (6): Flatten()
  (7): ODEBlock(
    (odefunc): ODEfunc(
      (fc1): Linear(in_features=3600, out_features=10, bias=True)
      (fc2): Linear(in_features=10, out_features=3600, bias=True)
    )
  )
  (8): Linear(in_features=3600, out_features=42, bias=True)
)
Sequential(
  (0): Conv2d(3, 16, kernel_size=(3, 3), stride=(1, 1))
  (1): BatchNorm2d(16, eps=16, momentum=0.1, affine=True, track_running_stats=True)
  (2): ReLU(inplace=True)
  (3): Conv2d(16, 16, kernel_size=(4, 4), stride=(2, 2), padding=(1, 1))
  (4): BatchNorm2d(16, eps=16, momentum=0.1, affine=True, track_running_stats=True)
  (5): ReLU(inplace=True)
  (6): Flatten()
  (7): ODEBlock(
    (odefunc): ODEfunc(
      (fc1): Linear(in_features=3600, out_features=10, bias=True)
      (fc2): Linear(in_features=10, out_features=3600, bias=True)
    )
  )
  (8): Linear(in_features=3600, out_features=42, bias=True)
)
Number of parameters: 231476
Number of parameters: 231476
Number of parameters: 231476
Number of parameters: 231476
Number of parameters: 231476
Number of parameters: 231476
Epoch 0000 | Time 0.636 (0.636) | NFE-F 20.0 | NFE-B 0.0 | Train Acc 0.0000 | Test Acc 0.0000
Epoch 0000 | Time 0.636 (0.636) | NFE-F 20.0 | NFE-B 0.0 | Train Acc 0.0000 | Test Acc 0.0000
…
                    )
                )
    names = []
    params = []
    for name,param in model.named_parameters():
        names.append(name)
        params.append(param.detach().numpy())
    nn1 = dict({'Wb':params,'names':names})
    for name,param in model.named_buffers():
        names.append(name)
        params.append(param.detach().numpy())
    savemat("odecnn_gtsrb_small.mat",nn1)
Namespace(adjoint=False, batch_size=128, data_aug=False, debug=False, downsampling_method='conv', gpu=0, lr=0.01, nepochs=100, network='odenet', save='./experiment1', test_batch_size=1000, tol=0.001)
Sequential(
  (0): Conv2d(3, 16, kernel_size=(3, 3), stride=(1, 1))
  (1): BatchNorm2d(16, eps=16, momentum=0.1, affine=True, track_running_stats=True)
  (2): ReLU(inplace=True)
  (3): Conv2d(16, 16, kernel_size=(4, 4), stride=(2, 2), padding=(1, 1))
  (4): BatchNorm2d(16, eps=16, momentum=0.1, affine=True, track_running_stats=True)
  (5): ReLU(inplace=True)
  (6): Flatten()
  (7): ODEBlock(
    (odefunc): ODEfunc(
      (fc1): Linear(in_features=3600, out_features=10, bias=True)
      (fc2): Linear(in_features=10, out_features=3600, bias=True)
    )
  )
  (8): Linear(in_features=3600, out_features=42, bias=True)
)
Number of parameters: 231476
/home/manzand/Documents/Python/neuralODE_examples/gtsrb/odenet_gtsrb_example_small.py
/home/manzand/Documents/Python/neuralODE_examples/gtsrb/odenet_gtsrb_example_small.py
#!/usr/bin/env python3
# -*- coding: utf-8 -*-
"""
Created on Thu Feb  4 09:04:31 2021

@author: manzand
"""

#!/usr/bin/env python3
# -*- coding: utf-8 -*-
…
    nn1 = dict({'Wb':params,'names':names})
    for name,param in model.named_buffers():
        names.append(name)
        params.append(param.detach().numpy())
    savemat("odecnn_gtsrb_small.mat",nn1)
Namespace(adjoint=False, batch_size=128, data_aug=False, debug=False, downsampling_method='conv', gpu=0, lr=0.01, nepochs=100, network='odenet', save='./experiment1', test_batch_size=1000, tol=0.001)
Namespace(adjoint=False, batch_size=128, data_aug=False, debug=False, downsampling_method='conv', gpu=0, lr=0.01, nepochs=100, network='odenet', save='./experiment1', test_batch_size=1000, tol=0.001)
Sequential(
  (0): Conv2d(3, 32, kernel_size=(3, 3), stride=(1, 1))
  (1): BatchNorm2d(32, eps=32, momentum=0.1, affine=True, track_running_stats=True)
  (2): ReLU(inplace=True)
  (3): Conv2d(32, 32, kernel_size=(4, 4), stride=(2, 2), padding=(1, 1))
  (4): BatchNorm2d(32, eps=32, momentum=0.1, affine=True, track_running_stats=True)
  (5): ReLU(inplace=True)
  (6): Flatten()
  (7): ODEBlock(
    (odefunc): ODEfunc(
      (fc1): Linear(in_features=3600, out_features=10, bias=True)
      (fc2): Linear(in_features=10, out_features=3600, bias=True)
    )
  )
  (8): Linear(in_features=3600, out_features=43, bias=True)
)
Sequential(
  (0): Conv2d(3, 32, kernel_size=(3, 3), stride=(1, 1))
  (1): BatchNorm2d(32, eps=32, momentum=0.1, affine=True, track_running_stats=True)
  (2): ReLU(inplace=True)
  (3): Conv2d(32, 32, kernel_size=(4, 4), stride=(2, 2), padding=(1, 1))
  (4): BatchNorm2d(32, eps=32, momentum=0.1, affine=True, track_running_stats=True)
  (5): ReLU(inplace=True)
  (6): Flatten()
  (7): ODEBlock(
    (odefunc): ODEfunc(
      (fc1): Linear(in_features=3600, out_features=10, bias=True)
      (fc2): Linear(in_features=10, out_features=3600, bias=True)
    )
  )
  (8): Linear(in_features=3600, out_features=43, bias=True)
)
Number of parameters: 247893
Number of parameters: 247893
/home/manzand/Documents/Python/neuralODE_examples/gtsrb/odenet_gtsrb_example_small.py
#!/usr/bin/env python3
# -*- coding: utf-8 -*-
"""
Created on Thu Feb  4 09:04:31 2021

@author: manzand
"""

#!/usr/bin/env python3
# -*- coding: utf-8 -*-
"""
Created on Tue Jan 19 15:10:31 2021

@author: manzand
…
                    )
                )
    names = []
    params = []
    for name,param in model.named_parameters():
        names.append(name)
        params.append(param.detach().numpy())
    nn1 = dict({'Wb':params,'names':names})
    for name,param in model.named_buffers():
        names.append(name)
        params.append(param.detach().numpy())
    savemat("odecnn_gtsrb_small.mat",nn1)
Namespace(adjoint=False, batch_size=128, data_aug=False, debug=False, downsampling_method='conv', gpu=0, lr=0.01, nepochs=100, network='odenet', save='./experiment1', test_batch_size=1000, tol=0.001)
Sequential(
  (0): Conv2d(3, 16, kernel_size=(3, 3), stride=(1, 1))
  (1): BatchNorm2d(16, eps=16, momentum=0.1, affine=True, track_running_stats=True)
  (2): ReLU(inplace=True)
  (3): Conv2d(16, 16, kernel_size=(4, 4), stride=(2, 2), padding=(1, 1))
  (4): BatchNorm2d(16, eps=16, momentum=0.1, affine=True, track_running_stats=True)
  (5): ReLU(inplace=True)
  (6): Flatten()
  (7): ODEBlock(
    (odefunc): ODEfunc(
      (fc1): Linear(in_features=3600, out_features=10, bias=True)
      (fc2): Linear(in_features=10, out_features=3600, bias=True)
    )
  )
  (8): Linear(in_features=3600, out_features=43, bias=True)
)
Number of parameters: 235077
Epoch 0000 | Time 0.433 (0.433) | NFE-F 20.0 | NFE-B 0.0 | Train Acc 0.0000 | Test Acc 0.0000
/home/manzand/Documents/Python/neuralODE_examples/gtsrb/odenet_gtsrb_example_tiny.py
#!/usr/bin/env python3
# -*- coding: utf-8 -*-
"""
Created on Thu Feb  4 09:04:31 2021

@author: manzand
"""

#!/usr/bin/env python3
# -*- coding: utf-8 -*-
…
                    )
                )
    names = []
    params = []
    for name,param in model.named_parameters():
        names.append(name)
        params.append(param.detach().numpy())
    nn1 = dict({'Wb':params,'names':names})
    for name,param in model.named_buffers():
        names.append(name)
        params.append(param.detach().numpy())
    savemat("odecnn_gtsrb_tiny.mat",nn1)
Namespace(adjoint=False, batch_size=128, data_aug=True, debug=False, downsampling_method='conv', gpu=0, lr=0.01, nepochs=100, network='odenet', save='./experiment1', test_batch_size=1000, tol=0.001)
Sequential(
  (0): Conv2d(1, 4, kernel_size=(3, 3), stride=(1, 1))
  (1): BatchNorm2d(4, eps=4, momentum=0.1, affine=True, track_running_stats=True)
  (2): ReLU(inplace=True)
  (3): Conv2d(4, 4, kernel_size=(4, 4), stride=(2, 2), padding=(1, 1))
  (4): BatchNorm2d(4, eps=4, momentum=0.1, affine=True, track_running_stats=True)
  (5): ReLU(inplace=True)
  (6): Flatten()
  (7): ODEBlock(
    (odefunc): ODEfunc(
      (fc1): Linear(in_features=676, out_features=10, bias=True)
      (fc2): Linear(in_features=10, out_features=676, bias=True)
    )
  )
  (8): Linear(in_features=676, out_features=10, bias=True)
)
Number of parameters: 21292
/home/manzand/Documents/Python/neuralODE_examples/gtsrb/odenet_gtsrb_example_tiny.py
/home/manzand/Documents/Python/neuralODE_examples/gtsrb/odenet_gtsrb_example_tiny.py
#!/usr/bin/env python3
# -*- coding: utf-8 -*-
"""
Created on Thu Feb  4 09:04:31 2021

@author: manzand
"""

#!/usr/bin/env python3
# -*- coding: utf-8 -*-
…
    nn1 = dict({'Wb':params,'names':names})
    for name,param in model.named_buffers():
        names.append(name)
        params.append(param.detach().numpy())
    savemat("odecnn_gtsrb_tiny.mat",nn1)
Namespace(adjoint=False, batch_size=128, data_aug=True, debug=False, downsampling_method='conv', gpu=0, lr=0.01, nepochs=100, network='odenet', save='./experiment1', test_batch_size=1000, tol=0.001)
Namespace(adjoint=False, batch_size=128, data_aug=True, debug=False, downsampling_method='conv', gpu=0, lr=0.01, nepochs=100, network='odenet', save='./experiment1', test_batch_size=1000, tol=0.001)
Sequential(
  (0): Conv2d(3, 4, kernel_size=(3, 3), stride=(1, 1))
  (1): BatchNorm2d(4, eps=4, momentum=0.1, affine=True, track_running_stats=True)
  (2): ReLU(inplace=True)
  (3): Conv2d(4, 4, kernel_size=(4, 4), stride=(2, 2), padding=(1, 1))
  (4): BatchNorm2d(4, eps=4, momentum=0.1, affine=True, track_running_stats=True)
  (5): ReLU(inplace=True)
  (6): Flatten()
  (7): ODEBlock(
    (odefunc): ODEfunc(
      (fc1): Linear(in_features=676, out_features=10, bias=True)
      (fc2): Linear(in_features=10, out_features=676, bias=True)
    )
  )
  (8): Linear(in_features=676, out_features=10, bias=True)
)
Sequential(
  (0): Conv2d(3, 4, kernel_size=(3, 3), stride=(1, 1))
  (1): BatchNorm2d(4, eps=4, momentum=0.1, affine=True, track_running_stats=True)
  (2): ReLU(inplace=True)
  (3): Conv2d(4, 4, kernel_size=(4, 4), stride=(2, 2), padding=(1, 1))
  (4): BatchNorm2d(4, eps=4, momentum=0.1, affine=True, track_running_stats=True)
  (5): ReLU(inplace=True)
  (6): Flatten()
  (7): ODEBlock(
    (odefunc): ODEfunc(
      (fc1): Linear(in_features=676, out_features=10, bias=True)
      (fc2): Linear(in_features=10, out_features=676, bias=True)
    )
  )
  (8): Linear(in_features=676, out_features=10, bias=True)
)
Number of parameters: 21364
Number of parameters: 21364
Epoch 0001 | Time 1.321 (0.658) | NFE-F 54.9 | NFE-B 0.0 | Train Acc 0.1042 | Test Acc 0.0982
/home/manzand/Documents/Python/neuralODE_examples/gtsrb/odenet_gtsrb_example.py
/home/manzand/Documents/Python/neuralODE_examples/gtsrb/odenet_gtsrb_example.py
/home/manzand/Documents/Python/neuralODE_examples/gtsrb/odenet_gtsrb_example.py
…
Namespace(adjoint=False, batch_size=128, data_aug=True, debug=False, downsampling_method='conv', gpu=0, lr=0.01, nepochs=100, network='odenet', save='./experiment1', test_batch_size=1000, tol=0.001)
Namespace(adjoint=False, batch_size=128, data_aug=True, debug=False, downsampling_method='conv', gpu=0, lr=0.01, nepochs=100, network='odenet', save='./experiment1', test_batch_size=1000, tol=0.001)
Namespace(adjoint=False, batch_size=128, data_aug=True, debug=False, downsampling_method='conv', gpu=0, lr=0.01, nepochs=100, network='odenet', save='./experiment1', test_batch_size=1000, tol=0.001)
Sequential(
  (0): Conv2d(1, 10, kernel_size=(3, 3), stride=(1, 1))
  (1): BatchNorm2d(10, eps=10, momentum=0.1, affine=True, track_running_stats=True)
  (2): ReLU(inplace=True)
  (3): Conv2d(10, 10, kernel_size=(4, 4), stride=(2, 2), padding=(1, 1))
  (4): BatchNorm2d(10, eps=10, momentum=0.1, affine=True, track_running_stats=True)
  (5): ReLU(inplace=True)
  (6): Flatten()
  (7): ODEBlock(
    (odefunc): ODEfunc(
      (fc1): Linear(in_features=1690, out_features=10, bias=True)
      (fc2): Linear(in_features=10, out_features=1690, bias=True)
    )
  )
  (8): Linear(in_features=1690, out_features=10, bias=True)
)
Sequential(
  (0): Conv2d(1, 10, kernel_size=(3, 3), stride=(1, 1))
  (1): BatchNorm2d(10, eps=10, momentum=0.1, affine=True, track_running_stats=True)
  (2): ReLU(inplace=True)
  (3): Conv2d(10, 10, kernel_size=(4, 4), stride=(2, 2), padding=(1, 1))
  (4): BatchNorm2d(10, eps=10, momentum=0.1, affine=True, track_running_stats=True)
  (5): ReLU(inplace=True)
  (6): Flatten()
  (7): ODEBlock(
    (odefunc): ODEfunc(
      (fc1): Linear(in_features=1690, out_features=10, bias=True)
      (fc2): Linear(in_features=10, out_features=1690, bias=True)
    )
  )
  (8): Linear(in_features=1690, out_features=10, bias=True)
)
Sequential(
  (0): Conv2d(1, 10, kernel_size=(3, 3), stride=(1, 1))
  (1): BatchNorm2d(10, eps=10, momentum=0.1, affine=True, track_running_stats=True)
  (2): ReLU(inplace=True)
  (3): Conv2d(10, 10, kernel_size=(4, 4), stride=(2, 2), padding=(1, 1))
  (4): BatchNorm2d(10, eps=10, momentum=0.1, affine=True, track_running_stats=True)
  (5): ReLU(inplace=True)
  (6): Flatten()
  (7): ODEBlock(
    (odefunc): ODEfunc(
      (fc1): Linear(in_features=1690, out_features=10, bias=True)
      (fc2): Linear(in_features=10, out_features=1690, bias=True)
    )
  )
  (8): Linear(in_features=1690, out_features=10, bias=True)
)
Number of parameters: 54160
Number of parameters: 54160
Number of parameters: 54160
/home/manzand/Documents/Python/neuralODE_examples/gtsrb/odenet_gtsrb_example.py
/home/manzand/Documents/Python/neuralODE_examples/gtsrb/odenet_gtsrb_example.py
/home/manzand/Documents/Python/neuralODE_examples/gtsrb/odenet_gtsrb_example.py
/home/manzand/Documents/Python/neuralODE_examples/gtsrb/odenet_gtsrb_example.py
…
Namespace(adjoint=False, batch_size=128, data_aug=True, debug=False, downsampling_method='conv', gpu=0, lr=0.01, nepochs=100, network='odenet', save='./experiment1', test_batch_size=1000, tol=0.001)
Namespace(adjoint=False, batch_size=128, data_aug=True, debug=False, downsampling_method='conv', gpu=0, lr=0.01, nepochs=100, network='odenet', save='./experiment1', test_batch_size=1000, tol=0.001)
Namespace(adjoint=False, batch_size=128, data_aug=True, debug=False, downsampling_method='conv', gpu=0, lr=0.01, nepochs=100, network='odenet', save='./experiment1', test_batch_size=1000, tol=0.001)
Sequential(
  (0): Conv2d(3, 10, kernel_size=(3, 3), stride=(1, 1))
  (1): BatchNorm2d(10, eps=10, momentum=0.1, affine=True, track_running_stats=True)
  (2): ReLU(inplace=True)
  (3): Conv2d(10, 10, kernel_size=(4, 4), stride=(2, 2), padding=(1, 1))
  (4): BatchNorm2d(10, eps=10, momentum=0.1, affine=True, track_running_stats=True)
  (5): ReLU(inplace=True)
  (6): Flatten()
  (7): ODEBlock(
    (odefunc): ODEfunc(
      (fc1): Linear(in_features=1690, out_features=10, bias=True)
      (fc2): Linear(in_features=10, out_features=1690, bias=True)
    )
  )
  (8): Linear(in_features=1690, out_features=43, bias=True)
)
Sequential(
  (0): Conv2d(3, 10, kernel_size=(3, 3), stride=(1, 1))
  (1): BatchNorm2d(10, eps=10, momentum=0.1, affine=True, track_running_stats=True)
  (2): ReLU(inplace=True)
  (3): Conv2d(10, 10, kernel_size=(4, 4), stride=(2, 2), padding=(1, 1))
  (4): BatchNorm2d(10, eps=10, momentum=0.1, affine=True, track_running_stats=True)
  (5): ReLU(inplace=True)
  (6): Flatten()
  (7): ODEBlock(
    (odefunc): ODEfunc(
      (fc1): Linear(in_features=1690, out_features=10, bias=True)
      (fc2): Linear(in_features=10, out_features=1690, bias=True)
    )
  )
  (8): Linear(in_features=1690, out_features=43, bias=True)
)
Sequential(
  (0): Conv2d(3, 10, kernel_size=(3, 3), stride=(1, 1))
  (1): BatchNorm2d(10, eps=10, momentum=0.1, affine=True, track_running_stats=True)
  (2): ReLU(inplace=True)
  (3): Conv2d(10, 10, kernel_size=(4, 4), stride=(2, 2), padding=(1, 1))
  (4): BatchNorm2d(10, eps=10, momentum=0.1, affine=True, track_running_stats=True)
  (5): ReLU(inplace=True)
  (6): Flatten()
  (7): ODEBlock(
    (odefunc): ODEfunc(
      (fc1): Linear(in_features=1690, out_features=10, bias=True)
      (fc2): Linear(in_features=10, out_features=1690, bias=True)
    )
  )
  (8): Linear(in_features=1690, out_features=43, bias=True)
)
Sequential(
  (0): Conv2d(3, 10, kernel_size=(3, 3), stride=(1, 1))
  (1): BatchNorm2d(10, eps=10, momentum=0.1, affine=True, track_running_stats=True)
  (2): ReLU(inplace=True)
  (3): Conv2d(10, 10, kernel_size=(4, 4), stride=(2, 2), padding=(1, 1))
  (4): BatchNorm2d(10, eps=10, momentum=0.1, affine=True, track_running_stats=True)
  (5): ReLU(inplace=True)
  (6): Flatten()
  (7): ODEBlock(
    (odefunc): ODEfunc(
      (fc1): Linear(in_features=1690, out_features=10, bias=True)
      (fc2): Linear(in_features=10, out_features=1690, bias=True)
    )
  )
  (8): Linear(in_features=1690, out_features=43, bias=True)
)
Number of parameters: 110143
Number of parameters: 110143
Number of parameters: 110143
Number of parameters: 110143
/home/manzand/Documents/Python/neuralODE_examples/gtsrb/odenet_gtsrb_example_tiny.py
/home/manzand/Documents/Python/neuralODE_examples/gtsrb/odenet_gtsrb_example_tiny.py
/home/manzand/Documents/Python/neuralODE_examples/gtsrb/odenet_gtsrb_example_tiny.py
…
Namespace(adjoint=False, batch_size=128, data_aug=True, debug=False, downsampling_method='conv', gpu=0, lr=0.01, nepochs=100, network='odenet', save='./experiment1', test_batch_size=1000, tol=0.001)
Namespace(adjoint=False, batch_size=128, data_aug=True, debug=False, downsampling_method='conv', gpu=0, lr=0.01, nepochs=100, network='odenet', save='./experiment1', test_batch_size=1000, tol=0.001)
Namespace(adjoint=False, batch_size=128, data_aug=True, debug=False, downsampling_method='conv', gpu=0, lr=0.01, nepochs=100, network='odenet', save='./experiment1', test_batch_size=1000, tol=0.001)
Sequential(
  (0): Conv2d(3, 4, kernel_size=(3, 3), stride=(1, 1))
  (1): BatchNorm2d(4, eps=4, momentum=0.1, affine=True, track_running_stats=True)
  (2): ReLU(inplace=True)
  (3): Conv2d(4, 4, kernel_size=(4, 4), stride=(2, 2), padding=(1, 1))
  (4): BatchNorm2d(4, eps=4, momentum=0.1, affine=True, track_running_stats=True)
  (5): ReLU(inplace=True)
  (6): Flatten()
  (7): ODEBlock(
    (odefunc): ODEfunc(
      (fc1): Linear(in_features=900, out_features=10, bias=True)
      (fc2): Linear(in_features=10, out_features=900, bias=True)
    )
  )
  (8): Linear(in_features=900, out_features=43, bias=True)
)
Sequential(
  (0): Conv2d(3, 4, kernel_size=(3, 3), stride=(1, 1))
  (1): BatchNorm2d(4, eps=4, momentum=0.1, affine=True, track_running_stats=True)
  (2): ReLU(inplace=True)
  (3): Conv2d(4, 4, kernel_size=(4, 4), stride=(2, 2), padding=(1, 1))
  (4): BatchNorm2d(4, eps=4, momentum=0.1, affine=True, track_running_stats=True)
  (5): ReLU(inplace=True)
  (6): Flatten()
  (7): ODEBlock(
    (odefunc): ODEfunc(
      (fc1): Linear(in_features=900, out_features=10, bias=True)
      (fc2): Linear(in_features=10, out_features=900, bias=True)
    )
  )
  (8): Linear(in_features=900, out_features=43, bias=True)
)
Sequential(
  (0): Conv2d(3, 4, kernel_size=(3, 3), stride=(1, 1))
  (1): BatchNorm2d(4, eps=4, momentum=0.1, affine=True, track_running_stats=True)
  (2): ReLU(inplace=True)
  (3): Conv2d(4, 4, kernel_size=(4, 4), stride=(2, 2), padding=(1, 1))
  (4): BatchNorm2d(4, eps=4, momentum=0.1, affine=True, track_running_stats=True)
  (5): ReLU(inplace=True)
  (6): Flatten()
  (7): ODEBlock(
    (odefunc): ODEfunc(
      (fc1): Linear(in_features=900, out_features=10, bias=True)
      (fc2): Linear(in_features=10, out_features=900, bias=True)
    )
  )
  (8): Linear(in_features=900, out_features=43, bias=True)
)
Sequential(
  (0): Conv2d(3, 4, kernel_size=(3, 3), stride=(1, 1))
  (1): BatchNorm2d(4, eps=4, momentum=0.1, affine=True, track_running_stats=True)
  (2): ReLU(inplace=True)
  (3): Conv2d(4, 4, kernel_size=(4, 4), stride=(2, 2), padding=(1, 1))
  (4): BatchNorm2d(4, eps=4, momentum=0.1, affine=True, track_running_stats=True)
  (5): ReLU(inplace=True)
  (6): Flatten()
  (7): ODEBlock(
    (odefunc): ODEfunc(
      (fc1): Linear(in_features=900, out_features=10, bias=True)
      (fc2): Linear(in_features=10, out_features=900, bias=True)
    )
  )
  (8): Linear(in_features=900, out_features=43, bias=True)
)
Sequential(
  (0): Conv2d(3, 4, kernel_size=(3, 3), stride=(1, 1))
  (1): BatchNorm2d(4, eps=4, momentum=0.1, affine=True, track_running_stats=True)
  (2): ReLU(inplace=True)
  (3): Conv2d(4, 4, kernel_size=(4, 4), stride=(2, 2), padding=(1, 1))
  (4): BatchNorm2d(4, eps=4, momentum=0.1, affine=True, track_running_stats=True)
  (5): ReLU(inplace=True)
  (6): Flatten()
  (7): ODEBlock(
    (odefunc): ODEfunc(
      (fc1): Linear(in_features=900, out_features=10, bias=True)
      (fc2): Linear(in_features=10, out_features=900, bias=True)
    )
  )
  (8): Linear(in_features=900, out_features=43, bias=True)
)
Number of parameters: 58041
Number of parameters: 58041
Number of parameters: 58041
Number of parameters: 58041
Number of parameters: 58041
Epoch 0000 | Time 0.482 (0.482) | NFE-F 14.0 | NFE-B 0.0 | Train Acc 0.0485 | Test Acc 0.0617
Epoch 0000 | Time 0.482 (0.482) | NFE-F 14.0 | NFE-B 0.0 | Train Acc 0.0485 | Test Acc 0.0617
Epoch 0000 | Time 0.482 (0.482) | NFE-F 14.0 | NFE-B 0.0 | Train Acc 0.0485 | Test Acc 0.0617
…
Namespace(adjoint=False, batch_size=128, data_aug=True, debug=False, downsampling_method='conv', gpu=0, lr=0.01, nepochs=100, network='odenet', save='./experiment1', test_batch_size=1000, tol=0.001)
Namespace(adjoint=False, batch_size=128, data_aug=True, debug=False, downsampling_method='conv', gpu=0, lr=0.01, nepochs=100, network='odenet', save='./experiment1', test_batch_size=1000, tol=0.001)
Namespace(adjoint=False, batch_size=128, data_aug=True, debug=False, downsampling_method='conv', gpu=0, lr=0.01, nepochs=100, network='odenet', save='./experiment1', test_batch_size=1000, tol=0.001)
Sequential(
  (0): Conv2d(3, 64, kernel_size=(3, 3), stride=(1, 1))
  (1): BatchNorm2d(64, eps=64, momentum=0.1, affine=True, track_running_stats=True)
  (2): AvgPool2d(kernel_size=64, stride=64, padding=0)
  (3): Conv2d(64, 64, kernel_size=(4, 4), stride=(2, 2), padding=(1, 1))
  (4): BatchNorm2d(64, eps=64, momentum=0.1, affine=True, track_running_stats=True)
  (5): AvgPool2d(kernel_size=64, stride=64, padding=0)
  (6): Conv2d(3, 64, kernel_size=(3, 3), stride=(1, 1))
  (7): BatchNorm2d(64, eps=64, momentum=0.1, affine=True, track_running_stats=True)
  (8): AvgPool2d(kernel_size=64, stride=64, padding=0)
  (9): Conv2d(64, 64, kernel_size=(4, 4), stride=(2, 2), padding=(1, 1))
  (10): BatchNorm2d(64, eps=64, momentum=0.1, affine=True, track_running_stats=True)
  (11): AvgPool2d(kernel_size=64, stride=64, padding=0)
  (12): Flatten()
  (13): ODEBlock(
    (odefunc): ODEfunc(
      (fc1): Linear(in_features=900, out_features=10, bias=True)
      (fc2): Linear(in_features=10, out_features=900, bias=True)
    )
  )
  (14): Linear(in_features=900, out_features=43, bias=True)
)
Sequential(
  (0): Conv2d(3, 64, kernel_size=(3, 3), stride=(1, 1))
  (1): BatchNorm2d(64, eps=64, momentum=0.1, affine=True, track_running_stats=True)
  (2): AvgPool2d(kernel_size=64, stride=64, padding=0)
  (3): Conv2d(64, 64, kernel_size=(4, 4), stride=(2, 2), padding=(1, 1))
  (4): BatchNorm2d(64, eps=64, momentum=0.1, affine=True, track_running_stats=True)
  (5): AvgPool2d(kernel_size=64, stride=64, padding=0)
  (6): Conv2d(3, 64, kernel_size=(3, 3), stride=(1, 1))
  (7): BatchNorm2d(64, eps=64, momentum=0.1, affine=True, track_running_stats=True)
  (8): AvgPool2d(kernel_size=64, stride=64, padding=0)
  (9): Conv2d(64, 64, kernel_size=(4, 4), stride=(2, 2), padding=(1, 1))
  (10): BatchNorm2d(64, eps=64, momentum=0.1, affine=True, track_running_stats=True)
  (11): AvgPool2d(kernel_size=64, stride=64, padding=0)
  (12): Flatten()
  (13): ODEBlock(
    (odefunc): ODEfunc(
      (fc1): Linear(in_features=900, out_features=10, bias=True)
      (fc2): Linear(in_features=10, out_features=900, bias=True)
    )
  )
  (14): Linear(in_features=900, out_features=43, bias=True)
)
Sequential(
  (0): Conv2d(3, 64, kernel_size=(3, 3), stride=(1, 1))
  (1): BatchNorm2d(64, eps=64, momentum=0.1, affine=True, track_running_stats=True)
  (2): AvgPool2d(kernel_size=64, stride=64, padding=0)
  (3): Conv2d(64, 64, kernel_size=(4, 4), stride=(2, 2), padding=(1, 1))
  (4): BatchNorm2d(64, eps=64, momentum=0.1, affine=True, track_running_stats=True)
  (5): AvgPool2d(kernel_size=64, stride=64, padding=0)
  (6): Conv2d(3, 64, kernel_size=(3, 3), stride=(1, 1))
  (7): BatchNorm2d(64, eps=64, momentum=0.1, affine=True, track_running_stats=True)
  (8): AvgPool2d(kernel_size=64, stride=64, padding=0)
  (9): Conv2d(64, 64, kernel_size=(4, 4), stride=(2, 2), padding=(1, 1))
  (10): BatchNorm2d(64, eps=64, momentum=0.1, affine=True, track_running_stats=True)
  (11): AvgPool2d(kernel_size=64, stride=64, padding=0)
  (12): Flatten()
  (13): ODEBlock(
    (odefunc): ODEfunc(
      (fc1): Linear(in_features=900, out_features=10, bias=True)
      (fc2): Linear(in_features=10, out_features=900, bias=True)
    )
  )
  (14): Linear(in_features=900, out_features=43, bias=True)
)
Sequential(
  (0): Conv2d(3, 64, kernel_size=(3, 3), stride=(1, 1))
  (1): BatchNorm2d(64, eps=64, momentum=0.1, affine=True, track_running_stats=True)
  (2): AvgPool2d(kernel_size=64, stride=64, padding=0)
  (3): Conv2d(64, 64, kernel_size=(4, 4), stride=(2, 2), padding=(1, 1))
  (4): BatchNorm2d(64, eps=64, momentum=0.1, affine=True, track_running_stats=True)
  (5): AvgPool2d(kernel_size=64, stride=64, padding=0)
  (6): Conv2d(3, 64, kernel_size=(3, 3), stride=(1, 1))
  (7): BatchNorm2d(64, eps=64, momentum=0.1, affine=True, track_running_stats=True)
  (8): AvgPool2d(kernel_size=64, stride=64, padding=0)
  (9): Conv2d(64, 64, kernel_size=(4, 4), stride=(2, 2), padding=(1, 1))
  (10): BatchNorm2d(64, eps=64, momentum=0.1, affine=True, track_running_stats=True)
  (11): AvgPool2d(kernel_size=64, stride=64, padding=0)
  (12): Flatten()
  (13): ODEBlock(
    (odefunc): ODEfunc(
      (fc1): Linear(in_features=900, out_features=10, bias=True)
      (fc2): Linear(in_features=10, out_features=900, bias=True)
    )
  )
  (14): Linear(in_features=900, out_features=43, bias=True)
)
Sequential(
  (0): Conv2d(3, 64, kernel_size=(3, 3), stride=(1, 1))
  (1): BatchNorm2d(64, eps=64, momentum=0.1, affine=True, track_running_stats=True)
  (2): AvgPool2d(kernel_size=64, stride=64, padding=0)
  (3): Conv2d(64, 64, kernel_size=(4, 4), stride=(2, 2), padding=(1, 1))
  (4): BatchNorm2d(64, eps=64, momentum=0.1, affine=True, track_running_stats=True)
  (5): AvgPool2d(kernel_size=64, stride=64, padding=0)
  (6): Conv2d(3, 64, kernel_size=(3, 3), stride=(1, 1))
  (7): BatchNorm2d(64, eps=64, momentum=0.1, affine=True, track_running_stats=True)
  (8): AvgPool2d(kernel_size=64, stride=64, padding=0)
  (9): Conv2d(64, 64, kernel_size=(4, 4), stride=(2, 2), padding=(1, 1))
  (10): BatchNorm2d(64, eps=64, momentum=0.1, affine=True, track_running_stats=True)
  (11): AvgPool2d(kernel_size=64, stride=64, padding=0)
  (12): Flatten()
  (13): ODEBlock(
    (odefunc): ODEfunc(
      (fc1): Linear(in_features=900, out_features=10, bias=True)
      (fc2): Linear(in_features=10, out_features=900, bias=True)
    )
  )
  (14): Linear(in_features=900, out_features=43, bias=True)
)
Sequential(
  (0): Conv2d(3, 64, kernel_size=(3, 3), stride=(1, 1))
  (1): BatchNorm2d(64, eps=64, momentum=0.1, affine=True, track_running_stats=True)
  (2): AvgPool2d(kernel_size=64, stride=64, padding=0)
  (3): Conv2d(64, 64, kernel_size=(4, 4), stride=(2, 2), padding=(1, 1))
  (4): BatchNorm2d(64, eps=64, momentum=0.1, affine=True, track_running_stats=True)
  (5): AvgPool2d(kernel_size=64, stride=64, padding=0)
  (6): Conv2d(3, 64, kernel_size=(3, 3), stride=(1, 1))
  (7): BatchNorm2d(64, eps=64, momentum=0.1, affine=True, track_running_stats=True)
  (8): AvgPool2d(kernel_size=64, stride=64, padding=0)
  (9): Conv2d(64, 64, kernel_size=(4, 4), stride=(2, 2), padding=(1, 1))
  (10): BatchNorm2d(64, eps=64, momentum=0.1, affine=True, track_running_stats=True)
  (11): AvgPool2d(kernel_size=64, stride=64, padding=0)
  (12): Flatten()
  (13): ODEBlock(
    (odefunc): ODEfunc(
      (fc1): Linear(in_features=900, out_features=10, bias=True)
      (fc2): Linear(in_features=10, out_features=900, bias=True)
    )
  )
  (14): Linear(in_features=900, out_features=43, bias=True)
)
Number of parameters: 192949
Number of parameters: 192949
Number of parameters: 192949
Number of parameters: 192949
Number of parameters: 192949
Number of parameters: 192949
/home/manzand/Documents/Python/neuralODE_examples/gtsrb/odenet_gtsrb_example_tiny.py
/home/manzand/Documents/Python/neuralODE_examples/gtsrb/odenet_gtsrb_example_tiny.py
/home/manzand/Documents/Python/neuralODE_examples/gtsrb/odenet_gtsrb_example_tiny.py
…
Namespace(adjoint=False, batch_size=128, data_aug=True, debug=False, downsampling_method='conv', gpu=0, lr=0.01, nepochs=100, network='odenet', save='./experiment1', test_batch_size=1000, tol=0.001)
Namespace(adjoint=False, batch_size=128, data_aug=True, debug=False, downsampling_method='conv', gpu=0, lr=0.01, nepochs=100, network='odenet', save='./experiment1', test_batch_size=1000, tol=0.001)
Namespace(adjoint=False, batch_size=128, data_aug=True, debug=False, downsampling_method='conv', gpu=0, lr=0.01, nepochs=100, network='odenet', save='./experiment1', test_batch_size=1000, tol=0.001)
Sequential(
  (0): Conv2d(3, 64, kernel_size=(3, 3), stride=(1, 1))
  (1): BatchNorm2d(64, eps=64, momentum=0.1, affine=True, track_running_stats=True)
  (2): AvgPool2d(kernel_size=2, stride=2, padding=0)
  (3): Conv2d(64, 64, kernel_size=(4, 4), stride=(2, 2), padding=(1, 1))
  (4): BatchNorm2d(64, eps=64, momentum=0.1, affine=True, track_running_stats=True)
  (5): AvgPool2d(kernel_size=2, stride=2, padding=0)
  (6): Conv2d(3, 64, kernel_size=(3, 3), stride=(1, 1))
  (7): BatchNorm2d(64, eps=64, momentum=0.1, affine=True, track_running_stats=True)
  (8): AvgPool2d(kernel_size=2, stride=2, padding=0)
  (9): Conv2d(64, 64, kernel_size=(4, 4), stride=(2, 2), padding=(1, 1))
  (10): BatchNorm2d(64, eps=64, momentum=0.1, affine=True, track_running_stats=True)
  (11): AvgPool2d(kernel_size=64, stride=64, padding=0)
  (12): Flatten()
  (13): ODEBlock(
    (odefunc): ODEfunc(
      (fc1): Linear(in_features=900, out_features=10, bias=True)
      (fc2): Linear(in_features=10, out_features=900, bias=True)
    )
  )
  (14): Linear(in_features=900, out_features=43, bias=True)
)
Sequential(
  (0): Conv2d(3, 64, kernel_size=(3, 3), stride=(1, 1))
  (1): BatchNorm2d(64, eps=64, momentum=0.1, affine=True, track_running_stats=True)
  (2): AvgPool2d(kernel_size=2, stride=2, padding=0)
  (3): Conv2d(64, 64, kernel_size=(4, 4), stride=(2, 2), padding=(1, 1))
  (4): BatchNorm2d(64, eps=64, momentum=0.1, affine=True, track_running_stats=True)
  (5): AvgPool2d(kernel_size=2, stride=2, padding=0)
  (6): Conv2d(3, 64, kernel_size=(3, 3), stride=(1, 1))
  (7): BatchNorm2d(64, eps=64, momentum=0.1, affine=True, track_running_stats=True)
  (8): AvgPool2d(kernel_size=2, stride=2, padding=0)
  (9): Conv2d(64, 64, kernel_size=(4, 4), stride=(2, 2), padding=(1, 1))
  (10): BatchNorm2d(64, eps=64, momentum=0.1, affine=True, track_running_stats=True)
  (11): AvgPool2d(kernel_size=64, stride=64, padding=0)
  (12): Flatten()
  (13): ODEBlock(
    (odefunc): ODEfunc(
      (fc1): Linear(in_features=900, out_features=10, bias=True)
      (fc2): Linear(in_features=10, out_features=900, bias=True)
    )
  )
  (14): Linear(in_features=900, out_features=43, bias=True)
)
Sequential(
  (0): Conv2d(3, 64, kernel_size=(3, 3), stride=(1, 1))
  (1): BatchNorm2d(64, eps=64, momentum=0.1, affine=True, track_running_stats=True)
  (2): AvgPool2d(kernel_size=2, stride=2, padding=0)
  (3): Conv2d(64, 64, kernel_size=(4, 4), stride=(2, 2), padding=(1, 1))
  (4): BatchNorm2d(64, eps=64, momentum=0.1, affine=True, track_running_stats=True)
  (5): AvgPool2d(kernel_size=2, stride=2, padding=0)
  (6): Conv2d(3, 64, kernel_size=(3, 3), stride=(1, 1))
  (7): BatchNorm2d(64, eps=64, momentum=0.1, affine=True, track_running_stats=True)
  (8): AvgPool2d(kernel_size=2, stride=2, padding=0)
  (9): Conv2d(64, 64, kernel_size=(4, 4), stride=(2, 2), padding=(1, 1))
  (10): BatchNorm2d(64, eps=64, momentum=0.1, affine=True, track_running_stats=True)
  (11): AvgPool2d(kernel_size=64, stride=64, padding=0)
  (12): Flatten()
  (13): ODEBlock(
    (odefunc): ODEfunc(
      (fc1): Linear(in_features=900, out_features=10, bias=True)
      (fc2): Linear(in_features=10, out_features=900, bias=True)
    )
  )
  (14): Linear(in_features=900, out_features=43, bias=True)
)
Sequential(
  (0): Conv2d(3, 64, kernel_size=(3, 3), stride=(1, 1))
  (1): BatchNorm2d(64, eps=64, momentum=0.1, affine=True, track_running_stats=True)
  (2): AvgPool2d(kernel_size=2, stride=2, padding=0)
  (3): Conv2d(64, 64, kernel_size=(4, 4), stride=(2, 2), padding=(1, 1))
  (4): BatchNorm2d(64, eps=64, momentum=0.1, affine=True, track_running_stats=True)
  (5): AvgPool2d(kernel_size=2, stride=2, padding=0)
  (6): Conv2d(3, 64, kernel_size=(3, 3), stride=(1, 1))
  (7): BatchNorm2d(64, eps=64, momentum=0.1, affine=True, track_running_stats=True)
  (8): AvgPool2d(kernel_size=2, stride=2, padding=0)
  (9): Conv2d(64, 64, kernel_size=(4, 4), stride=(2, 2), padding=(1, 1))
  (10): BatchNorm2d(64, eps=64, momentum=0.1, affine=True, track_running_stats=True)
  (11): AvgPool2d(kernel_size=64, stride=64, padding=0)
  (12): Flatten()
  (13): ODEBlock(
    (odefunc): ODEfunc(
      (fc1): Linear(in_features=900, out_features=10, bias=True)
      (fc2): Linear(in_features=10, out_features=900, bias=True)
    )
  )
  (14): Linear(in_features=900, out_features=43, bias=True)
)
Sequential(
  (0): Conv2d(3, 64, kernel_size=(3, 3), stride=(1, 1))
  (1): BatchNorm2d(64, eps=64, momentum=0.1, affine=True, track_running_stats=True)
  (2): AvgPool2d(kernel_size=2, stride=2, padding=0)
  (3): Conv2d(64, 64, kernel_size=(4, 4), stride=(2, 2), padding=(1, 1))
  (4): BatchNorm2d(64, eps=64, momentum=0.1, affine=True, track_running_stats=True)
  (5): AvgPool2d(kernel_size=2, stride=2, padding=0)
  (6): Conv2d(3, 64, kernel_size=(3, 3), stride=(1, 1))
  (7): BatchNorm2d(64, eps=64, momentum=0.1, affine=True, track_running_stats=True)
  (8): AvgPool2d(kernel_size=2, stride=2, padding=0)
  (9): Conv2d(64, 64, kernel_size=(4, 4), stride=(2, 2), padding=(1, 1))
  (10): BatchNorm2d(64, eps=64, momentum=0.1, affine=True, track_running_stats=True)
  (11): AvgPool2d(kernel_size=64, stride=64, padding=0)
  (12): Flatten()
  (13): ODEBlock(
    (odefunc): ODEfunc(
      (fc1): Linear(in_features=900, out_features=10, bias=True)
      (fc2): Linear(in_features=10, out_features=900, bias=True)
    )
  )
  (14): Linear(in_features=900, out_features=43, bias=True)
)
Sequential(
  (0): Conv2d(3, 64, kernel_size=(3, 3), stride=(1, 1))
  (1): BatchNorm2d(64, eps=64, momentum=0.1, affine=True, track_running_stats=True)
  (2): AvgPool2d(kernel_size=2, stride=2, padding=0)
  (3): Conv2d(64, 64, kernel_size=(4, 4), stride=(2, 2), padding=(1, 1))
  (4): BatchNorm2d(64, eps=64, momentum=0.1, affine=True, track_running_stats=True)
  (5): AvgPool2d(kernel_size=2, stride=2, padding=0)
  (6): Conv2d(3, 64, kernel_size=(3, 3), stride=(1, 1))
  (7): BatchNorm2d(64, eps=64, momentum=0.1, affine=True, track_running_stats=True)
  (8): AvgPool2d(kernel_size=2, stride=2, padding=0)
  (9): Conv2d(64, 64, kernel_size=(4, 4), stride=(2, 2), padding=(1, 1))
  (10): BatchNorm2d(64, eps=64, momentum=0.1, affine=True, track_running_stats=True)
  (11): AvgPool2d(kernel_size=64, stride=64, padding=0)
  (12): Flatten()
  (13): ODEBlock(
    (odefunc): ODEfunc(
      (fc1): Linear(in_features=900, out_features=10, bias=True)
      (fc2): Linear(in_features=10, out_features=900, bias=True)
    )
  )
  (14): Linear(in_features=900, out_features=43, bias=True)
)
Sequential(
  (0): Conv2d(3, 64, kernel_size=(3, 3), stride=(1, 1))
  (1): BatchNorm2d(64, eps=64, momentum=0.1, affine=True, track_running_stats=True)
  (2): AvgPool2d(kernel_size=2, stride=2, padding=0)
  (3): Conv2d(64, 64, kernel_size=(4, 4), stride=(2, 2), padding=(1, 1))
  (4): BatchNorm2d(64, eps=64, momentum=0.1, affine=True, track_running_stats=True)
  (5): AvgPool2d(kernel_size=2, stride=2, padding=0)
  (6): Conv2d(3, 64, kernel_size=(3, 3), stride=(1, 1))
  (7): BatchNorm2d(64, eps=64, momentum=0.1, affine=True, track_running_stats=True)
  (8): AvgPool2d(kernel_size=2, stride=2, padding=0)
  (9): Conv2d(64, 64, kernel_size=(4, 4), stride=(2, 2), padding=(1, 1))
  (10): BatchNorm2d(64, eps=64, momentum=0.1, affine=True, track_running_stats=True)
  (11): AvgPool2d(kernel_size=64, stride=64, padding=0)
  (12): Flatten()
  (13): ODEBlock(
    (odefunc): ODEfunc(
      (fc1): Linear(in_features=900, out_features=10, bias=True)
      (fc2): Linear(in_features=10, out_features=900, bias=True)
    )
  )
  (14): Linear(in_features=900, out_features=43, bias=True)
)
Number of parameters: 192949
Number of parameters: 192949
Number of parameters: 192949
Number of parameters: 192949
Number of parameters: 192949
Number of parameters: 192949
Number of parameters: 192949
Epoch 0012 | Time 1.535 (0.830) | NFE-F 69.9 | NFE-B 0.0 | Train Acc 0.3555 | Test Acc 0.3401
/home/manzand/Documents/Python/neuralODE_examples/gtsrb/odenet_gtsrb_example_tiny.py
…
                    )
                )
    names = []
    params = []
    for name,param in model.named_parameters():
        names.append(name)
        params.append(param.detach().numpy())
    nn1 = dict({'Wb':params,'names':names})
    for name,param in model.named_buffers():
        names.append(name)
        params.append(param.detach().numpy())
    savemat("odecnn_gtsrb_tiny.mat",nn1)
Namespace(adjoint=False, batch_size=128, data_aug=True, debug=False, downsampling_method='conv', gpu=0, lr=0.01, nepochs=100, network='odenet', save='./experiment1', test_batch_size=1000, tol=0.001)
Sequential(
  (0): Conv2d(3, 64, kernel_size=(3, 3), stride=(1, 1))
  (1): BatchNorm2d(64, eps=64, momentum=0.1, affine=True, track_running_stats=True)
  (2): AvgPool2d(kernel_size=2, stride=2, padding=0)
  (3): Conv2d(64, 64, kernel_size=(4, 4), stride=(2, 2), padding=(1, 1))
  (4): BatchNorm2d(64, eps=64, momentum=0.1, affine=True, track_running_stats=True)
  (5): AvgPool2d(kernel_size=2, stride=2, padding=0)
  (6): Conv2d(3, 64, kernel_size=(3, 3), stride=(1, 1))
  (7): BatchNorm2d(64, eps=64, momentum=0.1, affine=True, track_running_stats=True)
  (8): AvgPool2d(kernel_size=2, stride=2, padding=0)
  (9): Conv2d(64, 64, kernel_size=(4, 4), stride=(2, 2), padding=(1, 1))
  (10): BatchNorm2d(64, eps=64, momentum=0.1, affine=True, track_running_stats=True)
  (11): AvgPool2d(kernel_size=2, stride=2, padding=0)
  (12): Flatten()
  (13): ODEBlock(
    (odefunc): ODEfunc(
      (fc1): Linear(in_features=900, out_features=10, bias=True)
      (fc2): Linear(in_features=10, out_features=900, bias=True)
    )
  )
  (14): Linear(in_features=900, out_features=43, bias=True)
)
Number of parameters: 192949
/home/manzand/Documents/Python/neuralODE_examples/gtsrb/odenet_gtsrb_example_tiny.py
/home/manzand/Documents/Python/neuralODE_examples/gtsrb/odenet_gtsrb_example_tiny.py
#!/usr/bin/env python3
# -*- coding: utf-8 -*-
"""
Created on Thu Feb  4 09:04:31 2021

@author: manzand
"""

#!/usr/bin/env python3
# -*- coding: utf-8 -*-
…
    nn1 = dict({'Wb':params,'names':names})
    for name,param in model.named_buffers():
        names.append(name)
        params.append(param.detach().numpy())
    savemat("odecnn_gtsrb_tiny.mat",nn1)
Namespace(adjoint=False, batch_size=128, data_aug=True, debug=False, downsampling_method='conv', gpu=0, lr=0.01, nepochs=100, network='odenet', save='./experiment1', test_batch_size=1000, tol=0.001)
Namespace(adjoint=False, batch_size=128, data_aug=True, debug=False, downsampling_method='conv', gpu=0, lr=0.01, nepochs=100, network='odenet', save='./experiment1', test_batch_size=1000, tol=0.001)
Sequential(
  (0): Conv2d(3, 64, kernel_size=(3, 3), stride=(1, 1))
  (1): BatchNorm2d(64, eps=64, momentum=0.1, affine=True, track_running_stats=True)
  (2): AvgPool2d(kernel_size=2, stride=2, padding=0)
  (3): Conv2d(64, 64, kernel_size=(4, 4), stride=(2, 2), padding=(1, 1))
  (4): BatchNorm2d(64, eps=64, momentum=0.1, affine=True, track_running_stats=True)
  (5): AvgPool2d(kernel_size=2, stride=2, padding=0)
  (6): Conv2d(64, 64, kernel_size=(3, 3), stride=(1, 1))
  (7): BatchNorm2d(64, eps=64, momentum=0.1, affine=True, track_running_stats=True)
  (8): AvgPool2d(kernel_size=2, stride=2, padding=0)
  (9): Conv2d(64, 64, kernel_size=(4, 4), stride=(2, 2), padding=(1, 1))
  (10): BatchNorm2d(64, eps=64, momentum=0.1, affine=True, track_running_stats=True)
  (11): AvgPool2d(kernel_size=2, stride=2, padding=0)
  (12): Flatten()
  (13): ODEBlock(
    (odefunc): ODEfunc(
      (fc1): Linear(in_features=900, out_features=10, bias=True)
      (fc2): Linear(in_features=10, out_features=900, bias=True)
    )
  )
  (14): Linear(in_features=900, out_features=43, bias=True)
)
Sequential(
  (0): Conv2d(3, 64, kernel_size=(3, 3), stride=(1, 1))
  (1): BatchNorm2d(64, eps=64, momentum=0.1, affine=True, track_running_stats=True)
  (2): AvgPool2d(kernel_size=2, stride=2, padding=0)
  (3): Conv2d(64, 64, kernel_size=(4, 4), stride=(2, 2), padding=(1, 1))
  (4): BatchNorm2d(64, eps=64, momentum=0.1, affine=True, track_running_stats=True)
  (5): AvgPool2d(kernel_size=2, stride=2, padding=0)
  (6): Conv2d(64, 64, kernel_size=(3, 3), stride=(1, 1))
  (7): BatchNorm2d(64, eps=64, momentum=0.1, affine=True, track_running_stats=True)
  (8): AvgPool2d(kernel_size=2, stride=2, padding=0)
  (9): Conv2d(64, 64, kernel_size=(4, 4), stride=(2, 2), padding=(1, 1))
  (10): BatchNorm2d(64, eps=64, momentum=0.1, affine=True, track_running_stats=True)
  (11): AvgPool2d(kernel_size=2, stride=2, padding=0)
  (12): Flatten()
  (13): ODEBlock(
    (odefunc): ODEfunc(
      (fc1): Linear(in_features=900, out_features=10, bias=True)
      (fc2): Linear(in_features=10, out_features=900, bias=True)
    )
  )
  (14): Linear(in_features=900, out_features=43, bias=True)
)
Number of parameters: 228085
Number of parameters: 228085
/home/manzand/Documents/Python/neuralODE_examples/gtsrb/odenet_gtsrb_example_tiny.py
/home/manzand/Documents/Python/neuralODE_examples/gtsrb/odenet_gtsrb_example_tiny.py
/home/manzand/Documents/Python/neuralODE_examples/gtsrb/odenet_gtsrb_example_tiny.py
#!/usr/bin/env python3
# -*- coding: utf-8 -*-
…
Namespace(adjoint=False, batch_size=128, data_aug=True, debug=False, downsampling_method='conv', gpu=0, lr=0.01, nepochs=100, network='odenet', save='./experiment1', test_batch_size=1000, tol=0.001)
Namespace(adjoint=False, batch_size=128, data_aug=True, debug=False, downsampling_method='conv', gpu=0, lr=0.01, nepochs=100, network='odenet', save='./experiment1', test_batch_size=1000, tol=0.001)
Namespace(adjoint=False, batch_size=128, data_aug=True, debug=False, downsampling_method='conv', gpu=0, lr=0.01, nepochs=100, network='odenet', save='./experiment1', test_batch_size=1000, tol=0.001)
Sequential(
  (0): Conv2d(3, 64, kernel_size=(3, 3), stride=(1, 1))
  (1): BatchNorm2d(64, eps=64, momentum=0.1, affine=True, track_running_stats=True)
  (2): AvgPool2d(kernel_size=2, stride=2, padding=0)
  (3): Conv2d(64, 64, kernel_size=(4, 4), stride=(2, 2), padding=(1, 1))
  (4): BatchNorm2d(64, eps=64, momentum=0.1, affine=True, track_running_stats=True)
  (5): AvgPool2d(kernel_size=2, stride=2, padding=0)
  (6): Flatten()
  (7): ODEBlock(
    (odefunc): ODEfunc(
      (fc1): Linear(in_features=900, out_features=10, bias=True)
      (fc2): Linear(in_features=10, out_features=900, bias=True)
    )
  )
  (8): Linear(in_features=900, out_features=43, bias=True)
)
Sequential(
  (0): Conv2d(3, 64, kernel_size=(3, 3), stride=(1, 1))
  (1): BatchNorm2d(64, eps=64, momentum=0.1, affine=True, track_running_stats=True)
  (2): AvgPool2d(kernel_size=2, stride=2, padding=0)
  (3): Conv2d(64, 64, kernel_size=(4, 4), stride=(2, 2), padding=(1, 1))
  (4): BatchNorm2d(64, eps=64, momentum=0.1, affine=True, track_running_stats=True)
  (5): AvgPool2d(kernel_size=2, stride=2, padding=0)
  (6): Flatten()
  (7): ODEBlock(
    (odefunc): ODEfunc(
      (fc1): Linear(in_features=900, out_features=10, bias=True)
      (fc2): Linear(in_features=10, out_features=900, bias=True)
    )
  )
  (8): Linear(in_features=900, out_features=43, bias=True)
)
Sequential(
  (0): Conv2d(3, 64, kernel_size=(3, 3), stride=(1, 1))
  (1): BatchNorm2d(64, eps=64, momentum=0.1, affine=True, track_running_stats=True)
  (2): AvgPool2d(kernel_size=2, stride=2, padding=0)
  (3): Conv2d(64, 64, kernel_size=(4, 4), stride=(2, 2), padding=(1, 1))
  (4): BatchNorm2d(64, eps=64, momentum=0.1, affine=True, track_running_stats=True)
  (5): AvgPool2d(kernel_size=2, stride=2, padding=0)
  (6): Flatten()
  (7): ODEBlock(
    (odefunc): ODEfunc(
      (fc1): Linear(in_features=900, out_features=10, bias=True)
      (fc2): Linear(in_features=10, out_features=900, bias=True)
    )
  )
  (8): Linear(in_features=900, out_features=43, bias=True)
)
Number of parameters: 125301
Number of parameters: 125301
Number of parameters: 125301
/home/manzand/Documents/Python/neuralODE_examples/gtsrb/odenet_gtsrb_example_tiny.py
/home/manzand/Documents/Python/neuralODE_examples/gtsrb/odenet_gtsrb_example_tiny.py
/home/manzand/Documents/Python/neuralODE_examples/gtsrb/odenet_gtsrb_example_tiny.py
/home/manzand/Documents/Python/neuralODE_examples/gtsrb/odenet_gtsrb_example_tiny.py
…
Namespace(adjoint=False, batch_size=128, data_aug=True, debug=False, downsampling_method='conv', gpu=0, lr=0.01, nepochs=100, network='odenet', save='./experiment1', test_batch_size=1000, tol=0.001)
Namespace(adjoint=False, batch_size=128, data_aug=True, debug=False, downsampling_method='conv', gpu=0, lr=0.01, nepochs=100, network='odenet', save='./experiment1', test_batch_size=1000, tol=0.001)
Namespace(adjoint=False, batch_size=128, data_aug=True, debug=False, downsampling_method='conv', gpu=0, lr=0.01, nepochs=100, network='odenet', save='./experiment1', test_batch_size=1000, tol=0.001)
Sequential(
  (0): Conv2d(3, 64, kernel_size=(3, 3), stride=(1, 1))
  (1): BatchNorm2d(64, eps=64, momentum=0.1, affine=True, track_running_stats=True)
  (2): AvgPool2d(kernel_size=2, stride=2, padding=0)
  (3): Conv2d(64, 128, kernel_size=(4, 4), stride=(2, 2), padding=(1, 1))
  (4): BatchNorm2d(64, eps=128, momentum=0.1, affine=True, track_running_stats=True)
  (5): AvgPool2d(kernel_size=2, stride=2, padding=0)
  (6): Conv2d(128, 128, kernel_size=(4, 4), stride=(2, 2), padding=(1, 1))
  (7): BatchNorm2d(64, eps=128, momentum=0.1, affine=True, track_running_stats=True)
  (8): AvgPool2d(kernel_size=2, stride=2, padding=0)
  (9): Flatten()
  (10): ODEBlock(
    (odefunc): ODEfunc(
      (fc1): Linear(in_features=900, out_features=10, bias=True)
      (fc2): Linear(in_features=10, out_features=900, bias=True)
    )
  )
  (11): Linear(in_features=900, out_features=43, bias=True)
)
Sequential(
  (0): Conv2d(3, 64, kernel_size=(3, 3), stride=(1, 1))
  (1): BatchNorm2d(64, eps=64, momentum=0.1, affine=True, track_running_stats=True)
  (2): AvgPool2d(kernel_size=2, stride=2, padding=0)
  (3): Conv2d(64, 128, kernel_size=(4, 4), stride=(2, 2), padding=(1, 1))
  (4): BatchNorm2d(64, eps=128, momentum=0.1, affine=True, track_running_stats=True)
  (5): AvgPool2d(kernel_size=2, stride=2, padding=0)
  (6): Conv2d(128, 128, kernel_size=(4, 4), stride=(2, 2), padding=(1, 1))
  (7): BatchNorm2d(64, eps=128, momentum=0.1, affine=True, track_running_stats=True)
  (8): AvgPool2d(kernel_size=2, stride=2, padding=0)
  (9): Flatten()
  (10): ODEBlock(
    (odefunc): ODEfunc(
      (fc1): Linear(in_features=900, out_features=10, bias=True)
      (fc2): Linear(in_features=10, out_features=900, bias=True)
    )
  )
  (11): Linear(in_features=900, out_features=43, bias=True)
)
Sequential(
  (0): Conv2d(3, 64, kernel_size=(3, 3), stride=(1, 1))
  (1): BatchNorm2d(64, eps=64, momentum=0.1, affine=True, track_running_stats=True)
  (2): AvgPool2d(kernel_size=2, stride=2, padding=0)
  (3): Conv2d(64, 128, kernel_size=(4, 4), stride=(2, 2), padding=(1, 1))
  (4): BatchNorm2d(64, eps=128, momentum=0.1, affine=True, track_running_stats=True)
  (5): AvgPool2d(kernel_size=2, stride=2, padding=0)
  (6): Conv2d(128, 128, kernel_size=(4, 4), stride=(2, 2), padding=(1, 1))
  (7): BatchNorm2d(64, eps=128, momentum=0.1, affine=True, track_running_stats=True)
  (8): AvgPool2d(kernel_size=2, stride=2, padding=0)
  (9): Flatten()
  (10): ODEBlock(
    (odefunc): ODEfunc(
      (fc1): Linear(in_features=900, out_features=10, bias=True)
      (fc2): Linear(in_features=10, out_features=900, bias=True)
    )
  )
  (11): Linear(in_features=900, out_features=43, bias=True)
)
Sequential(
  (0): Conv2d(3, 64, kernel_size=(3, 3), stride=(1, 1))
  (1): BatchNorm2d(64, eps=64, momentum=0.1, affine=True, track_running_stats=True)
  (2): AvgPool2d(kernel_size=2, stride=2, padding=0)
  (3): Conv2d(64, 128, kernel_size=(4, 4), stride=(2, 2), padding=(1, 1))
  (4): BatchNorm2d(64, eps=128, momentum=0.1, affine=True, track_running_stats=True)
  (5): AvgPool2d(kernel_size=2, stride=2, padding=0)
  (6): Conv2d(128, 128, kernel_size=(4, 4), stride=(2, 2), padding=(1, 1))
  (7): BatchNorm2d(64, eps=128, momentum=0.1, affine=True, track_running_stats=True)
  (8): AvgPool2d(kernel_size=2, stride=2, padding=0)
  (9): Flatten()
  (10): ODEBlock(
    (odefunc): ODEfunc(
      (fc1): Linear(in_features=900, out_features=10, bias=True)
      (fc2): Linear(in_features=10, out_features=900, bias=True)
    )
  )
  (11): Linear(in_features=900, out_features=43, bias=True)
)
Number of parameters: 453301
Number of parameters: 453301
Number of parameters: 453301
Number of parameters: 453301
/home/manzand/Documents/Python/neuralODE_examples/gtsrb/odenet_gtsrb_example_tiny.py
/home/manzand/Documents/Python/neuralODE_examples/gtsrb/odenet_gtsrb_example_tiny.py
/home/manzand/Documents/Python/neuralODE_examples/gtsrb/odenet_gtsrb_example_tiny.py
…
Namespace(adjoint=False, batch_size=128, data_aug=True, debug=False, downsampling_method='conv', gpu=0, lr=0.01, nepochs=100, network='odenet', save='./experiment1', test_batch_size=1000, tol=0.001)
Namespace(adjoint=False, batch_size=128, data_aug=True, debug=False, downsampling_method='conv', gpu=0, lr=0.01, nepochs=100, network='odenet', save='./experiment1', test_batch_size=1000, tol=0.001)
Namespace(adjoint=False, batch_size=128, data_aug=True, debug=False, downsampling_method='conv', gpu=0, lr=0.01, nepochs=100, network='odenet', save='./experiment1', test_batch_size=1000, tol=0.001)
Sequential(
  (0): Conv2d(3, 64, kernel_size=(3, 3), stride=(1, 1))
  (1): BatchNorm2d(64, eps=64, momentum=0.1, affine=True, track_running_stats=True)
  (2): AvgPool2d(kernel_size=2, stride=2, padding=0)
  (3): Conv2d(64, 128, kernel_size=(4, 4), stride=(2, 2), padding=(1, 1))
  (4): BatchNorm2d(128, eps=128, momentum=0.1, affine=True, track_running_stats=True)
  (5): AvgPool2d(kernel_size=2, stride=2, padding=0)
  (6): Conv2d(128, 128, kernel_size=(4, 4), stride=(2, 2), padding=(1, 1))
  (7): BatchNorm2d(128, eps=128, momentum=0.1, affine=True, track_running_stats=True)
  (8): AvgPool2d(kernel_size=2, stride=2, padding=0)
  (9): Flatten()
  (10): ODEBlock(
    (odefunc): ODEfunc(
      (fc1): Linear(in_features=900, out_features=10, bias=True)
      (fc2): Linear(in_features=10, out_features=900, bias=True)
    )
  )
  (11): Linear(in_features=900, out_features=43, bias=True)
)
Sequential(
  (0): Conv2d(3, 64, kernel_size=(3, 3), stride=(1, 1))
  (1): BatchNorm2d(64, eps=64, momentum=0.1, affine=True, track_running_stats=True)
  (2): AvgPool2d(kernel_size=2, stride=2, padding=0)
  (3): Conv2d(64, 128, kernel_size=(4, 4), stride=(2, 2), padding=(1, 1))
  (4): BatchNorm2d(128, eps=128, momentum=0.1, affine=True, track_running_stats=True)
  (5): AvgPool2d(kernel_size=2, stride=2, padding=0)
  (6): Conv2d(128, 128, kernel_size=(4, 4), stride=(2, 2), padding=(1, 1))
  (7): BatchNorm2d(128, eps=128, momentum=0.1, affine=True, track_running_stats=True)
  (8): AvgPool2d(kernel_size=2, stride=2, padding=0)
  (9): Flatten()
  (10): ODEBlock(
    (odefunc): ODEfunc(
      (fc1): Linear(in_features=900, out_features=10, bias=True)
      (fc2): Linear(in_features=10, out_features=900, bias=True)
    )
  )
  (11): Linear(in_features=900, out_features=43, bias=True)
)
Sequential(
  (0): Conv2d(3, 64, kernel_size=(3, 3), stride=(1, 1))
  (1): BatchNorm2d(64, eps=64, momentum=0.1, affine=True, track_running_stats=True)
  (2): AvgPool2d(kernel_size=2, stride=2, padding=0)
  (3): Conv2d(64, 128, kernel_size=(4, 4), stride=(2, 2), padding=(1, 1))
  (4): BatchNorm2d(128, eps=128, momentum=0.1, affine=True, track_running_stats=True)
  (5): AvgPool2d(kernel_size=2, stride=2, padding=0)
  (6): Conv2d(128, 128, kernel_size=(4, 4), stride=(2, 2), padding=(1, 1))
  (7): BatchNorm2d(128, eps=128, momentum=0.1, affine=True, track_running_stats=True)
  (8): AvgPool2d(kernel_size=2, stride=2, padding=0)
  (9): Flatten()
  (10): ODEBlock(
    (odefunc): ODEfunc(
      (fc1): Linear(in_features=900, out_features=10, bias=True)
      (fc2): Linear(in_features=10, out_features=900, bias=True)
    )
  )
  (11): Linear(in_features=900, out_features=43, bias=True)
)
Sequential(
  (0): Conv2d(3, 64, kernel_size=(3, 3), stride=(1, 1))
  (1): BatchNorm2d(64, eps=64, momentum=0.1, affine=True, track_running_stats=True)
  (2): AvgPool2d(kernel_size=2, stride=2, padding=0)
  (3): Conv2d(64, 128, kernel_size=(4, 4), stride=(2, 2), padding=(1, 1))
  (4): BatchNorm2d(128, eps=128, momentum=0.1, affine=True, track_running_stats=True)
  (5): AvgPool2d(kernel_size=2, stride=2, padding=0)
  (6): Conv2d(128, 128, kernel_size=(4, 4), stride=(2, 2), padding=(1, 1))
  (7): BatchNorm2d(128, eps=128, momentum=0.1, affine=True, track_running_stats=True)
  (8): AvgPool2d(kernel_size=2, stride=2, padding=0)
  (9): Flatten()
  (10): ODEBlock(
    (odefunc): ODEfunc(
      (fc1): Linear(in_features=900, out_features=10, bias=True)
      (fc2): Linear(in_features=10, out_features=900, bias=True)
    )
  )
  (11): Linear(in_features=900, out_features=43, bias=True)
)
Sequential(
  (0): Conv2d(3, 64, kernel_size=(3, 3), stride=(1, 1))
  (1): BatchNorm2d(64, eps=64, momentum=0.1, affine=True, track_running_stats=True)
  (2): AvgPool2d(kernel_size=2, stride=2, padding=0)
  (3): Conv2d(64, 128, kernel_size=(4, 4), stride=(2, 2), padding=(1, 1))
  (4): BatchNorm2d(128, eps=128, momentum=0.1, affine=True, track_running_stats=True)
  (5): AvgPool2d(kernel_size=2, stride=2, padding=0)
  (6): Conv2d(128, 128, kernel_size=(4, 4), stride=(2, 2), padding=(1, 1))
  (7): BatchNorm2d(128, eps=128, momentum=0.1, affine=True, track_running_stats=True)
  (8): AvgPool2d(kernel_size=2, stride=2, padding=0)
  (9): Flatten()
  (10): ODEBlock(
    (odefunc): ODEfunc(
      (fc1): Linear(in_features=900, out_features=10, bias=True)
      (fc2): Linear(in_features=10, out_features=900, bias=True)
    )
  )
  (11): Linear(in_features=900, out_features=43, bias=True)
)
Number of parameters: 453557
Number of parameters: 453557
Number of parameters: 453557
Number of parameters: 453557
Number of parameters: 453557
/home/manzand/Documents/Python/neuralODE_examples/gtsrb/odenet_gtsrb_example_tiny.py
/home/manzand/Documents/Python/neuralODE_examples/gtsrb/odenet_gtsrb_example_tiny.py
/home/manzand/Documents/Python/neuralODE_examples/gtsrb/odenet_gtsrb_example_tiny.py
…
Namespace(adjoint=False, batch_size=128, data_aug=True, debug=False, downsampling_method='conv', gpu=0, lr=0.01, nepochs=100, network='odenet', save='./experiment1', test_batch_size=1000, tol=0.001)
Namespace(adjoint=False, batch_size=128, data_aug=True, debug=False, downsampling_method='conv', gpu=0, lr=0.01, nepochs=100, network='odenet', save='./experiment1', test_batch_size=1000, tol=0.001)
Namespace(adjoint=False, batch_size=128, data_aug=True, debug=False, downsampling_method='conv', gpu=0, lr=0.01, nepochs=100, network='odenet', save='./experiment1', test_batch_size=1000, tol=0.001)
Sequential(
  (0): Conv2d(3, 64, kernel_size=(3, 3), stride=(1, 1))
  (1): BatchNorm2d(64, eps=64, momentum=0.1, affine=True, track_running_stats=True)
  (2): AvgPool2d(kernel_size=2, stride=2, padding=0)
  (3): Conv2d(64, 128, kernel_size=(4, 4), stride=(2, 2), padding=(1, 1))
  (4): BatchNorm2d(128, eps=128, momentum=0.1, affine=True, track_running_stats=True)
  (5): AvgPool2d(kernel_size=2, stride=2, padding=0)
  (6): Conv2d(128, 256, kernel_size=(4, 4), stride=(2, 2), padding=(1, 1))
  (7): BatchNorm2d(256, eps=256, momentum=0.1, affine=True, track_running_stats=True)
  (8): AvgPool2d(kernel_size=2, stride=2, padding=0)
  (9): Flatten()
  (10): ODEBlock(
    (odefunc): ODEfunc(
      (fc1): Linear(in_features=900, out_features=10, bias=True)
      (fc2): Linear(in_features=10, out_features=900, bias=True)
    )
  )
  (11): Linear(in_features=900, out_features=43, bias=True)
)
Sequential(
  (0): Conv2d(3, 64, kernel_size=(3, 3), stride=(1, 1))
  (1): BatchNorm2d(64, eps=64, momentum=0.1, affine=True, track_running_stats=True)
  (2): AvgPool2d(kernel_size=2, stride=2, padding=0)
  (3): Conv2d(64, 128, kernel_size=(4, 4), stride=(2, 2), padding=(1, 1))
  (4): BatchNorm2d(128, eps=128, momentum=0.1, affine=True, track_running_stats=True)
  (5): AvgPool2d(kernel_size=2, stride=2, padding=0)
  (6): Conv2d(128, 256, kernel_size=(4, 4), stride=(2, 2), padding=(1, 1))
  (7): BatchNorm2d(256, eps=256, momentum=0.1, affine=True, track_running_stats=True)
  (8): AvgPool2d(kernel_size=2, stride=2, padding=0)
  (9): Flatten()
  (10): ODEBlock(
    (odefunc): ODEfunc(
      (fc1): Linear(in_features=900, out_features=10, bias=True)
      (fc2): Linear(in_features=10, out_features=900, bias=True)
    )
  )
  (11): Linear(in_features=900, out_features=43, bias=True)
)
Sequential(
  (0): Conv2d(3, 64, kernel_size=(3, 3), stride=(1, 1))
  (1): BatchNorm2d(64, eps=64, momentum=0.1, affine=True, track_running_stats=True)
  (2): AvgPool2d(kernel_size=2, stride=2, padding=0)
  (3): Conv2d(64, 128, kernel_size=(4, 4), stride=(2, 2), padding=(1, 1))
  (4): BatchNorm2d(128, eps=128, momentum=0.1, affine=True, track_running_stats=True)
  (5): AvgPool2d(kernel_size=2, stride=2, padding=0)
  (6): Conv2d(128, 256, kernel_size=(4, 4), stride=(2, 2), padding=(1, 1))
  (7): BatchNorm2d(256, eps=256, momentum=0.1, affine=True, track_running_stats=True)
  (8): AvgPool2d(kernel_size=2, stride=2, padding=0)
  (9): Flatten()
  (10): ODEBlock(
    (odefunc): ODEfunc(
      (fc1): Linear(in_features=900, out_features=10, bias=True)
      (fc2): Linear(in_features=10, out_features=900, bias=True)
    )
  )
  (11): Linear(in_features=900, out_features=43, bias=True)
)
Sequential(
  (0): Conv2d(3, 64, kernel_size=(3, 3), stride=(1, 1))
  (1): BatchNorm2d(64, eps=64, momentum=0.1, affine=True, track_running_stats=True)
  (2): AvgPool2d(kernel_size=2, stride=2, padding=0)
  (3): Conv2d(64, 128, kernel_size=(4, 4), stride=(2, 2), padding=(1, 1))
  (4): BatchNorm2d(128, eps=128, momentum=0.1, affine=True, track_running_stats=True)
  (5): AvgPool2d(kernel_size=2, stride=2, padding=0)
  (6): Conv2d(128, 256, kernel_size=(4, 4), stride=(2, 2), padding=(1, 1))
  (7): BatchNorm2d(256, eps=256, momentum=0.1, affine=True, track_running_stats=True)
  (8): AvgPool2d(kernel_size=2, stride=2, padding=0)
  (9): Flatten()
  (10): ODEBlock(
    (odefunc): ODEfunc(
      (fc1): Linear(in_features=900, out_features=10, bias=True)
      (fc2): Linear(in_features=10, out_features=900, bias=True)
    )
  )
  (11): Linear(in_features=900, out_features=43, bias=True)
)
Sequential(
  (0): Conv2d(3, 64, kernel_size=(3, 3), stride=(1, 1))
  (1): BatchNorm2d(64, eps=64, momentum=0.1, affine=True, track_running_stats=True)
  (2): AvgPool2d(kernel_size=2, stride=2, padding=0)
  (3): Conv2d(64, 128, kernel_size=(4, 4), stride=(2, 2), padding=(1, 1))
  (4): BatchNorm2d(128, eps=128, momentum=0.1, affine=True, track_running_stats=True)
  (5): AvgPool2d(kernel_size=2, stride=2, padding=0)
  (6): Conv2d(128, 256, kernel_size=(4, 4), stride=(2, 2), padding=(1, 1))
  (7): BatchNorm2d(256, eps=256, momentum=0.1, affine=True, track_running_stats=True)
  (8): AvgPool2d(kernel_size=2, stride=2, padding=0)
  (9): Flatten()
  (10): ODEBlock(
    (odefunc): ODEfunc(
      (fc1): Linear(in_features=900, out_features=10, bias=True)
      (fc2): Linear(in_features=10, out_features=900, bias=True)
    )
  )
  (11): Linear(in_features=900, out_features=43, bias=True)
)
Sequential(
  (0): Conv2d(3, 64, kernel_size=(3, 3), stride=(1, 1))
  (1): BatchNorm2d(64, eps=64, momentum=0.1, affine=True, track_running_stats=True)
  (2): AvgPool2d(kernel_size=2, stride=2, padding=0)
  (3): Conv2d(64, 128, kernel_size=(4, 4), stride=(2, 2), padding=(1, 1))
  (4): BatchNorm2d(128, eps=128, momentum=0.1, affine=True, track_running_stats=True)
  (5): AvgPool2d(kernel_size=2, stride=2, padding=0)
  (6): Conv2d(128, 256, kernel_size=(4, 4), stride=(2, 2), padding=(1, 1))
  (7): BatchNorm2d(256, eps=256, momentum=0.1, affine=True, track_running_stats=True)
  (8): AvgPool2d(kernel_size=2, stride=2, padding=0)
  (9): Flatten()
  (10): ODEBlock(
    (odefunc): ODEfunc(
      (fc1): Linear(in_features=900, out_features=10, bias=True)
      (fc2): Linear(in_features=10, out_features=900, bias=True)
    )
  )
  (11): Linear(in_features=900, out_features=43, bias=True)
)
Number of parameters: 716085
Number of parameters: 716085
Number of parameters: 716085
Number of parameters: 716085
Number of parameters: 716085
Number of parameters: 716085
/home/manzand/Documents/Python/neuralODE_examples/gtsrb/odenet_gtsrb_example_tiny.py
/home/manzand/Documents/Python/neuralODE_examples/gtsrb/odenet_gtsrb_example_tiny.py
/home/manzand/Documents/Python/neuralODE_examples/gtsrb/odenet_gtsrb_example_tiny.py
…
Namespace(adjoint=False, batch_size=128, data_aug=True, debug=False, downsampling_method='conv', gpu=0, lr=0.01, nepochs=100, network='odenet', save='./experiment1', test_batch_size=1000, tol=0.001)
Namespace(adjoint=False, batch_size=128, data_aug=True, debug=False, downsampling_method='conv', gpu=0, lr=0.01, nepochs=100, network='odenet', save='./experiment1', test_batch_size=1000, tol=0.001)
Namespace(adjoint=False, batch_size=128, data_aug=True, debug=False, downsampling_method='conv', gpu=0, lr=0.01, nepochs=100, network='odenet', save='./experiment1', test_batch_size=1000, tol=0.001)
Sequential(
  (0): Conv2d(3, 64, kernel_size=(3, 3), stride=(1, 1))
  (1): BatchNorm2d(64, eps=64, momentum=0.1, affine=True, track_running_stats=True)
  (2): AvgPool2d(kernel_size=2, stride=2, padding=0)
  (3): Conv2d(64, 128, kernel_size=(4, 4), stride=(2, 2), padding=(1, 1))
  (4): BatchNorm2d(128, eps=128, momentum=0.1, affine=True, track_running_stats=True)
  (5): AvgPool2d(kernel_size=2, stride=2, padding=0)
  (6): Conv2d(128, 64, kernel_size=(4, 4), stride=(2, 2), padding=(1, 1))
  (7): BatchNorm2d(64, eps=64, momentum=0.1, affine=True, track_running_stats=True)
  (8): AvgPool2d(kernel_size=2, stride=2, padding=0)
  (9): Flatten()
  (10): ODEBlock(
    (odefunc): ODEfunc(
      (fc1): Linear(in_features=900, out_features=10, bias=True)
      (fc2): Linear(in_features=10, out_features=900, bias=True)
    )
  )
  (11): Linear(in_features=900, out_features=43, bias=True)
)
Sequential(
  (0): Conv2d(3, 64, kernel_size=(3, 3), stride=(1, 1))
  (1): BatchNorm2d(64, eps=64, momentum=0.1, affine=True, track_running_stats=True)
  (2): AvgPool2d(kernel_size=2, stride=2, padding=0)
  (3): Conv2d(64, 128, kernel_size=(4, 4), stride=(2, 2), padding=(1, 1))
  (4): BatchNorm2d(128, eps=128, momentum=0.1, affine=True, track_running_stats=True)
  (5): AvgPool2d(kernel_size=2, stride=2, padding=0)
  (6): Conv2d(128, 64, kernel_size=(4, 4), stride=(2, 2), padding=(1, 1))
  (7): BatchNorm2d(64, eps=64, momentum=0.1, affine=True, track_running_stats=True)
  (8): AvgPool2d(kernel_size=2, stride=2, padding=0)
  (9): Flatten()
  (10): ODEBlock(
    (odefunc): ODEfunc(
      (fc1): Linear(in_features=900, out_features=10, bias=True)
      (fc2): Linear(in_features=10, out_features=900, bias=True)
    )
  )
  (11): Linear(in_features=900, out_features=43, bias=True)
)
Sequential(
  (0): Conv2d(3, 64, kernel_size=(3, 3), stride=(1, 1))
  (1): BatchNorm2d(64, eps=64, momentum=0.1, affine=True, track_running_stats=True)
  (2): AvgPool2d(kernel_size=2, stride=2, padding=0)
  (3): Conv2d(64, 128, kernel_size=(4, 4), stride=(2, 2), padding=(1, 1))
  (4): BatchNorm2d(128, eps=128, momentum=0.1, affine=True, track_running_stats=True)
  (5): AvgPool2d(kernel_size=2, stride=2, padding=0)
  (6): Conv2d(128, 64, kernel_size=(4, 4), stride=(2, 2), padding=(1, 1))
  (7): BatchNorm2d(64, eps=64, momentum=0.1, affine=True, track_running_stats=True)
  (8): AvgPool2d(kernel_size=2, stride=2, padding=0)
  (9): Flatten()
  (10): ODEBlock(
    (odefunc): ODEfunc(
      (fc1): Linear(in_features=900, out_features=10, bias=True)
      (fc2): Linear(in_features=10, out_features=900, bias=True)
    )
  )
  (11): Linear(in_features=900, out_features=43, bias=True)
)
Sequential(
  (0): Conv2d(3, 64, kernel_size=(3, 3), stride=(1, 1))
  (1): BatchNorm2d(64, eps=64, momentum=0.1, affine=True, track_running_stats=True)
  (2): AvgPool2d(kernel_size=2, stride=2, padding=0)
  (3): Conv2d(64, 128, kernel_size=(4, 4), stride=(2, 2), padding=(1, 1))
  (4): BatchNorm2d(128, eps=128, momentum=0.1, affine=True, track_running_stats=True)
  (5): AvgPool2d(kernel_size=2, stride=2, padding=0)
  (6): Conv2d(128, 64, kernel_size=(4, 4), stride=(2, 2), padding=(1, 1))
  (7): BatchNorm2d(64, eps=64, momentum=0.1, affine=True, track_running_stats=True)
  (8): AvgPool2d(kernel_size=2, stride=2, padding=0)
  (9): Flatten()
  (10): ODEBlock(
    (odefunc): ODEfunc(
      (fc1): Linear(in_features=900, out_features=10, bias=True)
      (fc2): Linear(in_features=10, out_features=900, bias=True)
    )
  )
  (11): Linear(in_features=900, out_features=43, bias=True)
)
Sequential(
  (0): Conv2d(3, 64, kernel_size=(3, 3), stride=(1, 1))
  (1): BatchNorm2d(64, eps=64, momentum=0.1, affine=True, track_running_stats=True)
  (2): AvgPool2d(kernel_size=2, stride=2, padding=0)
  (3): Conv2d(64, 128, kernel_size=(4, 4), stride=(2, 2), padding=(1, 1))
  (4): BatchNorm2d(128, eps=128, momentum=0.1, affine=True, track_running_stats=True)
  (5): AvgPool2d(kernel_size=2, stride=2, padding=0)
  (6): Conv2d(128, 64, kernel_size=(4, 4), stride=(2, 2), padding=(1, 1))
  (7): BatchNorm2d(64, eps=64, momentum=0.1, affine=True, track_running_stats=True)
  (8): AvgPool2d(kernel_size=2, stride=2, padding=0)
  (9): Flatten()
  (10): ODEBlock(
    (odefunc): ODEfunc(
      (fc1): Linear(in_features=900, out_features=10, bias=True)
      (fc2): Linear(in_features=10, out_features=900, bias=True)
    )
  )
  (11): Linear(in_features=900, out_features=43, bias=True)
)
Sequential(
  (0): Conv2d(3, 64, kernel_size=(3, 3), stride=(1, 1))
  (1): BatchNorm2d(64, eps=64, momentum=0.1, affine=True, track_running_stats=True)
  (2): AvgPool2d(kernel_size=2, stride=2, padding=0)
  (3): Conv2d(64, 128, kernel_size=(4, 4), stride=(2, 2), padding=(1, 1))
  (4): BatchNorm2d(128, eps=128, momentum=0.1, affine=True, track_running_stats=True)
  (5): AvgPool2d(kernel_size=2, stride=2, padding=0)
  (6): Conv2d(128, 64, kernel_size=(4, 4), stride=(2, 2), padding=(1, 1))
  (7): BatchNorm2d(64, eps=64, momentum=0.1, affine=True, track_running_stats=True)
  (8): AvgPool2d(kernel_size=2, stride=2, padding=0)
  (9): Flatten()
  (10): ODEBlock(
    (odefunc): ODEfunc(
      (fc1): Linear(in_features=900, out_features=10, bias=True)
      (fc2): Linear(in_features=10, out_features=900, bias=True)
    )
  )
  (11): Linear(in_features=900, out_features=43, bias=True)
)
Sequential(
  (0): Conv2d(3, 64, kernel_size=(3, 3), stride=(1, 1))
  (1): BatchNorm2d(64, eps=64, momentum=0.1, affine=True, track_running_stats=True)
  (2): AvgPool2d(kernel_size=2, stride=2, padding=0)
  (3): Conv2d(64, 128, kernel_size=(4, 4), stride=(2, 2), padding=(1, 1))
  (4): BatchNorm2d(128, eps=128, momentum=0.1, affine=True, track_running_stats=True)
  (5): AvgPool2d(kernel_size=2, stride=2, padding=0)
  (6): Conv2d(128, 64, kernel_size=(4, 4), stride=(2, 2), padding=(1, 1))
  (7): BatchNorm2d(64, eps=64, momentum=0.1, affine=True, track_running_stats=True)
  (8): AvgPool2d(kernel_size=2, stride=2, padding=0)
  (9): Flatten()
  (10): ODEBlock(
    (odefunc): ODEfunc(
      (fc1): Linear(in_features=900, out_features=10, bias=True)
      (fc2): Linear(in_features=10, out_features=900, bias=True)
    )
  )
  (11): Linear(in_features=900, out_features=43, bias=True)
)
Number of parameters: 322293
Number of parameters: 322293
Number of parameters: 322293
Number of parameters: 322293
Number of parameters: 322293
Number of parameters: 322293
Number of parameters: 322293
/home/manzand/Documents/Python/neuralODE_examples/gtsrb/odenet_gtsrb_example_tiny.py
/home/manzand/Documents/Python/neuralODE_examples/gtsrb/odenet_gtsrb_example_tiny.py
…
Namespace(adjoint=False, batch_size=128, data_aug=True, debug=False, downsampling_method='conv', gpu=0, lr=0.01, nepochs=100, network='odenet', save='./experiment1', test_batch_size=1000, tol=0.001)
Namespace(adjoint=False, batch_size=128, data_aug=True, debug=False, downsampling_method='conv', gpu=0, lr=0.01, nepochs=100, network='odenet', save='./experiment1', test_batch_size=1000, tol=0.001)
Namespace(adjoint=False, batch_size=128, data_aug=True, debug=False, downsampling_method='conv', gpu=0, lr=0.01, nepochs=100, network='odenet', save='./experiment1', test_batch_size=1000, tol=0.001)
Sequential(
  (0): Conv2d(3, 64, kernel_size=(3, 3), stride=(1, 1))
  (1): BatchNorm2d(64, eps=64, momentum=0.1, affine=True, track_running_stats=True)
  (2): AvgPool2d(kernel_size=2, stride=2, padding=0)
  (3): Conv2d(64, 128, kernel_size=(4, 4), stride=(2, 2), padding=(1, 1))
  (4): BatchNorm2d(128, eps=128, momentum=0.1, affine=True, track_running_stats=True)
  (5): AvgPool2d(kernel_size=2, stride=2, padding=0)
  (6): Flatten()
  (7): ODEBlock(
    (odefunc): ODEfunc(
      (fc1): Linear(in_features=900, out_features=10, bias=True)
      (fc2): Linear(in_features=10, out_features=900, bias=True)
    )
  )
  (8): Linear(in_features=900, out_features=43, bias=True)
)
Sequential(
  (0): Conv2d(3, 64, kernel_size=(3, 3), stride=(1, 1))
  (1): BatchNorm2d(64, eps=64, momentum=0.1, affine=True, track_running_stats=True)
  (2): AvgPool2d(kernel_size=2, stride=2, padding=0)
  (3): Conv2d(64, 128, kernel_size=(4, 4), stride=(2, 2), padding=(1, 1))
  (4): BatchNorm2d(128, eps=128, momentum=0.1, affine=True, track_running_stats=True)
  (5): AvgPool2d(kernel_size=2, stride=2, padding=0)
  (6): Flatten()
  (7): ODEBlock(
    (odefunc): ODEfunc(
      (fc1): Linear(in_features=900, out_features=10, bias=True)
      (fc2): Linear(in_features=10, out_features=900, bias=True)
    )
  )
  (8): Linear(in_features=900, out_features=43, bias=True)
)
Sequential(
  (0): Conv2d(3, 64, kernel_size=(3, 3), stride=(1, 1))
  (1): BatchNorm2d(64, eps=64, momentum=0.1, affine=True, track_running_stats=True)
  (2): AvgPool2d(kernel_size=2, stride=2, padding=0)
  (3): Conv2d(64, 128, kernel_size=(4, 4), stride=(2, 2), padding=(1, 1))
  (4): BatchNorm2d(128, eps=128, momentum=0.1, affine=True, track_running_stats=True)
  (5): AvgPool2d(kernel_size=2, stride=2, padding=0)
  (6): Flatten()
  (7): ODEBlock(
    (odefunc): ODEfunc(
      (fc1): Linear(in_features=900, out_features=10, bias=True)
      (fc2): Linear(in_features=10, out_features=900, bias=True)
    )
  )
  (8): Linear(in_features=900, out_features=43, bias=True)
)
Sequential(
  (0): Conv2d(3, 64, kernel_size=(3, 3), stride=(1, 1))
  (1): BatchNorm2d(64, eps=64, momentum=0.1, affine=True, track_running_stats=True)
  (2): AvgPool2d(kernel_size=2, stride=2, padding=0)
  (3): Conv2d(64, 128, kernel_size=(4, 4), stride=(2, 2), padding=(1, 1))
  (4): BatchNorm2d(128, eps=128, momentum=0.1, affine=True, track_running_stats=True)
  (5): AvgPool2d(kernel_size=2, stride=2, padding=0)
  (6): Flatten()
  (7): ODEBlock(
    (odefunc): ODEfunc(
      (fc1): Linear(in_features=900, out_features=10, bias=True)
      (fc2): Linear(in_features=10, out_features=900, bias=True)
    )
  )
  (8): Linear(in_features=900, out_features=43, bias=True)
)
Sequential(
  (0): Conv2d(3, 64, kernel_size=(3, 3), stride=(1, 1))
  (1): BatchNorm2d(64, eps=64, momentum=0.1, affine=True, track_running_stats=True)
  (2): AvgPool2d(kernel_size=2, stride=2, padding=0)
  (3): Conv2d(64, 128, kernel_size=(4, 4), stride=(2, 2), padding=(1, 1))
  (4): BatchNorm2d(128, eps=128, momentum=0.1, affine=True, track_running_stats=True)
  (5): AvgPool2d(kernel_size=2, stride=2, padding=0)
  (6): Flatten()
  (7): ODEBlock(
    (odefunc): ODEfunc(
      (fc1): Linear(in_features=900, out_features=10, bias=True)
      (fc2): Linear(in_features=10, out_features=900, bias=True)
    )
  )
  (8): Linear(in_features=900, out_features=43, bias=True)
)
Sequential(
  (0): Conv2d(3, 64, kernel_size=(3, 3), stride=(1, 1))
  (1): BatchNorm2d(64, eps=64, momentum=0.1, affine=True, track_running_stats=True)
  (2): AvgPool2d(kernel_size=2, stride=2, padding=0)
  (3): Conv2d(64, 128, kernel_size=(4, 4), stride=(2, 2), padding=(1, 1))
  (4): BatchNorm2d(128, eps=128, momentum=0.1, affine=True, track_running_stats=True)
  (5): AvgPool2d(kernel_size=2, stride=2, padding=0)
  (6): Flatten()
  (7): ODEBlock(
    (odefunc): ODEfunc(
      (fc1): Linear(in_features=900, out_features=10, bias=True)
      (fc2): Linear(in_features=10, out_features=900, bias=True)
    )
  )
  (8): Linear(in_features=900, out_features=43, bias=True)
)
Sequential(
  (0): Conv2d(3, 64, kernel_size=(3, 3), stride=(1, 1))
  (1): BatchNorm2d(64, eps=64, momentum=0.1, affine=True, track_running_stats=True)
  (2): AvgPool2d(kernel_size=2, stride=2, padding=0)
  (3): Conv2d(64, 128, kernel_size=(4, 4), stride=(2, 2), padding=(1, 1))
  (4): BatchNorm2d(128, eps=128, momentum=0.1, affine=True, track_running_stats=True)
  (5): AvgPool2d(kernel_size=2, stride=2, padding=0)
  (6): Flatten()
  (7): ODEBlock(
    (odefunc): ODEfunc(
      (fc1): Linear(in_features=900, out_features=10, bias=True)
      (fc2): Linear(in_features=10, out_features=900, bias=True)
    )
  )
  (8): Linear(in_features=900, out_features=43, bias=True)
)
Sequential(
  (0): Conv2d(3, 64, kernel_size=(3, 3), stride=(1, 1))
  (1): BatchNorm2d(64, eps=64, momentum=0.1, affine=True, track_running_stats=True)
  (2): AvgPool2d(kernel_size=2, stride=2, padding=0)
  (3): Conv2d(64, 128, kernel_size=(4, 4), stride=(2, 2), padding=(1, 1))
  (4): BatchNorm2d(128, eps=128, momentum=0.1, affine=True, track_running_stats=True)
  (5): AvgPool2d(kernel_size=2, stride=2, padding=0)
  (6): Flatten()
  (7): ODEBlock(
    (odefunc): ODEfunc(
      (fc1): Linear(in_features=900, out_features=10, bias=True)
      (fc2): Linear(in_features=10, out_features=900, bias=True)
    )
  )
  (8): Linear(in_features=900, out_features=43, bias=True)
)
Number of parameters: 191029
Number of parameters: 191029
Number of parameters: 191029
Number of parameters: 191029
Number of parameters: 191029
Number of parameters: 191029
Number of parameters: 191029
Number of parameters: 191029
/home/manzand/Documents/Python/neuralODE_examples/gtsrb/odenet_gtsrb_example_tiny.py
/home/manzand/Documents/Python/neuralODE_examples/gtsrb/odenet_gtsrb_example_tiny.py
…
Namespace(adjoint=False, batch_size=128, data_aug=True, debug=False, downsampling_method='conv', gpu=0, lr=0.01, nepochs=100, network='odenet', save='./experiment1', test_batch_size=1000, tol=0.001)
Namespace(adjoint=False, batch_size=128, data_aug=True, debug=False, downsampling_method='conv', gpu=0, lr=0.01, nepochs=100, network='odenet', save='./experiment1', test_batch_size=1000, tol=0.001)
Namespace(adjoint=False, batch_size=128, data_aug=True, debug=False, downsampling_method='conv', gpu=0, lr=0.01, nepochs=100, network='odenet', save='./experiment1', test_batch_size=1000, tol=0.001)
Sequential(
  (0): Conv2d(3, 64, kernel_size=(3, 3), stride=(1, 1))
  (1): BatchNorm2d(64, eps=64, momentum=0.1, affine=True, track_running_stats=True)
  (2): AvgPool2d(kernel_size=2, stride=2, padding=0)
  (3): Conv2d(64, 128, kernel_size=(4, 4), stride=(2, 2), padding=(1, 1))
  (4): BatchNorm2d(128, eps=128, momentum=0.1, affine=True, track_running_stats=True)
  (5): AvgPool2d(kernel_size=2, stride=2, padding=0)
  (6): Conv2d(128, 256, kernel_size=(4, 4), stride=(2, 2), padding=(1, 1))
  (7): BatchNorm2d(256, eps=256, momentum=0.1, affine=True, track_running_stats=True)
  (8): AvgPool2d(kernel_size=2, stride=1, padding=0)
  (9): Flatten()
  (10): ODEBlock(
    (odefunc): ODEfunc(
      (fc1): Linear(in_features=900, out_features=10, bias=True)
      (fc2): Linear(in_features=10, out_features=900, bias=True)
    )
  )
  (11): Linear(in_features=900, out_features=43, bias=True)
)
Sequential(
  (0): Conv2d(3, 64, kernel_size=(3, 3), stride=(1, 1))
  (1): BatchNorm2d(64, eps=64, momentum=0.1, affine=True, track_running_stats=True)
  (2): AvgPool2d(kernel_size=2, stride=2, padding=0)
  (3): Conv2d(64, 128, kernel_size=(4, 4), stride=(2, 2), padding=(1, 1))
  (4): BatchNorm2d(128, eps=128, momentum=0.1, affine=True, track_running_stats=True)
  (5): AvgPool2d(kernel_size=2, stride=2, padding=0)
  (6): Conv2d(128, 256, kernel_size=(4, 4), stride=(2, 2), padding=(1, 1))
  (7): BatchNorm2d(256, eps=256, momentum=0.1, affine=True, track_running_stats=True)
  (8): AvgPool2d(kernel_size=2, stride=1, padding=0)
  (9): Flatten()
  (10): ODEBlock(
    (odefunc): ODEfunc(
      (fc1): Linear(in_features=900, out_features=10, bias=True)
      (fc2): Linear(in_features=10, out_features=900, bias=True)
    )
  )
  (11): Linear(in_features=900, out_features=43, bias=True)
)
Sequential(
  (0): Conv2d(3, 64, kernel_size=(3, 3), stride=(1, 1))
  (1): BatchNorm2d(64, eps=64, momentum=0.1, affine=True, track_running_stats=True)
  (2): AvgPool2d(kernel_size=2, stride=2, padding=0)
  (3): Conv2d(64, 128, kernel_size=(4, 4), stride=(2, 2), padding=(1, 1))
  (4): BatchNorm2d(128, eps=128, momentum=0.1, affine=True, track_running_stats=True)
  (5): AvgPool2d(kernel_size=2, stride=2, padding=0)
  (6): Conv2d(128, 256, kernel_size=(4, 4), stride=(2, 2), padding=(1, 1))
  (7): BatchNorm2d(256, eps=256, momentum=0.1, affine=True, track_running_stats=True)
  (8): AvgPool2d(kernel_size=2, stride=1, padding=0)
  (9): Flatten()
  (10): ODEBlock(
    (odefunc): ODEfunc(
      (fc1): Linear(in_features=900, out_features=10, bias=True)
      (fc2): Linear(in_features=10, out_features=900, bias=True)
    )
  )
  (11): Linear(in_features=900, out_features=43, bias=True)
)
Sequential(
  (0): Conv2d(3, 64, kernel_size=(3, 3), stride=(1, 1))
  (1): BatchNorm2d(64, eps=64, momentum=0.1, affine=True, track_running_stats=True)
  (2): AvgPool2d(kernel_size=2, stride=2, padding=0)
  (3): Conv2d(64, 128, kernel_size=(4, 4), stride=(2, 2), padding=(1, 1))
  (4): BatchNorm2d(128, eps=128, momentum=0.1, affine=True, track_running_stats=True)
  (5): AvgPool2d(kernel_size=2, stride=2, padding=0)
  (6): Conv2d(128, 256, kernel_size=(4, 4), stride=(2, 2), padding=(1, 1))
  (7): BatchNorm2d(256, eps=256, momentum=0.1, affine=True, track_running_stats=True)
  (8): AvgPool2d(kernel_size=2, stride=1, padding=0)
  (9): Flatten()
  (10): ODEBlock(
    (odefunc): ODEfunc(
      (fc1): Linear(in_features=900, out_features=10, bias=True)
      (fc2): Linear(in_features=10, out_features=900, bias=True)
    )
  )
  (11): Linear(in_features=900, out_features=43, bias=True)
)
Sequential(
  (0): Conv2d(3, 64, kernel_size=(3, 3), stride=(1, 1))
  (1): BatchNorm2d(64, eps=64, momentum=0.1, affine=True, track_running_stats=True)
  (2): AvgPool2d(kernel_size=2, stride=2, padding=0)
  (3): Conv2d(64, 128, kernel_size=(4, 4), stride=(2, 2), padding=(1, 1))
  (4): BatchNorm2d(128, eps=128, momentum=0.1, affine=True, track_running_stats=True)
  (5): AvgPool2d(kernel_size=2, stride=2, padding=0)
  (6): Conv2d(128, 256, kernel_size=(4, 4), stride=(2, 2), padding=(1, 1))
  (7): BatchNorm2d(256, eps=256, momentum=0.1, affine=True, track_running_stats=True)
  (8): AvgPool2d(kernel_size=2, stride=1, padding=0)
  (9): Flatten()
  (10): ODEBlock(
    (odefunc): ODEfunc(
      (fc1): Linear(in_features=900, out_features=10, bias=True)
      (fc2): Linear(in_features=10, out_features=900, bias=True)
    )
  )
  (11): Linear(in_features=900, out_features=43, bias=True)
)
Sequential(
  (0): Conv2d(3, 64, kernel_size=(3, 3), stride=(1, 1))
  (1): BatchNorm2d(64, eps=64, momentum=0.1, affine=True, track_running_stats=True)
  (2): AvgPool2d(kernel_size=2, stride=2, padding=0)
  (3): Conv2d(64, 128, kernel_size=(4, 4), stride=(2, 2), padding=(1, 1))
  (4): BatchNorm2d(128, eps=128, momentum=0.1, affine=True, track_running_stats=True)
  (5): AvgPool2d(kernel_size=2, stride=2, padding=0)
  (6): Conv2d(128, 256, kernel_size=(4, 4), stride=(2, 2), padding=(1, 1))
  (7): BatchNorm2d(256, eps=256, momentum=0.1, affine=True, track_running_stats=True)
  (8): AvgPool2d(kernel_size=2, stride=1, padding=0)
  (9): Flatten()
  (10): ODEBlock(
    (odefunc): ODEfunc(
      (fc1): Linear(in_features=900, out_features=10, bias=True)
      (fc2): Linear(in_features=10, out_features=900, bias=True)
    )
  )
  (11): Linear(in_features=900, out_features=43, bias=True)
)
Sequential(
  (0): Conv2d(3, 64, kernel_size=(3, 3), stride=(1, 1))
  (1): BatchNorm2d(64, eps=64, momentum=0.1, affine=True, track_running_stats=True)
  (2): AvgPool2d(kernel_size=2, stride=2, padding=0)
  (3): Conv2d(64, 128, kernel_size=(4, 4), stride=(2, 2), padding=(1, 1))
  (4): BatchNorm2d(128, eps=128, momentum=0.1, affine=True, track_running_stats=True)
  (5): AvgPool2d(kernel_size=2, stride=2, padding=0)
  (6): Conv2d(128, 256, kernel_size=(4, 4), stride=(2, 2), padding=(1, 1))
  (7): BatchNorm2d(256, eps=256, momentum=0.1, affine=True, track_running_stats=True)
  (8): AvgPool2d(kernel_size=2, stride=1, padding=0)
  (9): Flatten()
  (10): ODEBlock(
    (odefunc): ODEfunc(
      (fc1): Linear(in_features=900, out_features=10, bias=True)
      (fc2): Linear(in_features=10, out_features=900, bias=True)
    )
  )
  (11): Linear(in_features=900, out_features=43, bias=True)
)
Sequential(
  (0): Conv2d(3, 64, kernel_size=(3, 3), stride=(1, 1))
  (1): BatchNorm2d(64, eps=64, momentum=0.1, affine=True, track_running_stats=True)
  (2): AvgPool2d(kernel_size=2, stride=2, padding=0)
  (3): Conv2d(64, 128, kernel_size=(4, 4), stride=(2, 2), padding=(1, 1))
  (4): BatchNorm2d(128, eps=128, momentum=0.1, affine=True, track_running_stats=True)
  (5): AvgPool2d(kernel_size=2, stride=2, padding=0)
  (6): Conv2d(128, 256, kernel_size=(4, 4), stride=(2, 2), padding=(1, 1))
  (7): BatchNorm2d(256, eps=256, momentum=0.1, affine=True, track_running_stats=True)
  (8): AvgPool2d(kernel_size=2, stride=1, padding=0)
  (9): Flatten()
  (10): ODEBlock(
    (odefunc): ODEfunc(
      (fc1): Linear(in_features=900, out_features=10, bias=True)
      (fc2): Linear(in_features=10, out_features=900, bias=True)
    )
  )
  (11): Linear(in_features=900, out_features=43, bias=True)
)
Sequential(
  (0): Conv2d(3, 64, kernel_size=(3, 3), stride=(1, 1))
  (1): BatchNorm2d(64, eps=64, momentum=0.1, affine=True, track_running_stats=True)
  (2): AvgPool2d(kernel_size=2, stride=2, padding=0)
  (3): Conv2d(64, 128, kernel_size=(4, 4), stride=(2, 2), padding=(1, 1))
  (4): BatchNorm2d(128, eps=128, momentum=0.1, affine=True, track_running_stats=True)
  (5): AvgPool2d(kernel_size=2, stride=2, padding=0)
  (6): Conv2d(128, 256, kernel_size=(4, 4), stride=(2, 2), padding=(1, 1))
  (7): BatchNorm2d(256, eps=256, momentum=0.1, affine=True, track_running_stats=True)
  (8): AvgPool2d(kernel_size=2, stride=1, padding=0)
  (9): Flatten()
  (10): ODEBlock(
    (odefunc): ODEfunc(
      (fc1): Linear(in_features=900, out_features=10, bias=True)
      (fc2): Linear(in_features=10, out_features=900, bias=True)
    )
  )
  (11): Linear(in_features=900, out_features=43, bias=True)
)
Number of parameters: 716085
Number of parameters: 716085
Number of parameters: 716085
Number of parameters: 716085
Number of parameters: 716085
Number of parameters: 716085
Number of parameters: 716085
Number of parameters: 716085
Number of parameters: 716085
/home/manzand/Documents/Python/neuralODE_examples/gtsrb/odenet_gtsrb_example_tiny.py
/home/manzand/Documents/Python/neuralODE_examples/gtsrb/odenet_gtsrb_example_tiny.py
…
Namespace(adjoint=False, batch_size=128, data_aug=True, debug=False, downsampling_method='conv', gpu=0, lr=0.01, nepochs=100, network='odenet', save='./experiment1', test_batch_size=1000, tol=0.001)
Namespace(adjoint=False, batch_size=128, data_aug=True, debug=False, downsampling_method='conv', gpu=0, lr=0.01, nepochs=100, network='odenet', save='./experiment1', test_batch_size=1000, tol=0.001)
Namespace(adjoint=False, batch_size=128, data_aug=True, debug=False, downsampling_method='conv', gpu=0, lr=0.01, nepochs=100, network='odenet', save='./experiment1', test_batch_size=1000, tol=0.001)
Sequential(
  (0): Conv2d(3, 64, kernel_size=(3, 3), stride=(1, 1))
  (1): BatchNorm2d(64, eps=64, momentum=0.1, affine=True, track_running_stats=True)
  (2): AvgPool2d(kernel_size=2, stride=2, padding=0)
  (3): Conv2d(64, 128, kernel_size=(4, 4), stride=(2, 2), padding=(1, 1))
  (4): BatchNorm2d(128, eps=128, momentum=0.1, affine=True, track_running_stats=True)
  (5): AvgPool2d(kernel_size=2, stride=1, padding=0)
  (6): Conv2d(128, 256, kernel_size=(4, 4), stride=(2, 2), padding=(1, 1))
  (7): BatchNorm2d(256, eps=256, momentum=0.1, affine=True, track_running_stats=True)
  (8): AvgPool2d(kernel_size=2, stride=1, padding=0)
  (9): Flatten()
  (10): ODEBlock(
    (odefunc): ODEfunc(
      (fc1): Linear(in_features=900, out_features=10, bias=True)
      (fc2): Linear(in_features=10, out_features=900, bias=True)
    )
  )
  (11): Linear(in_features=900, out_features=43, bias=True)
)
Sequential(
  (0): Conv2d(3, 64, kernel_size=(3, 3), stride=(1, 1))
  (1): BatchNorm2d(64, eps=64, momentum=0.1, affine=True, track_running_stats=True)
  (2): AvgPool2d(kernel_size=2, stride=2, padding=0)
  (3): Conv2d(64, 128, kernel_size=(4, 4), stride=(2, 2), padding=(1, 1))
  (4): BatchNorm2d(128, eps=128, momentum=0.1, affine=True, track_running_stats=True)
  (5): AvgPool2d(kernel_size=2, stride=1, padding=0)
  (6): Conv2d(128, 256, kernel_size=(4, 4), stride=(2, 2), padding=(1, 1))
  (7): BatchNorm2d(256, eps=256, momentum=0.1, affine=True, track_running_stats=True)
  (8): AvgPool2d(kernel_size=2, stride=1, padding=0)
  (9): Flatten()
  (10): ODEBlock(
    (odefunc): ODEfunc(
      (fc1): Linear(in_features=900, out_features=10, bias=True)
      (fc2): Linear(in_features=10, out_features=900, bias=True)
    )
  )
  (11): Linear(in_features=900, out_features=43, bias=True)
)
Sequential(
  (0): Conv2d(3, 64, kernel_size=(3, 3), stride=(1, 1))
  (1): BatchNorm2d(64, eps=64, momentum=0.1, affine=True, track_running_stats=True)
  (2): AvgPool2d(kernel_size=2, stride=2, padding=0)
  (3): Conv2d(64, 128, kernel_size=(4, 4), stride=(2, 2), padding=(1, 1))
  (4): BatchNorm2d(128, eps=128, momentum=0.1, affine=True, track_running_stats=True)
  (5): AvgPool2d(kernel_size=2, stride=1, padding=0)
  (6): Conv2d(128, 256, kernel_size=(4, 4), stride=(2, 2), padding=(1, 1))
  (7): BatchNorm2d(256, eps=256, momentum=0.1, affine=True, track_running_stats=True)
  (8): AvgPool2d(kernel_size=2, stride=1, padding=0)
  (9): Flatten()
  (10): ODEBlock(
    (odefunc): ODEfunc(
      (fc1): Linear(in_features=900, out_features=10, bias=True)
      (fc2): Linear(in_features=10, out_features=900, bias=True)
    )
  )
  (11): Linear(in_features=900, out_features=43, bias=True)
)
Sequential(
  (0): Conv2d(3, 64, kernel_size=(3, 3), stride=(1, 1))
  (1): BatchNorm2d(64, eps=64, momentum=0.1, affine=True, track_running_stats=True)
  (2): AvgPool2d(kernel_size=2, stride=2, padding=0)
  (3): Conv2d(64, 128, kernel_size=(4, 4), stride=(2, 2), padding=(1, 1))
  (4): BatchNorm2d(128, eps=128, momentum=0.1, affine=True, track_running_stats=True)
  (5): AvgPool2d(kernel_size=2, stride=1, padding=0)
  (6): Conv2d(128, 256, kernel_size=(4, 4), stride=(2, 2), padding=(1, 1))
  (7): BatchNorm2d(256, eps=256, momentum=0.1, affine=True, track_running_stats=True)
  (8): AvgPool2d(kernel_size=2, stride=1, padding=0)
  (9): Flatten()
  (10): ODEBlock(
    (odefunc): ODEfunc(
      (fc1): Linear(in_features=900, out_features=10, bias=True)
      (fc2): Linear(in_features=10, out_features=900, bias=True)
    )
  )
  (11): Linear(in_features=900, out_features=43, bias=True)
)
Sequential(
  (0): Conv2d(3, 64, kernel_size=(3, 3), stride=(1, 1))
  (1): BatchNorm2d(64, eps=64, momentum=0.1, affine=True, track_running_stats=True)
  (2): AvgPool2d(kernel_size=2, stride=2, padding=0)
  (3): Conv2d(64, 128, kernel_size=(4, 4), stride=(2, 2), padding=(1, 1))
  (4): BatchNorm2d(128, eps=128, momentum=0.1, affine=True, track_running_stats=True)
  (5): AvgPool2d(kernel_size=2, stride=1, padding=0)
  (6): Conv2d(128, 256, kernel_size=(4, 4), stride=(2, 2), padding=(1, 1))
  (7): BatchNorm2d(256, eps=256, momentum=0.1, affine=True, track_running_stats=True)
  (8): AvgPool2d(kernel_size=2, stride=1, padding=0)
  (9): Flatten()
  (10): ODEBlock(
    (odefunc): ODEfunc(
      (fc1): Linear(in_features=900, out_features=10, bias=True)
      (fc2): Linear(in_features=10, out_features=900, bias=True)
    )
  )
  (11): Linear(in_features=900, out_features=43, bias=True)
)
Sequential(
  (0): Conv2d(3, 64, kernel_size=(3, 3), stride=(1, 1))
  (1): BatchNorm2d(64, eps=64, momentum=0.1, affine=True, track_running_stats=True)
  (2): AvgPool2d(kernel_size=2, stride=2, padding=0)
  (3): Conv2d(64, 128, kernel_size=(4, 4), stride=(2, 2), padding=(1, 1))
  (4): BatchNorm2d(128, eps=128, momentum=0.1, affine=True, track_running_stats=True)
  (5): AvgPool2d(kernel_size=2, stride=1, padding=0)
  (6): Conv2d(128, 256, kernel_size=(4, 4), stride=(2, 2), padding=(1, 1))
  (7): BatchNorm2d(256, eps=256, momentum=0.1, affine=True, track_running_stats=True)
  (8): AvgPool2d(kernel_size=2, stride=1, padding=0)
  (9): Flatten()
  (10): ODEBlock(
    (odefunc): ODEfunc(
      (fc1): Linear(in_features=900, out_features=10, bias=True)
      (fc2): Linear(in_features=10, out_features=900, bias=True)
    )
  )
  (11): Linear(in_features=900, out_features=43, bias=True)
)
Sequential(
  (0): Conv2d(3, 64, kernel_size=(3, 3), stride=(1, 1))
  (1): BatchNorm2d(64, eps=64, momentum=0.1, affine=True, track_running_stats=True)
  (2): AvgPool2d(kernel_size=2, stride=2, padding=0)
  (3): Conv2d(64, 128, kernel_size=(4, 4), stride=(2, 2), padding=(1, 1))
  (4): BatchNorm2d(128, eps=128, momentum=0.1, affine=True, track_running_stats=True)
  (5): AvgPool2d(kernel_size=2, stride=1, padding=0)
  (6): Conv2d(128, 256, kernel_size=(4, 4), stride=(2, 2), padding=(1, 1))
  (7): BatchNorm2d(256, eps=256, momentum=0.1, affine=True, track_running_stats=True)
  (8): AvgPool2d(kernel_size=2, stride=1, padding=0)
  (9): Flatten()
  (10): ODEBlock(
    (odefunc): ODEfunc(
      (fc1): Linear(in_features=900, out_features=10, bias=True)
      (fc2): Linear(in_features=10, out_features=900, bias=True)
    )
  )
  (11): Linear(in_features=900, out_features=43, bias=True)
)
Sequential(
  (0): Conv2d(3, 64, kernel_size=(3, 3), stride=(1, 1))
  (1): BatchNorm2d(64, eps=64, momentum=0.1, affine=True, track_running_stats=True)
  (2): AvgPool2d(kernel_size=2, stride=2, padding=0)
  (3): Conv2d(64, 128, kernel_size=(4, 4), stride=(2, 2), padding=(1, 1))
  (4): BatchNorm2d(128, eps=128, momentum=0.1, affine=True, track_running_stats=True)
  (5): AvgPool2d(kernel_size=2, stride=1, padding=0)
  (6): Conv2d(128, 256, kernel_size=(4, 4), stride=(2, 2), padding=(1, 1))
  (7): BatchNorm2d(256, eps=256, momentum=0.1, affine=True, track_running_stats=True)
  (8): AvgPool2d(kernel_size=2, stride=1, padding=0)
  (9): Flatten()
  (10): ODEBlock(
    (odefunc): ODEfunc(
      (fc1): Linear(in_features=900, out_features=10, bias=True)
      (fc2): Linear(in_features=10, out_features=900, bias=True)
    )
  )
  (11): Linear(in_features=900, out_features=43, bias=True)
)
Sequential(
  (0): Conv2d(3, 64, kernel_size=(3, 3), stride=(1, 1))
  (1): BatchNorm2d(64, eps=64, momentum=0.1, affine=True, track_running_stats=True)
  (2): AvgPool2d(kernel_size=2, stride=2, padding=0)
  (3): Conv2d(64, 128, kernel_size=(4, 4), stride=(2, 2), padding=(1, 1))
  (4): BatchNorm2d(128, eps=128, momentum=0.1, affine=True, track_running_stats=True)
  (5): AvgPool2d(kernel_size=2, stride=1, padding=0)
  (6): Conv2d(128, 256, kernel_size=(4, 4), stride=(2, 2), padding=(1, 1))
  (7): BatchNorm2d(256, eps=256, momentum=0.1, affine=True, track_running_stats=True)
  (8): AvgPool2d(kernel_size=2, stride=1, padding=0)
  (9): Flatten()
  (10): ODEBlock(
    (odefunc): ODEfunc(
      (fc1): Linear(in_features=900, out_features=10, bias=True)
      (fc2): Linear(in_features=10, out_features=900, bias=True)
    )
  )
  (11): Linear(in_features=900, out_features=43, bias=True)
)
Sequential(
  (0): Conv2d(3, 64, kernel_size=(3, 3), stride=(1, 1))
  (1): BatchNorm2d(64, eps=64, momentum=0.1, affine=True, track_running_stats=True)
  (2): AvgPool2d(kernel_size=2, stride=2, padding=0)
  (3): Conv2d(64, 128, kernel_size=(4, 4), stride=(2, 2), padding=(1, 1))
  (4): BatchNorm2d(128, eps=128, momentum=0.1, affine=True, track_running_stats=True)
  (5): AvgPool2d(kernel_size=2, stride=1, padding=0)
  (6): Conv2d(128, 256, kernel_size=(4, 4), stride=(2, 2), padding=(1, 1))
  (7): BatchNorm2d(256, eps=256, momentum=0.1, affine=True, track_running_stats=True)
  (8): AvgPool2d(kernel_size=2, stride=1, padding=0)
  (9): Flatten()
  (10): ODEBlock(
    (odefunc): ODEfunc(
      (fc1): Linear(in_features=900, out_features=10, bias=True)
      (fc2): Linear(in_features=10, out_features=900, bias=True)
    )
  )
  (11): Linear(in_features=900, out_features=43, bias=True)
)
Number of parameters: 716085
Number of parameters: 716085
Number of parameters: 716085
Number of parameters: 716085
Number of parameters: 716085
Number of parameters: 716085
Number of parameters: 716085
Number of parameters: 716085
Number of parameters: 716085
Number of parameters: 716085
/home/manzand/Documents/Python/neuralODE_examples/gtsrb/odenet_gtsrb_example_tiny.py
…
Namespace(adjoint=False, batch_size=128, data_aug=True, debug=False, downsampling_method='conv', gpu=0, lr=0.01, nepochs=100, network='odenet', save='./experiment1', test_batch_size=1000, tol=0.001)
Namespace(adjoint=False, batch_size=128, data_aug=True, debug=False, downsampling_method='conv', gpu=0, lr=0.01, nepochs=100, network='odenet', save='./experiment1', test_batch_size=1000, tol=0.001)
Namespace(adjoint=False, batch_size=128, data_aug=True, debug=False, downsampling_method='conv', gpu=0, lr=0.01, nepochs=100, network='odenet', save='./experiment1', test_batch_size=1000, tol=0.001)
Sequential(
  (0): Conv2d(3, 64, kernel_size=(3, 3), stride=(1, 1))
  (1): BatchNorm2d(64, eps=64, momentum=0.1, affine=True, track_running_stats=True)
  (2): AvgPool2d(kernel_size=2, stride=2, padding=0)
  (3): Conv2d(64, 128, kernel_size=(4, 4), stride=(2, 2), padding=(1, 1))
  (4): BatchNorm2d(128, eps=128, momentum=0.1, affine=True, track_running_stats=True)
  (5): AvgPool2d(kernel_size=2, stride=1, padding=0)
  (6): Conv2d(128, 256, kernel_size=(4, 4), stride=(2, 2), padding=(1, 1))
  (7): BatchNorm2d(256, eps=256, momentum=0.1, affine=True, track_running_stats=True)
  (8): AvgPool2d(kernel_size=2, stride=1, padding=0)
  (9): Flatten()
  (10): ODEBlock(
    (odefunc): ODEfunc(
      (fc1): Linear(in_features=1024, out_features=10, bias=True)
      (fc2): Linear(in_features=10, out_features=1024, bias=True)
    )
  )
  (11): Linear(in_features=1024, out_features=43, bias=True)
)
Sequential(
  (0): Conv2d(3, 64, kernel_size=(3, 3), stride=(1, 1))
  (1): BatchNorm2d(64, eps=64, momentum=0.1, affine=True, track_running_stats=True)
  (2): AvgPool2d(kernel_size=2, stride=2, padding=0)
  (3): Conv2d(64, 128, kernel_size=(4, 4), stride=(2, 2), padding=(1, 1))
  (4): BatchNorm2d(128, eps=128, momentum=0.1, affine=True, track_running_stats=True)
  (5): AvgPool2d(kernel_size=2, stride=1, padding=0)
  (6): Conv2d(128, 256, kernel_size=(4, 4), stride=(2, 2), padding=(1, 1))
  (7): BatchNorm2d(256, eps=256, momentum=0.1, affine=True, track_running_stats=True)
  (8): AvgPool2d(kernel_size=2, stride=1, padding=0)
  (9): Flatten()
  (10): ODEBlock(
    (odefunc): ODEfunc(
      (fc1): Linear(in_features=1024, out_features=10, bias=True)
      (fc2): Linear(in_features=10, out_features=1024, bias=True)
    )
  )
  (11): Linear(in_features=1024, out_features=43, bias=True)
)
Sequential(
  (0): Conv2d(3, 64, kernel_size=(3, 3), stride=(1, 1))
  (1): BatchNorm2d(64, eps=64, momentum=0.1, affine=True, track_running_stats=True)
  (2): AvgPool2d(kernel_size=2, stride=2, padding=0)
  (3): Conv2d(64, 128, kernel_size=(4, 4), stride=(2, 2), padding=(1, 1))
  (4): BatchNorm2d(128, eps=128, momentum=0.1, affine=True, track_running_stats=True)
  (5): AvgPool2d(kernel_size=2, stride=1, padding=0)
  (6): Conv2d(128, 256, kernel_size=(4, 4), stride=(2, 2), padding=(1, 1))
  (7): BatchNorm2d(256, eps=256, momentum=0.1, affine=True, track_running_stats=True)
  (8): AvgPool2d(kernel_size=2, stride=1, padding=0)
  (9): Flatten()
  (10): ODEBlock(
    (odefunc): ODEfunc(
      (fc1): Linear(in_features=1024, out_features=10, bias=True)
      (fc2): Linear(in_features=10, out_features=1024, bias=True)
    )
  )
  (11): Linear(in_features=1024, out_features=43, bias=True)
)
Sequential(
  (0): Conv2d(3, 64, kernel_size=(3, 3), stride=(1, 1))
  (1): BatchNorm2d(64, eps=64, momentum=0.1, affine=True, track_running_stats=True)
  (2): AvgPool2d(kernel_size=2, stride=2, padding=0)
  (3): Conv2d(64, 128, kernel_size=(4, 4), stride=(2, 2), padding=(1, 1))
  (4): BatchNorm2d(128, eps=128, momentum=0.1, affine=True, track_running_stats=True)
  (5): AvgPool2d(kernel_size=2, stride=1, padding=0)
  (6): Conv2d(128, 256, kernel_size=(4, 4), stride=(2, 2), padding=(1, 1))
  (7): BatchNorm2d(256, eps=256, momentum=0.1, affine=True, track_running_stats=True)
  (8): AvgPool2d(kernel_size=2, stride=1, padding=0)
  (9): Flatten()
  (10): ODEBlock(
    (odefunc): ODEfunc(
      (fc1): Linear(in_features=1024, out_features=10, bias=True)
      (fc2): Linear(in_features=10, out_features=1024, bias=True)
    )
  )
  (11): Linear(in_features=1024, out_features=43, bias=True)
)
Sequential(
  (0): Conv2d(3, 64, kernel_size=(3, 3), stride=(1, 1))
  (1): BatchNorm2d(64, eps=64, momentum=0.1, affine=True, track_running_stats=True)
  (2): AvgPool2d(kernel_size=2, stride=2, padding=0)
  (3): Conv2d(64, 128, kernel_size=(4, 4), stride=(2, 2), padding=(1, 1))
  (4): BatchNorm2d(128, eps=128, momentum=0.1, affine=True, track_running_stats=True)
  (5): AvgPool2d(kernel_size=2, stride=1, padding=0)
  (6): Conv2d(128, 256, kernel_size=(4, 4), stride=(2, 2), padding=(1, 1))
  (7): BatchNorm2d(256, eps=256, momentum=0.1, affine=True, track_running_stats=True)
  (8): AvgPool2d(kernel_size=2, stride=1, padding=0)
  (9): Flatten()
  (10): ODEBlock(
    (odefunc): ODEfunc(
      (fc1): Linear(in_features=1024, out_features=10, bias=True)
      (fc2): Linear(in_features=10, out_features=1024, bias=True)
    )
  )
  (11): Linear(in_features=1024, out_features=43, bias=True)
)
Sequential(
  (0): Conv2d(3, 64, kernel_size=(3, 3), stride=(1, 1))
  (1): BatchNorm2d(64, eps=64, momentum=0.1, affine=True, track_running_stats=True)
  (2): AvgPool2d(kernel_size=2, stride=2, padding=0)
  (3): Conv2d(64, 128, kernel_size=(4, 4), stride=(2, 2), padding=(1, 1))
  (4): BatchNorm2d(128, eps=128, momentum=0.1, affine=True, track_running_stats=True)
  (5): AvgPool2d(kernel_size=2, stride=1, padding=0)
  (6): Conv2d(128, 256, kernel_size=(4, 4), stride=(2, 2), padding=(1, 1))
  (7): BatchNorm2d(256, eps=256, momentum=0.1, affine=True, track_running_stats=True)
  (8): AvgPool2d(kernel_size=2, stride=1, padding=0)
  (9): Flatten()
  (10): ODEBlock(
    (odefunc): ODEfunc(
      (fc1): Linear(in_features=1024, out_features=10, bias=True)
      (fc2): Linear(in_features=10, out_features=1024, bias=True)
    )
  )
  (11): Linear(in_features=1024, out_features=43, bias=True)
)
Sequential(
  (0): Conv2d(3, 64, kernel_size=(3, 3), stride=(1, 1))
  (1): BatchNorm2d(64, eps=64, momentum=0.1, affine=True, track_running_stats=True)
  (2): AvgPool2d(kernel_size=2, stride=2, padding=0)
  (3): Conv2d(64, 128, kernel_size=(4, 4), stride=(2, 2), padding=(1, 1))
  (4): BatchNorm2d(128, eps=128, momentum=0.1, affine=True, track_running_stats=True)
  (5): AvgPool2d(kernel_size=2, stride=1, padding=0)
  (6): Conv2d(128, 256, kernel_size=(4, 4), stride=(2, 2), padding=(1, 1))
  (7): BatchNorm2d(256, eps=256, momentum=0.1, affine=True, track_running_stats=True)
  (8): AvgPool2d(kernel_size=2, stride=1, padding=0)
  (9): Flatten()
  (10): ODEBlock(
    (odefunc): ODEfunc(
      (fc1): Linear(in_features=1024, out_features=10, bias=True)
      (fc2): Linear(in_features=10, out_features=1024, bias=True)
    )
  )
  (11): Linear(in_features=1024, out_features=43, bias=True)
)
Sequential(
  (0): Conv2d(3, 64, kernel_size=(3, 3), stride=(1, 1))
  (1): BatchNorm2d(64, eps=64, momentum=0.1, affine=True, track_running_stats=True)
  (2): AvgPool2d(kernel_size=2, stride=2, padding=0)
  (3): Conv2d(64, 128, kernel_size=(4, 4), stride=(2, 2), padding=(1, 1))
  (4): BatchNorm2d(128, eps=128, momentum=0.1, affine=True, track_running_stats=True)
  (5): AvgPool2d(kernel_size=2, stride=1, padding=0)
  (6): Conv2d(128, 256, kernel_size=(4, 4), stride=(2, 2), padding=(1, 1))
  (7): BatchNorm2d(256, eps=256, momentum=0.1, affine=True, track_running_stats=True)
  (8): AvgPool2d(kernel_size=2, stride=1, padding=0)
  (9): Flatten()
  (10): ODEBlock(
    (odefunc): ODEfunc(
      (fc1): Linear(in_features=1024, out_features=10, bias=True)
      (fc2): Linear(in_features=10, out_features=1024, bias=True)
    )
  )
  (11): Linear(in_features=1024, out_features=43, bias=True)
)
Sequential(
  (0): Conv2d(3, 64, kernel_size=(3, 3), stride=(1, 1))
  (1): BatchNorm2d(64, eps=64, momentum=0.1, affine=True, track_running_stats=True)
  (2): AvgPool2d(kernel_size=2, stride=2, padding=0)
  (3): Conv2d(64, 128, kernel_size=(4, 4), stride=(2, 2), padding=(1, 1))
  (4): BatchNorm2d(128, eps=128, momentum=0.1, affine=True, track_running_stats=True)
  (5): AvgPool2d(kernel_size=2, stride=1, padding=0)
  (6): Conv2d(128, 256, kernel_size=(4, 4), stride=(2, 2), padding=(1, 1))
  (7): BatchNorm2d(256, eps=256, momentum=0.1, affine=True, track_running_stats=True)
  (8): AvgPool2d(kernel_size=2, stride=1, padding=0)
  (9): Flatten()
  (10): ODEBlock(
    (odefunc): ODEfunc(
      (fc1): Linear(in_features=1024, out_features=10, bias=True)
      (fc2): Linear(in_features=10, out_features=1024, bias=True)
    )
  )
  (11): Linear(in_features=1024, out_features=43, bias=True)
)
Sequential(
  (0): Conv2d(3, 64, kernel_size=(3, 3), stride=(1, 1))
  (1): BatchNorm2d(64, eps=64, momentum=0.1, affine=True, track_running_stats=True)
  (2): AvgPool2d(kernel_size=2, stride=2, padding=0)
  (3): Conv2d(64, 128, kernel_size=(4, 4), stride=(2, 2), padding=(1, 1))
  (4): BatchNorm2d(128, eps=128, momentum=0.1, affine=True, track_running_stats=True)
  (5): AvgPool2d(kernel_size=2, stride=1, padding=0)
  (6): Conv2d(128, 256, kernel_size=(4, 4), stride=(2, 2), padding=(1, 1))
  (7): BatchNorm2d(256, eps=256, momentum=0.1, affine=True, track_running_stats=True)
  (8): AvgPool2d(kernel_size=2, stride=1, padding=0)
  (9): Flatten()
  (10): ODEBlock(
    (odefunc): ODEfunc(
      (fc1): Linear(in_features=1024, out_features=10, bias=True)
      (fc2): Linear(in_features=10, out_features=1024, bias=True)
    )
  )
  (11): Linear(in_features=1024, out_features=43, bias=True)
)
Sequential(
  (0): Conv2d(3, 64, kernel_size=(3, 3), stride=(1, 1))
  (1): BatchNorm2d(64, eps=64, momentum=0.1, affine=True, track_running_stats=True)
  (2): AvgPool2d(kernel_size=2, stride=2, padding=0)
  (3): Conv2d(64, 128, kernel_size=(4, 4), stride=(2, 2), padding=(1, 1))
  (4): BatchNorm2d(128, eps=128, momentum=0.1, affine=True, track_running_stats=True)
  (5): AvgPool2d(kernel_size=2, stride=1, padding=0)
  (6): Conv2d(128, 256, kernel_size=(4, 4), stride=(2, 2), padding=(1, 1))
  (7): BatchNorm2d(256, eps=256, momentum=0.1, affine=True, track_running_stats=True)
  (8): AvgPool2d(kernel_size=2, stride=1, padding=0)
  (9): Flatten()
  (10): ODEBlock(
    (odefunc): ODEfunc(
      (fc1): Linear(in_features=1024, out_features=10, bias=True)
      (fc2): Linear(in_features=10, out_features=1024, bias=True)
    )
  )
  (11): Linear(in_features=1024, out_features=43, bias=True)
)
Number of parameters: 724021
Number of parameters: 724021
Number of parameters: 724021
Number of parameters: 724021
Number of parameters: 724021
Number of parameters: 724021
Number of parameters: 724021
Number of parameters: 724021
Number of parameters: 724021
Number of parameters: 724021
Number of parameters: 724021
Epoch 0013 | Time 1.143 (0.843) | NFE-F 70.8 | NFE-B 0.0 | Train Acc 0.3528 | Test Acc 0.3397
…
                    )
                )
    names = []
    params = []
    for name,param in model.named_parameters():
        names.append(name)
        params.append(param.detach().numpy())
    nn1 = dict({'Wb':params,'names':names})
    for name,param in model.named_buffers():
        names.append(name)
        params.append(param.detach().numpy())
    savemat("odecnn_gtsrb_tiny.mat",nn1)
Namespace(adjoint=False, batch_size=128, data_aug=True, debug=False, downsampling_method='conv', gpu=0, lr=0.01, nepochs=100, network='odenet', save='./experiment1', test_batch_size=1000, tol=0.001)
Sequential(
  (0): Conv2d(3, 64, kernel_size=(3, 3), stride=(1, 1))
  (1): BatchNorm2d(64, eps=64, momentum=0.1, affine=True, track_running_stats=True)
  (2): AvgPool2d(kernel_size=2, stride=2, padding=0)
  (3): Conv2d(64, 128, kernel_size=(4, 4), stride=(2, 2), padding=(1, 1))
  (4): BatchNorm2d(128, eps=128, momentum=0.1, affine=True, track_running_stats=True)
  (5): AvgPool2d(kernel_size=2, stride=1, padding=0)
  (6): Conv2d(128, 256, kernel_size=(4, 4), stride=(2, 2), padding=(1, 1))
  (7): BatchNorm2d(256, eps=256, momentum=0.1, affine=True, track_running_stats=True)
  (8): AvgPool2d(kernel_size=2, stride=1, padding=0)
  (9): Flatten()
  (10): ODEBlock(
    (odefunc): ODEfunc(
      (fc1): Linear(in_features=1024, out_features=10, bias=True)
      (fc2): Linear(in_features=10, out_features=1024, bias=True)
    )
  )
  (11): Linear(in_features=1024, out_features=43, bias=True)
)
Number of parameters: 724021
Epoch 0000 | Time 0.756 (0.756) | NFE-F 32.0 | NFE-B 0.0 | Train Acc 0.0474 | Test Acc 0.0499
Epoch 0001 | Time 0.733 (0.410) | NFE-F 26.6 | NFE-B 0.0 | Train Acc 0.0000 | Test Acc 0.0000
Epoch 0014 | Time 2.362 (1.349) | NFE-F 71.2 | NFE-B 0.0 | Train Acc 0.3560 | Test Acc 0.3399
Epoch 0002 | Time 0.659 (0.372) | NFE-F 24.0 | NFE-B 0.0 | Train Acc 0.0566 | Test Acc 0.0570
…
    nn1 = dict({'Wb':params,'names':names})
    for name,param in model.named_buffers():
        names.append(name)
        params.append(param.detach().numpy())
    savemat("odecnn_gtsrb_tiny.mat",nn1)
Namespace(adjoint=False, batch_size=128, data_aug=True, debug=False, downsampling_method='conv', gpu=0, lr=0.01, nepochs=100, network='odenet', save='./experiment1', test_batch_size=1000, tol=0.001)
Namespace(adjoint=False, batch_size=128, data_aug=True, debug=False, downsampling_method='conv', gpu=0, lr=0.01, nepochs=100, network='odenet', save='./experiment1', test_batch_size=1000, tol=0.001)
Sequential(
  (0): Conv2d(3, 64, kernel_size=(3, 3), stride=(1, 1))
  (1): BatchNorm2d(64, eps=64, momentum=0.1, affine=True, track_running_stats=True)
  (2): ReLU(inplace=True)
  (3): AvgPool2d(kernel_size=2, stride=2, padding=0)
  (4): Conv2d(64, 128, kernel_size=(4, 4), stride=(2, 2), padding=(1, 1))
  (5): BatchNorm2d(128, eps=128, momentum=0.1, affine=True, track_running_stats=True)
  (6): ReLU(inplace=True)
  (7): AvgPool2d(kernel_size=2, stride=1, padding=0)
  (8): Conv2d(128, 256, kernel_size=(4, 4), stride=(2, 2), padding=(1, 1))
  (9): BatchNorm2d(256, eps=256, momentum=0.1, affine=True, track_running_stats=True)
  (10): ReLU(inplace=True)
  (11): AvgPool2d(kernel_size=2, stride=1, padding=0)
  (12): Flatten()
  (13): ODEBlock(
    (odefunc): ODEfunc(
      (fc1): Linear(in_features=1024, out_features=10, bias=True)
      (fc2): Linear(in_features=10, out_features=1024, bias=True)
    )
  )
  (14): Linear(in_features=1024, out_features=43, bias=True)
)
Sequential(
  (0): Conv2d(3, 64, kernel_size=(3, 3), stride=(1, 1))
  (1): BatchNorm2d(64, eps=64, momentum=0.1, affine=True, track_running_stats=True)
  (2): ReLU(inplace=True)
  (3): AvgPool2d(kernel_size=2, stride=2, padding=0)
  (4): Conv2d(64, 128, kernel_size=(4, 4), stride=(2, 2), padding=(1, 1))
  (5): BatchNorm2d(128, eps=128, momentum=0.1, affine=True, track_running_stats=True)
  (6): ReLU(inplace=True)
  (7): AvgPool2d(kernel_size=2, stride=1, padding=0)
  (8): Conv2d(128, 256, kernel_size=(4, 4), stride=(2, 2), padding=(1, 1))
  (9): BatchNorm2d(256, eps=256, momentum=0.1, affine=True, track_running_stats=True)
  (10): ReLU(inplace=True)
  (11): AvgPool2d(kernel_size=2, stride=1, padding=0)
  (12): Flatten()
  (13): ODEBlock(
    (odefunc): ODEfunc(
      (fc1): Linear(in_features=1024, out_features=10, bias=True)
      (fc2): Linear(in_features=10, out_features=1024, bias=True)
    )
  )
  (14): Linear(in_features=1024, out_features=43, bias=True)
)
Number of parameters: 724021
Number of parameters: 724021
Epoch 0000 | Time 0.439 (0.439) | NFE-F 32.0 | NFE-B 0.0 | Train Acc 0.0000 | Test Acc 0.0000
Epoch 0000 | Time 0.439 (0.439) | NFE-F 32.0 | NFE-B 0.0 | Train Acc 0.0000 | Test Acc 0.0000
Epoch 0001 | Time 0.425 (0.222) | NFE-F 26.6 | NFE-B 0.0 | Train Acc 0.0000 | Test Acc 0.0000
Epoch 0001 | Time 0.425 (0.222) | NFE-F 26.6 | NFE-B 0.0 | Train Acc 0.0000 | Test Acc 0.0000
…
                    )
                )
    names = []
    params = []
    for name,param in model.named_parameters():
        names.append(name)
        params.append(param.detach().numpy())
    nn1 = dict({'Wb':params,'names':names})
    for name,param in model.named_buffers():
        names.append(name)
        params.append(param.detach().numpy())
    savemat("odecnn_cifar_small.mat",nn1)
Namespace(adjoint=False, batch_size=128, data_aug=False, debug=False, downsampling_method='conv', gpu=0, lr=0.01, nepochs=200, network='odenet', save='../logs/cifarsmall', test_batch_size=1000, tol=0.001)
Sequential(
  (0): Conv2d(3, 64, kernel_size=(3, 3), stride=(1, 1))
  (1): BatchNorm2d(64, eps=64, momentum=0.1, affine=True, track_running_stats=True)
  (2): ReLU(inplace=True)
  (3): AvgPool2d(kernel_size=2, stride=2, padding=0)
  (4): Conv2d(64, 128, kernel_size=(4, 4), stride=(2, 2), padding=(1, 1))
  (5): BatchNorm2d(64, eps=128, momentum=0.1, affine=True, track_running_stats=True)
  (6): ReLU(inplace=True)
  (7): AvgPool2d(kernel_size=2, stride=1, padding=0)
  (8): Conv2d(128, 256, kernel_size=(4, 4), stride=(2, 2), padding=(1, 1))
  (9): BatchNorm2d(64, eps=256, momentum=0.1, affine=True, track_running_stats=True)
  (10): ReLU(inplace=True)
  (11): Conv2d(256, 256, kernel_size=(4, 4), stride=(2, 2), padding=(1, 1))
  (12): BatchNorm2d(64, eps=256, momentum=0.1, affine=True, track_running_stats=True)
  (13): ReLU(inplace=True)
  (14): AvgPool2d(kernel_size=2, stride=1, padding=0)
  (15): Conv2d(256, 512, kernel_size=(4, 4), stride=(2, 2), padding=(1, 1))
  (16): BatchNorm2d(64, eps=512, momentum=0.1, affine=True, track_running_stats=True)
  (17): ReLU(inplace=True)
  (18): Conv2d(512, 512, kernel_size=(4, 4), stride=(2, 2), padding=(1, 1))
  (19): BatchNorm2d(64, eps=512, momentum=0.1, affine=True, track_running_stats=True)
  (20): ReLU(inplace=True)
  (21): AvgPool2d(kernel_size=2, stride=1, padding=0)
  (22): Flatten()
  (23): ODEBlock(
    (odefunc): ODEfunc(
      (fc1): Linear(in_features=784, out_features=16, bias=True)
      (fc2): Linear(in_features=16, out_features=784, bias=True)
    )
  )
  (24): Linear(in_features=784, out_features=10, bias=True)
)
Number of parameters: 8033354
/home/manzand/Documents/Python/neuralODE_examples/cifar/odenet_cifar_example_small.py
#!/usr/bin/env python3
# -*- coding: utf-8 -*-
"""
Created on Thu Feb  4 09:04:31 2021

@author: manzand
"""

#!/usr/bin/env python3
# -*- coding: utf-8 -*-
"""
Created on Tue Jan 19 15:10:31 2021

@author: manzand
"""

import os
import argparse
…
                    )
                )
    names = []
    params = []
    for name,param in model.named_parameters():
        names.append(name)
        params.append(param.detach().numpy())
    nn1 = dict({'Wb':params,'names':names})
    for name,param in model.named_buffers():
        names.append(name)
        params.append(param.detach().numpy())
    savemat("odecnn_cifar_small.mat",nn1)
Namespace(adjoint=False, batch_size=128, data_aug=False, debug=False, downsampling_method='conv', gpu=0, lr=0.01, nepochs=200, network='odenet', save='../logs/cifarsmall', test_batch_size=1000, tol=0.001)
Sequential(
  (0): Conv2d(3, 64, kernel_size=(3, 3), stride=(1, 1))
  (1): BatchNorm2d(64, eps=64, momentum=0.1, affine=True, track_running_stats=True)
  (2): ReLU(inplace=True)
  (3): AvgPool2d(kernel_size=2, stride=2, padding=0)
  (4): Conv2d(64, 128, kernel_size=(4, 4), stride=(2, 2), padding=(1, 1))
  (5): BatchNorm2d(128, eps=128, momentum=0.1, affine=True, track_running_stats=True)
  (6): ReLU(inplace=True)
  (7): AvgPool2d(kernel_size=2, stride=1, padding=0)
  (8): Conv2d(128, 256, kernel_size=(4, 4), stride=(2, 2), padding=(1, 1))
  (9): BatchNorm2d(256, eps=256, momentum=0.1, affine=True, track_running_stats=True)
  (10): ReLU(inplace=True)
  (11): Conv2d(256, 256, kernel_size=(4, 4), stride=(2, 2), padding=(1, 1))
  (12): BatchNorm2d(256, eps=256, momentum=0.1, affine=True, track_running_stats=True)
  (13): ReLU(inplace=True)
  (14): AvgPool2d(kernel_size=2, stride=1, padding=0)
  (15): Conv2d(256, 512, kernel_size=(4, 4), stride=(2, 2), padding=(1, 1))
  (16): BatchNorm2d(512, eps=512, momentum=0.1, affine=True, track_running_stats=True)
  (17): ReLU(inplace=True)
  (18): Conv2d(512, 512, kernel_size=(4, 4), stride=(2, 2), padding=(1, 1))
  (19): BatchNorm2d(512, eps=512, momentum=0.1, affine=True, track_running_stats=True)
  (20): ReLU(inplace=True)
  (21): AvgPool2d(kernel_size=2, stride=1, padding=0)
  (22): Flatten()
  (23): ODEBlock(
    (odefunc): ODEfunc(
      (fc1): Linear(in_features=784, out_features=16, bias=True)
      (fc2): Linear(in_features=16, out_features=784, bias=True)
    )
  )
  (24): Linear(in_features=784, out_features=10, bias=True)
)
Number of parameters: 8036042
/home/manzand/Documents/Python/neuralODE_examples/cifar/odenet_cifar_example_small.py
#!/usr/bin/env python3
# -*- coding: utf-8 -*-
"""
Created on Thu Feb  4 09:04:31 2021

@author: manzand
"""

#!/usr/bin/env python3
# -*- coding: utf-8 -*-
"""
Created on Tue Jan 19 15:10:31 2021

@author: manzand
"""

import os
import argparse
…
                    )
                )
    names = []
    params = []
    for name,param in model.named_parameters():
        names.append(name)
        params.append(param.detach().numpy())
    nn1 = dict({'Wb':params,'names':names})
    for name,param in model.named_buffers():
        names.append(name)
        params.append(param.detach().numpy())
    savemat("odecnn_cifar_small.mat",nn1)
Namespace(adjoint=False, batch_size=128, data_aug=False, debug=False, downsampling_method='conv', gpu=0, lr=0.01, nepochs=200, network='odenet', save='../logs/cifarsmall', test_batch_size=1000, tol=0.001)
Sequential(
  (0): Conv2d(3, 64, kernel_size=(3, 3), stride=(1, 1))
  (1): BatchNorm2d(64, eps=64, momentum=0.1, affine=True, track_running_stats=True)
  (2): ReLU(inplace=True)
  (3): AvgPool2d(kernel_size=2, stride=1, padding=0)
  (4): Conv2d(64, 128, kernel_size=(4, 4), stride=(2, 2), padding=(1, 1))
  (5): BatchNorm2d(128, eps=128, momentum=0.1, affine=True, track_running_stats=True)
  (6): ReLU(inplace=True)
  (7): AvgPool2d(kernel_size=2, stride=1, padding=0)
  (8): Conv2d(128, 256, kernel_size=(4, 4), stride=(2, 2), padding=(1, 1))
  (9): BatchNorm2d(256, eps=256, momentum=0.1, affine=True, track_running_stats=True)
  (10): ReLU(inplace=True)
  (11): Conv2d(256, 256, kernel_size=(4, 4), stride=(2, 2), padding=(1, 1))
  (12): BatchNorm2d(256, eps=256, momentum=0.1, affine=True, track_running_stats=True)
  (13): ReLU(inplace=True)
  (14): AvgPool2d(kernel_size=2, stride=1, padding=0)
  (15): Flatten()
  (16): ODEBlock(
    (odefunc): ODEfunc(
      (fc1): Linear(in_features=784, out_features=16, bias=True)
      (fc2): Linear(in_features=16, out_features=784, bias=True)
    )
  )
  (17): Linear(in_features=784, out_features=10, bias=True)
)
Number of parameters: 1741514
Epoch 0012 | Time 0.403 (0.186) | NFE-F 16.8 | NFE-B 0.0 | Train Acc 0.0000 | Test Acc 0.0000
Epoch 0012 | Time 0.403 (0.186) | NFE-F 16.8 | NFE-B 0.0 | Train Acc 0.0000 | Test Acc 0.0000
/home/manzand/Documents/Python/neuralODE_examples/cifar/odenet_cifar_example_small.py
#!/usr/bin/env python3
# -*- coding: utf-8 -*-
"""
…
                    )
                )
    names = []
    params = []
    for name,param in model.named_parameters():
        names.append(name)
        params.append(param.detach().numpy())
    nn1 = dict({'Wb':params,'names':names})
    for name,param in model.named_buffers():
        names.append(name)
        params.append(param.detach().numpy())
    savemat("odecnn_cifar_small.mat",nn1)
Namespace(adjoint=False, batch_size=128, data_aug=False, debug=False, downsampling_method='conv', gpu=0, lr=0.01, nepochs=200, network='odenet', save='../logs/cifarsmall', test_batch_size=1000, tol=0.001)
Sequential(
  (0): Conv2d(3, 64, kernel_size=(3, 3), stride=(1, 1))
  (1): BatchNorm2d(64, eps=64, momentum=0.1, affine=True, track_running_stats=True)
  (2): ReLU(inplace=True)
  (3): AvgPool2d(kernel_size=2, stride=1, padding=0)
  (4): Conv2d(64, 128, kernel_size=(4, 4), stride=(2, 2), padding=(1, 1))
  (5): BatchNorm2d(128, eps=128, momentum=0.1, affine=True, track_running_stats=True)
  (6): ReLU(inplace=True)
  (7): AvgPool2d(kernel_size=2, stride=1, padding=0)
  (8): Conv2d(128, 256, kernel_size=(4, 4), stride=(2, 2), padding=(1, 1))
  (9): BatchNorm2d(256, eps=256, momentum=0.1, affine=True, track_running_stats=True)
  (10): ReLU(inplace=True)
  (11): Conv2d(256, 256, kernel_size=(4, 4), stride=(2, 2), padding=(1, 1))
  (12): BatchNorm2d(256, eps=256, momentum=0.1, affine=True, track_running_stats=True)
  (13): ReLU(inplace=True)
  (14): AvgPool2d(kernel_size=2, stride=1, padding=0)
  (15): Conv2d(256, 512, kernel_size=(4, 4), stride=(2, 2), padding=(1, 1))
  (16): BatchNorm2d(512, eps=512, momentum=0.1, affine=True, track_running_stats=True)
  (17): ReLU(inplace=True)
  (18): Flatten()
  (19): ODEBlock(
    (odefunc): ODEfunc(
      (fc1): Linear(in_features=784, out_features=16, bias=True)
      (fc2): Linear(in_features=16, out_features=784, bias=True)
    )
  )
  (20): Linear(in_features=784, out_features=10, bias=True)
)
Number of parameters: 3840202
/home/manzand/Documents/Python/neuralODE_examples/cifar/odenet_cifar_example_small.py
#!/usr/bin/env python3
# -*- coding: utf-8 -*-
"""
Created on Thu Feb  4 09:04:31 2021

@author: manzand
"""

#!/usr/bin/env python3
# -*- coding: utf-8 -*-
"""
Created on Tue Jan 19 15:10:31 2021

@author: manzand
"""

import os
import argparse
…
                    )
                )
    names = []
    params = []
    for name,param in model.named_parameters():
        names.append(name)
        params.append(param.detach().numpy())
    nn1 = dict({'Wb':params,'names':names})
    for name,param in model.named_buffers():
        names.append(name)
        params.append(param.detach().numpy())
    savemat("odecnn_cifar_small.mat",nn1)
Namespace(adjoint=False, batch_size=128, data_aug=False, debug=False, downsampling_method='conv', gpu=0, lr=0.01, nepochs=200, network='odenet', save='../logs/cifarsmall', test_batch_size=1000, tol=0.001)
Sequential(
  (0): Conv2d(3, 64, kernel_size=(3, 3), stride=(1, 1))
  (1): BatchNorm2d(64, eps=64, momentum=0.1, affine=True, track_running_stats=True)
  (2): ReLU(inplace=True)
  (3): AvgPool2d(kernel_size=2, stride=1, padding=0)
  (4): Conv2d(64, 128, kernel_size=(4, 4), stride=(2, 2), padding=(1, 1))
  (5): BatchNorm2d(128, eps=128, momentum=0.1, affine=True, track_running_stats=True)
  (6): ReLU(inplace=True)
  (7): AvgPool2d(kernel_size=2, stride=1, padding=0)
  (8): Conv2d(128, 256, kernel_size=(4, 4), stride=(2, 2), padding=(1, 1))
  (9): BatchNorm2d(256, eps=256, momentum=0.1, affine=True, track_running_stats=True)
  (10): ReLU(inplace=True)
  (11): Conv2d(256, 256, kernel_size=(4, 4), stride=(2, 2), padding=(1, 1))
  (12): BatchNorm2d(256, eps=256, momentum=0.1, affine=True, track_running_stats=True)
  (13): ReLU(inplace=True)
  (14): AvgPool2d(kernel_size=2, stride=1, padding=0)
  (15): Conv2d(256, 512, kernel_size=(4, 4), stride=(2, 2), padding=(1, 1))
  (16): BatchNorm2d(512, eps=512, momentum=0.1, affine=True, track_running_stats=True)
  (17): ReLU(inplace=True)
  (18): Flatten()
  (19): ODEBlock(
    (odefunc): ODEfunc(
      (fc1): Linear(in_features=512, out_features=16, bias=True)
      (fc2): Linear(in_features=16, out_features=512, bias=True)
    )
  )
  (20): Linear(in_features=512, out_features=10, bias=True)
)
Number of parameters: 3828506
Epoch 0014 | Time 0.645 (0.300) | NFE-F 16.8 | NFE-B 0.0 | Train Acc 0.0000 | Test Acc 0.0000
Epoch 0014 | Time 0.645 (0.300) | NFE-F 16.8 | NFE-B 0.0 | Train Acc 0.0000 | Test Acc 0.0000
Epoch 0000 | Time 1.313 (1.313) | NFE-F 32.0 | NFE-B 0.0 | Train Acc 0.1000 | Test Acc 0.1000
Epoch 0015 | Time 0.804 (0.356) | NFE-F 16.8 | NFE-B 0.0 | Train Acc 0.0566 | Test Acc 0.0570
…
