…
                    )
                )
    names = []
    params = []
    for name,param in model.named_parameters():
        names.append(name)
        params.append(param.detach().numpy())
    nn1 = dict({'Wb':params,'names':names})
    for name,param in model.named_buffers():
        names.append(name)
        params.append(param.detach().numpy())
    savemat("odecnn_cifar_mid.mat",nn1)
Namespace(adjoint=False, batch_size=128, data_aug=False, debug=False, downsampling_method='conv', gpu=0, lr=0.01, nepochs=100, network='odenet', save='../logs/cifarmid', test_batch_size=1000, tol=0.001)
Sequential(
  (0): Conv2d(3, 20, kernel_size=(3, 3), stride=(1, 1))
  (1): BatchNorm2d(20, eps=20, momentum=0.1, affine=True, track_running_stats=True)
  (2): ReLU(inplace=True)
  (3): Conv2d(20, 10, kernel_size=(4, 4), stride=(2, 2), padding=(1, 1))
  (4): BatchNorm2d(10, eps=10, momentum=0.1, affine=True, track_running_stats=True)
  (5): ReLU(inplace=True)
  (6): Conv2d(10, 10, kernel_size=(4, 4), stride=(2, 2), padding=(1, 1))
  (7): BatchNorm2d(10, eps=10, momentum=0.1, affine=True, track_running_stats=True)
  (8): ReLU(inplace=True)
  (9): Flatten()
  (10): ODEBlock(
    (odefunc): ODEfunc(
      (fc1): Linear(in_features=2250, out_features=16, bias=True)
      (fc2): Linear(in_features=16, out_features=2250, bias=True)
    )
  )
  (11): Linear(in_features=2250, out_features=10, bias=True)
)
Number of parameters: 102236
/home/manzand/Documents/Python/neuralODE_examples/cifar/odenet_cifar_example.py
/home/manzand/Documents/Python/neuralODE_examples/cifar/odenet_cifar_example.py
#!/usr/bin/env python3
# -*- coding: utf-8 -*-
"""
Created on Tue Jan 19 15:10:31 2021

@author: manzand
"""

import os
import argparse
import logging
import time
import numpy as np
…
    nn1 = dict({'Wb':params,'names':names})
    for name,param in model.named_buffers():
        names.append(name)
        params.append(param.detach().numpy())
    savemat("odecnn_cifar_mid.mat",nn1)
Namespace(adjoint=False, batch_size=128, data_aug=False, debug=False, downsampling_method='conv', gpu=0, lr=0.01, nepochs=100, network='odenet', save='../logs/cifarmid', test_batch_size=1000, tol=0.001)
Namespace(adjoint=False, batch_size=128, data_aug=False, debug=False, downsampling_method='conv', gpu=0, lr=0.01, nepochs=100, network='odenet', save='../logs/cifarmid', test_batch_size=1000, tol=0.001)
Sequential(
  (0): Conv2d(3, 20, kernel_size=(3, 3), stride=(1, 1))
  (1): BatchNorm2d(20, eps=20, momentum=0.1, affine=True, track_running_stats=True)
  (2): ReLU(inplace=True)
  (3): Conv2d(20, 10, kernel_size=(4, 4), stride=(2, 2), padding=(1, 1))
  (4): BatchNorm2d(10, eps=10, momentum=0.1, affine=True, track_running_stats=True)
  (5): ReLU(inplace=True)
  (6): Conv2d(10, 10, kernel_size=(4, 4), stride=(2, 2), padding=(1, 1))
  (7): BatchNorm2d(10, eps=10, momentum=0.1, affine=True, track_running_stats=True)
  (8): ReLU(inplace=True)
  (9): Flatten()
  (10): ODEBlock(
    (odefunc): ODEfunc(
      (fc1): Linear(in_features=490, out_features=16, bias=True)
      (fc2): Linear(in_features=16, out_features=490, bias=True)
    )
  )
  (11): Linear(in_features=490, out_features=10, bias=True)
)
Sequential(
  (0): Conv2d(3, 20, kernel_size=(3, 3), stride=(1, 1))
  (1): BatchNorm2d(20, eps=20, momentum=0.1, affine=True, track_running_stats=True)
  (2): ReLU(inplace=True)
  (3): Conv2d(20, 10, kernel_size=(4, 4), stride=(2, 2), padding=(1, 1))
  (4): BatchNorm2d(10, eps=10, momentum=0.1, affine=True, track_running_stats=True)
  (5): ReLU(inplace=True)
  (6): Conv2d(10, 10, kernel_size=(4, 4), stride=(2, 2), padding=(1, 1))
  (7): BatchNorm2d(10, eps=10, momentum=0.1, affine=True, track_running_stats=True)
  (8): ReLU(inplace=True)
  (9): Flatten()
  (10): ODEBlock(
    (odefunc): ODEfunc(
      (fc1): Linear(in_features=490, out_features=16, bias=True)
      (fc2): Linear(in_features=16, out_features=490, bias=True)
    )
  )
  (11): Linear(in_features=490, out_features=10, bias=True)
)
Number of parameters: 26556
Number of parameters: 26556
Epoch 0000 | Time 0.217 (0.217) | NFE-F 26.0 | NFE-B 0.0 | Train Acc 0.1000 | Test Acc 0.1000
Epoch 0000 | Time 0.217 (0.217) | NFE-F 26.0 | NFE-B 0.0 | Train Acc 0.1000 | Test Acc 0.1000
Epoch 0001 | Time 0.253 (0.145) | NFE-F 32.6 | NFE-B 0.0 | Train Acc 0.1000 | Test Acc 0.1000
Epoch 0001 | Time 0.253 (0.145) | NFE-F 32.6 | NFE-B 0.0 | Train Acc 0.1000 | Test Acc 0.1000
…
Namespace(adjoint=False, batch_size=128, data_aug=False, debug=False, downsampling_method='conv', gpu=0, lr=0.1, nepochs=100, network='odenet', save='../logs/cifarmid', test_batch_size=1000, tol=0.001)
Namespace(adjoint=False, batch_size=128, data_aug=False, debug=False, downsampling_method='conv', gpu=0, lr=0.1, nepochs=100, network='odenet', save='../logs/cifarmid', test_batch_size=1000, tol=0.001)
Namespace(adjoint=False, batch_size=128, data_aug=False, debug=False, downsampling_method='conv', gpu=0, lr=0.1, nepochs=100, network='odenet', save='../logs/cifarmid', test_batch_size=1000, tol=0.001)
Sequential(
  (0): Conv2d(3, 20, kernel_size=(3, 3), stride=(1, 1))
  (1): BatchNorm2d(20, eps=20, momentum=0.1, affine=True, track_running_stats=True)
  (2): ReLU(inplace=True)
  (3): Conv2d(20, 10, kernel_size=(4, 4), stride=(2, 2), padding=(1, 1))
  (4): BatchNorm2d(10, eps=10, momentum=0.1, affine=True, track_running_stats=True)
  (5): ReLU(inplace=True)
  (6): Conv2d(10, 10, kernel_size=(4, 4), stride=(2, 2), padding=(1, 1))
  (7): BatchNorm2d(10, eps=10, momentum=0.1, affine=True, track_running_stats=True)
  (8): ReLU(inplace=True)
  (9): Flatten()
  (10): ODEBlock(
    (odefunc): ODEfunc(
      (fc1): Linear(in_features=490, out_features=16, bias=True)
      (fc2): Linear(in_features=16, out_features=490, bias=True)
    )
  )
  (11): Linear(in_features=490, out_features=10, bias=True)
)
Sequential(
  (0): Conv2d(3, 20, kernel_size=(3, 3), stride=(1, 1))
  (1): BatchNorm2d(20, eps=20, momentum=0.1, affine=True, track_running_stats=True)
  (2): ReLU(inplace=True)
  (3): Conv2d(20, 10, kernel_size=(4, 4), stride=(2, 2), padding=(1, 1))
  (4): BatchNorm2d(10, eps=10, momentum=0.1, affine=True, track_running_stats=True)
  (5): ReLU(inplace=True)
  (6): Conv2d(10, 10, kernel_size=(4, 4), stride=(2, 2), padding=(1, 1))
  (7): BatchNorm2d(10, eps=10, momentum=0.1, affine=True, track_running_stats=True)
  (8): ReLU(inplace=True)
  (9): Flatten()
  (10): ODEBlock(
    (odefunc): ODEfunc(
      (fc1): Linear(in_features=490, out_features=16, bias=True)
      (fc2): Linear(in_features=16, out_features=490, bias=True)
    )
  )
  (11): Linear(in_features=490, out_features=10, bias=True)
)
Sequential(
  (0): Conv2d(3, 20, kernel_size=(3, 3), stride=(1, 1))
  (1): BatchNorm2d(20, eps=20, momentum=0.1, affine=True, track_running_stats=True)
  (2): ReLU(inplace=True)
  (3): Conv2d(20, 10, kernel_size=(4, 4), stride=(2, 2), padding=(1, 1))
  (4): BatchNorm2d(10, eps=10, momentum=0.1, affine=True, track_running_stats=True)
  (5): ReLU(inplace=True)
  (6): Conv2d(10, 10, kernel_size=(4, 4), stride=(2, 2), padding=(1, 1))
  (7): BatchNorm2d(10, eps=10, momentum=0.1, affine=True, track_running_stats=True)
  (8): ReLU(inplace=True)
  (9): Flatten()
  (10): ODEBlock(
    (odefunc): ODEfunc(
      (fc1): Linear(in_features=490, out_features=16, bias=True)
      (fc2): Linear(in_features=16, out_features=490, bias=True)
    )
  )
  (11): Linear(in_features=490, out_features=10, bias=True)
)
Number of parameters: 26556
Number of parameters: 26556
Number of parameters: 26556
Epoch 0000 | Time 0.254 (0.254) | NFE-F 26.0 | NFE-B 0.0 | Train Acc 0.1032 | Test Acc 0.1021
Epoch 0000 | Time 0.254 (0.254) | NFE-F 26.0 | NFE-B 0.0 | Train Acc 0.1032 | Test Acc 0.1021
Epoch 0000 | Time 0.254 (0.254) | NFE-F 26.0 | NFE-B 0.0 | Train Acc 0.1032 | Test Acc 0.1021
…
                    )
                )
    names = []
    params = []
    for name,param in model.named_parameters():
        names.append(name)
        params.append(param.detach().numpy())
    nn1 = dict({'Wb':params,'names':names})
    for name,param in model.named_buffers():
        names.append(name)
        params.append(param.detach().numpy())
    savemat("odecnn_cifar_mid.mat",nn1)
Namespace(adjoint=False, batch_size=128, data_aug=False, debug=False, downsampling_method='conv', gpu=0, lr=0.1, nepochs=100, network='odenet', save='../logs/cifarmid', test_batch_size=1000, tol=0.001)
Sequential(
  (0): Conv2d(3, 20, kernel_size=(3, 3), stride=(1, 1))
  (1): BatchNorm2d(20, eps=20, momentum=0.1, affine=True, track_running_stats=True)
  (2): ReLU(inplace=True)
  (3): Conv2d(20, 10, kernel_size=(4, 4), stride=(2, 2), padding=(1, 1))
  (4): BatchNorm2d(10, eps=10, momentum=0.1, affine=True, track_running_stats=True)
  (5): ReLU(inplace=True)
  (6): Conv2d(10, 10, kernel_size=(4, 4), stride=(2, 2), padding=(1, 1))
  (7): BatchNorm2d(10, eps=10, momentum=0.1, affine=True, track_running_stats=True)
  (8): ReLU(inplace=True)
  (9): Flatten()
  (10): ODEBlock(
    (odefunc): ODEfunc(
      (fc1): Linear(in_features=490, out_features=16, bias=True)
      (fc2): Linear(in_features=16, out_features=490, bias=True)
    )
  )
  (11): Linear(in_features=490, out_features=10, bias=True)
)
Number of parameters: 26556
Epoch 0000 | Time 0.223 (0.223) | NFE-F 26.0 | NFE-B 0.0 | Train Acc 0.1000 | Test Acc 0.1000
Epoch 0001 | Time 0.281 (0.136) | NFE-F 32.2 | NFE-B 0.0 | Train Acc 0.1000 | Test Acc 0.1000
Epoch 0002 | Time 0.220 (0.115) | NFE-F 32.4 | NFE-B 0.0 | Train Acc 0.1000 | Test Acc 0.1000
Epoch 0003 | Time 0.234 (0.119) | NFE-F 32.4 | NFE-B 0.0 | Train Acc 0.1000 | Test Acc 0.1000
…
Namespace(adjoint=False, batch_size=128, data_aug=False, debug=False, downsampling_method='conv', gpu=0, lr=0.001, nepochs=100, network='odenet', save='../logs/cifarmid', test_batch_size=1000, tol=0.001)
Namespace(adjoint=False, batch_size=128, data_aug=False, debug=False, downsampling_method='conv', gpu=0, lr=0.001, nepochs=100, network='odenet', save='../logs/cifarmid', test_batch_size=1000, tol=0.001)
Namespace(adjoint=False, batch_size=128, data_aug=False, debug=False, downsampling_method='conv', gpu=0, lr=0.001, nepochs=100, network='odenet', save='../logs/cifarmid', test_batch_size=1000, tol=0.001)
Sequential(
  (0): Conv2d(3, 20, kernel_size=(3, 3), stride=(1, 1))
  (1): BatchNorm2d(20, eps=20, momentum=0.1, affine=True, track_running_stats=True)
  (2): ReLU(inplace=True)
  (3): Conv2d(20, 10, kernel_size=(4, 4), stride=(2, 2), padding=(1, 1))
  (4): BatchNorm2d(10, eps=10, momentum=0.1, affine=True, track_running_stats=True)
  (5): ReLU(inplace=True)
  (6): Flatten()
  (7): ODEBlock(
    (odefunc): ODEfunc(
      (fc1): Linear(in_features=490, out_features=16, bias=True)
      (fc2): Linear(in_features=16, out_features=490, bias=True)
    )
  )
  (8): Linear(in_features=490, out_features=10, bias=True)
)
Sequential(
  (0): Conv2d(3, 20, kernel_size=(3, 3), stride=(1, 1))
  (1): BatchNorm2d(20, eps=20, momentum=0.1, affine=True, track_running_stats=True)
  (2): ReLU(inplace=True)
  (3): Conv2d(20, 10, kernel_size=(4, 4), stride=(2, 2), padding=(1, 1))
  (4): BatchNorm2d(10, eps=10, momentum=0.1, affine=True, track_running_stats=True)
  (5): ReLU(inplace=True)
  (6): Flatten()
  (7): ODEBlock(
    (odefunc): ODEfunc(
      (fc1): Linear(in_features=490, out_features=16, bias=True)
      (fc2): Linear(in_features=16, out_features=490, bias=True)
    )
  )
  (8): Linear(in_features=490, out_features=10, bias=True)
)
Sequential(
  (0): Conv2d(3, 20, kernel_size=(3, 3), stride=(1, 1))
  (1): BatchNorm2d(20, eps=20, momentum=0.1, affine=True, track_running_stats=True)
  (2): ReLU(inplace=True)
  (3): Conv2d(20, 10, kernel_size=(4, 4), stride=(2, 2), padding=(1, 1))
  (4): BatchNorm2d(10, eps=10, momentum=0.1, affine=True, track_running_stats=True)
  (5): ReLU(inplace=True)
  (6): Flatten()
  (7): ODEBlock(
    (odefunc): ODEfunc(
      (fc1): Linear(in_features=490, out_features=16, bias=True)
      (fc2): Linear(in_features=16, out_features=490, bias=True)
    )
  )
  (8): Linear(in_features=490, out_features=10, bias=True)
)
Number of parameters: 24926
Number of parameters: 24926
Number of parameters: 24926
/home/manzand/Documents/Python/neuralODE_examples/cifar/odenet_cifar_example.py
/home/manzand/Documents/Python/neuralODE_examples/cifar/odenet_cifar_example.py
/home/manzand/Documents/Python/neuralODE_examples/cifar/odenet_cifar_example.py
/home/manzand/Documents/Python/neuralODE_examples/cifar/odenet_cifar_example.py
…
Namespace(adjoint=False, batch_size=128, data_aug=False, debug=False, downsampling_method='conv', gpu=0, lr=0.001, nepochs=100, network='odenet', save='../logs/cifarmid', test_batch_size=1000, tol=0.001)
Namespace(adjoint=False, batch_size=128, data_aug=False, debug=False, downsampling_method='conv', gpu=0, lr=0.001, nepochs=100, network='odenet', save='../logs/cifarmid', test_batch_size=1000, tol=0.001)
Namespace(adjoint=False, batch_size=128, data_aug=False, debug=False, downsampling_method='conv', gpu=0, lr=0.001, nepochs=100, network='odenet', save='../logs/cifarmid', test_batch_size=1000, tol=0.001)
Sequential(
  (0): Conv2d(3, 20, kernel_size=(3, 3), stride=(1, 1))
  (1): BatchNorm2d(20, eps=20, momentum=0.1, affine=True, track_running_stats=True)
  (2): ReLU(inplace=True)
  (3): Conv2d(20, 10, kernel_size=(4, 4), stride=(2, 2), padding=(1, 1))
  (4): BatchNorm2d(10, eps=10, momentum=0.1, affine=True, track_running_stats=True)
  (5): ReLU(inplace=True)
  (6): Flatten()
  (7): ODEBlock(
    (odefunc): ODEfunc(
      (fc1): Linear(in_features=2250, out_features=16, bias=True)
      (fc2): Linear(in_features=16, out_features=2250, bias=True)
    )
  )
  (8): Linear(in_features=2250, out_features=10, bias=True)
)
Sequential(
  (0): Conv2d(3, 20, kernel_size=(3, 3), stride=(1, 1))
  (1): BatchNorm2d(20, eps=20, momentum=0.1, affine=True, track_running_stats=True)
  (2): ReLU(inplace=True)
  (3): Conv2d(20, 10, kernel_size=(4, 4), stride=(2, 2), padding=(1, 1))
  (4): BatchNorm2d(10, eps=10, momentum=0.1, affine=True, track_running_stats=True)
  (5): ReLU(inplace=True)
  (6): Flatten()
  (7): ODEBlock(
    (odefunc): ODEfunc(
      (fc1): Linear(in_features=2250, out_features=16, bias=True)
      (fc2): Linear(in_features=16, out_features=2250, bias=True)
    )
  )
  (8): Linear(in_features=2250, out_features=10, bias=True)
)
Sequential(
  (0): Conv2d(3, 20, kernel_size=(3, 3), stride=(1, 1))
  (1): BatchNorm2d(20, eps=20, momentum=0.1, affine=True, track_running_stats=True)
  (2): ReLU(inplace=True)
  (3): Conv2d(20, 10, kernel_size=(4, 4), stride=(2, 2), padding=(1, 1))
  (4): BatchNorm2d(10, eps=10, momentum=0.1, affine=True, track_running_stats=True)
  (5): ReLU(inplace=True)
  (6): Flatten()
  (7): ODEBlock(
    (odefunc): ODEfunc(
      (fc1): Linear(in_features=2250, out_features=16, bias=True)
      (fc2): Linear(in_features=16, out_features=2250, bias=True)
    )
  )
  (8): Linear(in_features=2250, out_features=10, bias=True)
)
Sequential(
  (0): Conv2d(3, 20, kernel_size=(3, 3), stride=(1, 1))
  (1): BatchNorm2d(20, eps=20, momentum=0.1, affine=True, track_running_stats=True)
  (2): ReLU(inplace=True)
  (3): Conv2d(20, 10, kernel_size=(4, 4), stride=(2, 2), padding=(1, 1))
  (4): BatchNorm2d(10, eps=10, momentum=0.1, affine=True, track_running_stats=True)
  (5): ReLU(inplace=True)
  (6): Flatten()
  (7): ODEBlock(
    (odefunc): ODEfunc(
      (fc1): Linear(in_features=2250, out_features=16, bias=True)
      (fc2): Linear(in_features=16, out_features=2250, bias=True)
    )
  )
  (8): Linear(in_features=2250, out_features=10, bias=True)
)
Number of parameters: 100606
Number of parameters: 100606
Number of parameters: 100606
Number of parameters: 100606
Epoch 0000 | Time 0.295 (0.295) | NFE-F 20.0 | NFE-B 0.0 | Train Acc 0.1000 | Test Acc 0.1000
Epoch 0000 | Time 0.295 (0.295) | NFE-F 20.0 | NFE-B 0.0 | Train Acc 0.1000 | Test Acc 0.1000
Epoch 0000 | Time 0.295 (0.295) | NFE-F 20.0 | NFE-B 0.0 | Train Acc 0.1000 | Test Acc 0.1000
…
                    )
                )
    names = []
    params = []
    for name,param in model.named_parameters():
        names.append(name)
        params.append(param.detach().numpy())
    nn1 = dict({'Wb':params,'names':names})
    for name,param in model.named_buffers():
        names.append(name)
        params.append(param.detach().numpy())
    savemat("odecnn_cifar_mid.mat",nn1)
Namespace(adjoint=False, batch_size=128, data_aug=False, debug=False, downsampling_method='conv', gpu=0, lr=0.001, nepochs=100, network='odenet', save='../logs/cifarmid', test_batch_size=1000, tol=0.001)
Sequential(
  (0): Conv2d(3, 20, kernel_size=(3, 3), stride=(1, 1))
  (1): BatchNorm2d(20, eps=20, momentum=0.1, affine=True, track_running_stats=True)
  (2): ReLU(inplace=True)
  (3): Conv2d(20, 10, kernel_size=(4, 4), stride=(2, 2), padding=(1, 1))
  (4): BatchNorm2d(10, eps=10, momentum=0.1, affine=True, track_running_stats=True)
  (5): ReLU(inplace=True)
  (6): Flatten()
  (7): ODEBlock(
    (odefunc): ODEfunc(
      (fc1): Linear(in_features=2250, out_features=16, bias=True)
      (fc2): Linear(in_features=16, out_features=2250, bias=True)
    )
  )
  (8): Linear(in_features=2250, out_features=10, bias=True)
)
Number of parameters: 100606
/home/manzand/Documents/Python/neuralODE_examples/cifar/odenet_cifar_example_tiny.py
#!/usr/bin/env python3
# -*- coding: utf-8 -*-
"""
Created on Thu Feb  4 09:04:31 2021

@author: manzand
"""

#!/usr/bin/env python3
# -*- coding: utf-8 -*-
"""
Created on Tue Jan 19 15:10:31 2021

@author: manzand
"""

import os
import argparse
…
                    )
                )
    names = []
    params = []
    for name,param in model.named_parameters():
        names.append(name)
        params.append(param.detach().numpy())
    nn1 = dict({'Wb':params,'names':names})
    for name,param in model.named_buffers():
        names.append(name)
        params.append(param.detach().numpy())
    savemat("odecnn_cifar_tiny.mat",nn1)
Namespace(adjoint=False, batch_size=128, data_aug=False, debug=False, downsampling_method='conv', gpu=0, lr=0.01, nepochs=200, network='odenet', save='../logs/cifartiny', test_batch_size=1000, tol=0.001)
Sequential(
  (0): Conv2d(3, 4, kernel_size=(3, 3), stride=(1, 1))
  (1): BatchNorm2d(4, eps=4, momentum=0.1, affine=True, track_running_stats=True)
  (2): ReLU(inplace=True)
  (3): Conv2d(4, 4, kernel_size=(4, 4), stride=(2, 2), padding=(1, 1))
  (4): BatchNorm2d(4, eps=4, momentum=0.1, affine=True, track_running_stats=True)
  (5): ReLU(inplace=True)
  (6): Flatten()
  (7): ODEBlock(
    (odefunc): ODEfunc(
      (fc1): Linear(in_features=900, out_features=16, bias=True)
      (fc2): Linear(in_features=16, out_features=900, bias=True)
    )
  )
  (8): Linear(in_features=900, out_features=10, bias=True)
)
Number of parameters: 39114
Epoch 0000 | Time 0.204 (0.204) | NFE-F 20.0 | NFE-B 0.0 | Train Acc 0.1000 | Test Acc 0.1000
Epoch 0001 | Time 0.187 (0.084) | NFE-F 15.7 | NFE-B 0.0 | Train Acc 0.2736 | Test Acc 0.2811
Epoch 0002 | Time 0.182 (0.073) | NFE-F 14.2 | NFE-B 0.0 | Train Acc 0.2977 | Test Acc 0.3011
Epoch 0003 | Time 0.187 (0.081) | NFE-F 14.2 | NFE-B 0.0 | Train Acc 0.3794 | Test Acc 0.3808
…
                    )
                )
    names = []
    params = []
    for name,param in model.named_parameters():
        names.append(name)
        params.append(param.detach().numpy())
    nn1 = dict({'Wb':params,'names':names})
    for name,param in model.named_buffers():
        names.append(name)
        params.append(param.detach().numpy())
    savemat("odecnn_cifar_tiny.mat",nn1)
Namespace(adjoint=False, batch_size=128, data_aug=False, debug=False, downsampling_method='conv', gpu=0, lr=0.01, nepochs=200, network='odenet', save='../logs/cifartiny', test_batch_size=1000, tol=0.001)
Sequential(
  (0): Conv2d(3, 4, kernel_size=(3, 3), stride=(1, 1))
  (1): BatchNorm2d(4, eps=4, momentum=0.1, affine=True, track_running_stats=True)
  (2): ReLU(inplace=True)
  (3): Conv2d(4, 4, kernel_size=(4, 4), stride=(2, 2), padding=(1, 1))
  (4): BatchNorm2d(4, eps=4, momentum=0.1, affine=True, track_running_stats=True)
  (5): ReLU(inplace=True)
  (6): Conv2d(4, 4, kernel_size=(4, 4), stride=(2, 2), padding=(1, 1))
  (7): BatchNorm2d(4, eps=4, momentum=0.1, affine=True, track_running_stats=True)
  (8): ReLU(inplace=True)
  (9): Flatten()
  (10): ODEBlock(
    (odefunc): ODEfunc(
      (fc1): Linear(in_features=900, out_features=16, bias=True)
      (fc2): Linear(in_features=16, out_features=900, bias=True)
    )
  )
  (11): Linear(in_features=900, out_features=10, bias=True)
)
Number of parameters: 39382
/home/manzand/Documents/Python/neuralODE_examples/cifar/odenet_cifar_example_tiny.py
#!/usr/bin/env python3
# -*- coding: utf-8 -*-
"""
Created on Thu Feb  4 09:04:31 2021

@author: manzand
"""

#!/usr/bin/env python3
# -*- coding: utf-8 -*-
"""
Created on Tue Jan 19 15:10:31 2021

@author: manzand
"""

import os
import argparse
…
                    )
                )
    names = []
    params = []
    for name,param in model.named_parameters():
        names.append(name)
        params.append(param.detach().numpy())
    nn1 = dict({'Wb':params,'names':names})
    for name,param in model.named_buffers():
        names.append(name)
        params.append(param.detach().numpy())
    savemat("odecnn_cifar_tiny.mat",nn1)
Namespace(adjoint=False, batch_size=128, data_aug=False, debug=False, downsampling_method='conv', gpu=0, lr=0.01, nepochs=200, network='odenet', save='../logs/cifartiny', test_batch_size=1000, tol=0.001)
Sequential(
  (0): Conv2d(3, 4, kernel_size=(3, 3), stride=(1, 1))
  (1): BatchNorm2d(4, eps=4, momentum=0.1, affine=True, track_running_stats=True)
  (2): ReLU(inplace=True)
  (3): Conv2d(4, 4, kernel_size=(4, 4), stride=(2, 2), padding=(1, 1))
  (4): BatchNorm2d(4, eps=4, momentum=0.1, affine=True, track_running_stats=True)
  (5): ReLU(inplace=True)
  (6): Conv2d(4, 4, kernel_size=(4, 4), stride=(2, 2), padding=(1, 1))
  (7): BatchNorm2d(4, eps=4, momentum=0.1, affine=True, track_running_stats=True)
  (8): ReLU(inplace=True)
  (9): Flatten()
  (10): ODEBlock(
    (odefunc): ODEfunc(
      (fc1): Linear(in_features=196, out_features=16, bias=True)
      (fc2): Linear(in_features=16, out_features=196, bias=True)
    )
  )
  (11): Linear(in_features=196, out_features=10, bias=True)
)
Number of parameters: 9110
Epoch 0000 | Time 0.107 (0.107) | NFE-F 26.0 | NFE-B 0.0 | Train Acc 0.1000 | Test Acc 0.1000
Epoch 0001 | Time 0.121 (0.039) | NFE-F 17.1 | NFE-B 0.0 | Train Acc 0.1000 | Test Acc 0.1000
Epoch 0002 | Time 0.130 (0.035) | NFE-F 14.2 | NFE-B 0.0 | Train Acc 0.2800 | Test Acc 0.2836
Epoch 0003 | Time 0.133 (0.034) | NFE-F 14.2 | NFE-B 0.0 | Train Acc 0.3050 | Test Acc 0.3108
…
                    )
                )
    names = []
    params = []
    for name,param in model.named_parameters():
        names.append(name)
        params.append(param.detach().numpy())
    nn1 = dict({'Wb':params,'names':names})
    for name,param in model.named_buffers():
        names.append(name)
        params.append(param.detach().numpy())
    savemat("odecnn_cifar_tiny.mat",nn1)
Namespace(adjoint=False, batch_size=128, data_aug=False, debug=False, downsampling_method='conv', gpu=0, lr=0.01, nepochs=200, network='odenet', save='../logs/cifartiny', test_batch_size=1000, tol=0.001)
Sequential(
  (0): Conv2d(3, 20, kernel_size=(3, 3), stride=(1, 1))
  (1): BatchNorm2d(20, eps=20, momentum=0.1, affine=True, track_running_stats=True)
  (2): ReLU(inplace=True)
  (3): Conv2d(20, 20, kernel_size=(4, 4), stride=(2, 2), padding=(1, 1))
  (4): BatchNorm2d(20, eps=20, momentum=0.1, affine=True, track_running_stats=True)
  (5): ReLU(inplace=True)
  (6): Conv2d(20, 20, kernel_size=(4, 4), stride=(2, 2), padding=(1, 1))
  (7): BatchNorm2d(20, eps=20, momentum=0.1, affine=True, track_running_stats=True)
  (8): ReLU(inplace=True)
  (9): Flatten()
  (10): ODEBlock(
    (odefunc): ODEfunc(
      (fc1): Linear(in_features=196, out_features=16, bias=True)
      (fc2): Linear(in_features=16, out_features=196, bias=True)
    )
  )
  (11): Linear(in_features=196, out_features=10, bias=True)
)
Number of parameters: 21974
/home/manzand/Documents/Python/neuralODE_examples/cifar/odenet_cifar_example_tiny.py
#!/usr/bin/env python3
# -*- coding: utf-8 -*-
"""
Created on Thu Feb  4 09:04:31 2021

@author: manzand
"""

#!/usr/bin/env python3
# -*- coding: utf-8 -*-
"""
Created on Tue Jan 19 15:10:31 2021

@author: manzand
"""

import os
import argparse
…
                    )
                )
    names = []
    params = []
    for name,param in model.named_parameters():
        names.append(name)
        params.append(param.detach().numpy())
    nn1 = dict({'Wb':params,'names':names})
    for name,param in model.named_buffers():
        names.append(name)
        params.append(param.detach().numpy())
    savemat("odecnn_cifar_tiny.mat",nn1)
Namespace(adjoint=False, batch_size=128, data_aug=False, debug=False, downsampling_method='conv', gpu=0, lr=0.01, nepochs=200, network='odenet', save='../logs/cifartiny', test_batch_size=1000, tol=0.001)
Sequential(
  (0): Conv2d(3, 20, kernel_size=(3, 3), stride=(1, 1))
  (1): BatchNorm2d(20, eps=20, momentum=0.1, affine=True, track_running_stats=True)
  (2): ReLU(inplace=True)
  (3): Conv2d(20, 20, kernel_size=(4, 4), stride=(2, 2), padding=(1, 1))
  (4): BatchNorm2d(20, eps=20, momentum=0.1, affine=True, track_running_stats=True)
  (5): ReLU(inplace=True)
  (6): Conv2d(20, 20, kernel_size=(4, 4), stride=(2, 2), padding=(1, 1))
  (7): BatchNorm2d(20, eps=20, momentum=0.1, affine=True, track_running_stats=True)
  (8): ReLU(inplace=True)
  (9): Flatten()
  (10): ODEBlock(
    (odefunc): ODEfunc(
      (fc1): Linear(in_features=980, out_features=16, bias=True)
      (fc2): Linear(in_features=16, out_features=980, bias=True)
    )
  )
  (11): Linear(in_features=980, out_features=10, bias=True)
)
Number of parameters: 55686
Epoch 0000 | Time 0.475 (0.475) | NFE-F 32.0 | NFE-B 0.0 | Train Acc 0.1000 | Test Acc 0.1000
Epoch 0001 | Time 0.388 (0.254) | NFE-F 20.7 | NFE-B 0.0 | Train Acc 0.1000 | Test Acc 0.1000
Epoch 0002 | Time 0.392 (0.216) | NFE-F 20.3 | NFE-B 0.0 | Train Acc 0.1000 | Test Acc 0.1000
Epoch 0003 | Time 0.447 (0.212) | NFE-F 20.2 | NFE-B 0.0 | Train Acc 0.1000 | Test Acc 0.1000
…
                    )
                )
    names = []
    params = []
    for name,param in model.named_parameters():
        names.append(name)
        params.append(param.detach().numpy())
    nn1 = dict({'Wb':params,'names':names})
    for name,param in model.named_buffers():
        names.append(name)
        params.append(param.detach().numpy())
    savemat("odecnn_cifar_mid.mat",nn1)
Namespace(adjoint=False, batch_size=128, data_aug=False, debug=False, downsampling_method='conv', gpu=0, lr=0.01, nepochs=100, network='odenet', save='../logs/cifarmid', test_batch_size=1000, tol=0.001)
Sequential(
  (0): Conv2d(3, 36, kernel_size=(3, 3), stride=(1, 1))
  (1): BatchNorm2d(36, eps=36, momentum=0.1, affine=True, track_running_stats=True)
  (2): ReLU(inplace=True)
  (3): Conv2d(36, 24, kernel_size=(4, 4), stride=(2, 2), padding=(1, 1))
  (4): BatchNorm2d(24, eps=24, momentum=0.1, affine=True, track_running_stats=True)
  (5): ReLU(inplace=True)
  (6): Conv2d(24, 16, kernel_size=(4, 4), stride=(2, 2), padding=(1, 1))
  (7): BatchNorm2d(16, eps=16, momentum=0.1, affine=True, track_running_stats=True)
  (8): ReLU(inplace=True)
  (9): Flatten()
  (10): ODEBlock(
    (odefunc): ODEfunc(
      (fc1): Linear(in_features=2250, out_features=16, bias=True)
      (fc2): Linear(in_features=16, out_features=2250, bias=True)
    )
  )
  (11): Linear(in_features=2250, out_features=10, bias=True)
)
Number of parameters: 117944
/home/manzand/Documents/Python/neuralODE_examples/cifar/odenet_cifar_example.py
#!/usr/bin/env python3
# -*- coding: utf-8 -*-
"""
Created on Tue Jan 19 15:10:31 2021

@author: manzand
"""

import os
import argparse
import logging
import time
import numpy as np
import torch
import torch.nn as nn
from torch.utils.data import DataLoader
…
                    )
                )
    names = []
    params = []
    for name,param in model.named_parameters():
        names.append(name)
        params.append(param.detach().numpy())
    nn1 = dict({'Wb':params,'names':names})
    for name,param in model.named_buffers():
        names.append(name)
        params.append(param.detach().numpy())
    savemat("odecnn_cifar_mid.mat",nn1)
Namespace(adjoint=False, batch_size=128, data_aug=False, debug=False, downsampling_method='conv', gpu=0, lr=0.01, nepochs=100, network='odenet', save='../logs/cifarmid', test_batch_size=1000, tol=0.001)
Sequential(
  (0): Conv2d(3, 36, kernel_size=(3, 3), stride=(1, 1))
  (1): BatchNorm2d(36, eps=36, momentum=0.1, affine=True, track_running_stats=True)
  (2): ReLU(inplace=True)
  (3): Conv2d(36, 24, kernel_size=(4, 4), stride=(2, 2), padding=(1, 1))
  (4): BatchNorm2d(24, eps=24, momentum=0.1, affine=True, track_running_stats=True)
  (5): ReLU(inplace=True)
  (6): Conv2d(24, 16, kernel_size=(4, 4), stride=(2, 2), padding=(1, 1))
  (7): BatchNorm2d(16, eps=16, momentum=0.1, affine=True, track_running_stats=True)
  (8): ReLU(inplace=True)
  (9): Flatten()
  (10): ODEBlock(
    (odefunc): ODEfunc(
      (fc1): Linear(in_features=784, out_features=16, bias=True)
      (fc2): Linear(in_features=16, out_features=784, bias=True)
    )
  )
  (11): Linear(in_features=784, out_features=10, bias=True)
)
Number of parameters: 54906
Epoch 0000 | Time 0.226 (0.226) | NFE-F 26.0 | NFE-B 0.0 | Train Acc 0.1000 | Test Acc 0.1000
Epoch 0001 | Time 0.230 (0.109) | NFE-F 20.7 | NFE-B 0.0 | Train Acc 0.1000 | Test Acc 0.1000
Epoch 0002 | Time 0.229 (0.107) | NFE-F 21.0 | NFE-B 0.0 | Train Acc 0.1000 | Test Acc 0.1000
Epoch 0003 | Time 0.223 (0.109) | NFE-F 21.7 | NFE-B 0.0 | Train Acc 0.1000 | Test Acc 0.1000
…
    nn1 = dict({'Wb':params,'names':names})
    for name,param in model.named_buffers():
        names.append(name)
        params.append(param.detach().numpy())
    savemat("odecnn_cifar_mid.mat",nn1)
Namespace(adjoint=False, batch_size=128, data_aug=False, debug=False, downsampling_method='conv', gpu=0, lr=0.01, nepochs=100, network='odenet', save='../logs/cifarmid', test_batch_size=1000, tol=0.001)
Namespace(adjoint=False, batch_size=128, data_aug=False, debug=False, downsampling_method='conv', gpu=0, lr=0.01, nepochs=100, network='odenet', save='../logs/cifarmid', test_batch_size=1000, tol=0.001)
Sequential(
  (0): Conv2d(3, 32, kernel_size=(3, 3), stride=(1, 1))
  (1): BatchNorm2d(32, eps=32, momentum=0.1, affine=True, track_running_stats=True)
  (2): ReLU(inplace=True)
  (3): Conv2d(32, 64, kernel_size=(4, 4), stride=(2, 2), padding=(1, 1))
  (4): BatchNorm2d(64, eps=64, momentum=0.1, affine=True, track_running_stats=True)
  (5): ReLU(inplace=True)
  (6): Conv2d(64, 128, kernel_size=(4, 4), stride=(2, 2), padding=(1, 1))
  (7): BatchNorm2d(64, eps=128, momentum=0.1, affine=True, track_running_stats=True)
  (8): ReLU(inplace=True)
  (9): Flatten()
  (10): ODEBlock(
    (odefunc): ODEfunc(
      (fc1): Linear(in_features=784, out_features=16, bias=True)
      (fc2): Linear(in_features=16, out_features=784, bias=True)
    )
  )
  (11): Linear(in_features=784, out_features=10, bias=True)
)
Sequential(
  (0): Conv2d(3, 32, kernel_size=(3, 3), stride=(1, 1))
  (1): BatchNorm2d(32, eps=32, momentum=0.1, affine=True, track_running_stats=True)
  (2): ReLU(inplace=True)
  (3): Conv2d(32, 64, kernel_size=(4, 4), stride=(2, 2), padding=(1, 1))
  (4): BatchNorm2d(64, eps=64, momentum=0.1, affine=True, track_running_stats=True)
  (5): ReLU(inplace=True)
  (6): Conv2d(64, 128, kernel_size=(4, 4), stride=(2, 2), padding=(1, 1))
  (7): BatchNorm2d(64, eps=128, momentum=0.1, affine=True, track_running_stats=True)
  (8): ReLU(inplace=True)
  (9): Flatten()
  (10): ODEBlock(
    (odefunc): ODEfunc(
      (fc1): Linear(in_features=784, out_features=16, bias=True)
      (fc2): Linear(in_features=16, out_features=784, bias=True)
    )
  )
  (11): Linear(in_features=784, out_features=10, bias=True)
)
Number of parameters: 198986
Number of parameters: 198986
/home/manzand/Documents/Python/neuralODE_examples/cifar/odenet_cifar_example.py
/home/manzand/Documents/Python/neuralODE_examples/cifar/odenet_cifar_example.py
/home/manzand/Documents/Python/neuralODE_examples/cifar/odenet_cifar_example.py
#!/usr/bin/env python3
# -*- coding: utf-8 -*-
"""
Created on Tue Jan 19 15:10:31 2021
…
Namespace(adjoint=False, batch_size=128, data_aug=False, debug=False, downsampling_method='conv', gpu=0, lr=0.01, nepochs=100, network='odenet', save='../logs/cifarmid', test_batch_size=1000, tol=0.001)
Namespace(adjoint=False, batch_size=128, data_aug=False, debug=False, downsampling_method='conv', gpu=0, lr=0.01, nepochs=100, network='odenet', save='../logs/cifarmid', test_batch_size=1000, tol=0.001)
Namespace(adjoint=False, batch_size=128, data_aug=False, debug=False, downsampling_method='conv', gpu=0, lr=0.01, nepochs=100, network='odenet', save='../logs/cifarmid', test_batch_size=1000, tol=0.001)
Sequential(
  (0): Conv2d(3, 32, kernel_size=(3, 3), stride=(1, 1))
  (1): BatchNorm2d(32, eps=32, momentum=0.1, affine=True, track_running_stats=True)
  (2): ReLU(inplace=True)
  (3): Conv2d(32, 64, kernel_size=(4, 4), stride=(2, 2), padding=(1, 1))
  (4): BatchNorm2d(64, eps=64, momentum=0.1, affine=True, track_running_stats=True)
  (5): ReLU(inplace=True)
  (6): Conv2d(64, 128, kernel_size=(4, 4), stride=(2, 2), padding=(1, 1))
  (7): BatchNorm2d(64, eps=128, momentum=0.1, affine=True, track_running_stats=True)
  (8): ReLU(inplace=True)
  (9): Flatten()
  (10): ODEBlock(
    (odefunc): ODEfunc(
      (fc1): Linear(in_features=784, out_features=16, bias=True)
      (fc2): Linear(in_features=16, out_features=784, bias=True)
    )
  )
  (11): Linear(in_features=784, out_features=10, bias=True)
)
Sequential(
  (0): Conv2d(3, 32, kernel_size=(3, 3), stride=(1, 1))
  (1): BatchNorm2d(32, eps=32, momentum=0.1, affine=True, track_running_stats=True)
  (2): ReLU(inplace=True)
  (3): Conv2d(32, 64, kernel_size=(4, 4), stride=(2, 2), padding=(1, 1))
  (4): BatchNorm2d(64, eps=64, momentum=0.1, affine=True, track_running_stats=True)
  (5): ReLU(inplace=True)
  (6): Conv2d(64, 128, kernel_size=(4, 4), stride=(2, 2), padding=(1, 1))
  (7): BatchNorm2d(64, eps=128, momentum=0.1, affine=True, track_running_stats=True)
  (8): ReLU(inplace=True)
  (9): Flatten()
  (10): ODEBlock(
    (odefunc): ODEfunc(
      (fc1): Linear(in_features=784, out_features=16, bias=True)
      (fc2): Linear(in_features=16, out_features=784, bias=True)
    )
  )
  (11): Linear(in_features=784, out_features=10, bias=True)
)
Sequential(
  (0): Conv2d(3, 32, kernel_size=(3, 3), stride=(1, 1))
  (1): BatchNorm2d(32, eps=32, momentum=0.1, affine=True, track_running_stats=True)
  (2): ReLU(inplace=True)
  (3): Conv2d(32, 64, kernel_size=(4, 4), stride=(2, 2), padding=(1, 1))
  (4): BatchNorm2d(64, eps=64, momentum=0.1, affine=True, track_running_stats=True)
  (5): ReLU(inplace=True)
  (6): Conv2d(64, 128, kernel_size=(4, 4), stride=(2, 2), padding=(1, 1))
  (7): BatchNorm2d(64, eps=128, momentum=0.1, affine=True, track_running_stats=True)
  (8): ReLU(inplace=True)
  (9): Flatten()
  (10): ODEBlock(
    (odefunc): ODEfunc(
      (fc1): Linear(in_features=784, out_features=16, bias=True)
      (fc2): Linear(in_features=16, out_features=784, bias=True)
    )
  )
  (11): Linear(in_features=784, out_features=10, bias=True)
)
Number of parameters: 198986
Number of parameters: 198986
Number of parameters: 198986
/home/manzand/Documents/Python/neuralODE_examples/cifar/odenet_cifar_example.py
/home/manzand/Documents/Python/neuralODE_examples/cifar/odenet_cifar_example.py
/home/manzand/Documents/Python/neuralODE_examples/cifar/odenet_cifar_example.py
/home/manzand/Documents/Python/neuralODE_examples/cifar/odenet_cifar_example.py
…
Namespace(adjoint=False, batch_size=128, data_aug=False, debug=False, downsampling_method='conv', gpu=0, lr=0.01, nepochs=100, network='odenet', save='../logs/cifarmid', test_batch_size=1000, tol=0.001)
Namespace(adjoint=False, batch_size=128, data_aug=False, debug=False, downsampling_method='conv', gpu=0, lr=0.01, nepochs=100, network='odenet', save='../logs/cifarmid', test_batch_size=1000, tol=0.001)
Namespace(adjoint=False, batch_size=128, data_aug=False, debug=False, downsampling_method='conv', gpu=0, lr=0.01, nepochs=100, network='odenet', save='../logs/cifarmid', test_batch_size=1000, tol=0.001)
Sequential(
  (0): Conv2d(3, 32, kernel_size=(3, 3), stride=(1, 1))
  (1): BatchNorm2d(32, eps=32, momentum=0.1, affine=True, track_running_stats=True)
  (2): ReLU(inplace=True)
  (3): Conv2d(32, 64, kernel_size=(4, 4), stride=(2, 2), padding=(1, 1))
  (4): BatchNorm2d(64, eps=64, momentum=0.1, affine=True, track_running_stats=True)
  (5): ReLU(inplace=True)
  (6): Conv2d(64, 64, kernel_size=(4, 4), stride=(2, 2), padding=(1, 1))
  (7): BatchNorm2d(64, eps=64, momentum=0.1, affine=True, track_running_stats=True)
  (8): ReLU(inplace=True)
  (9): Flatten()
  (10): ODEBlock(
    (odefunc): ODEfunc(
      (fc1): Linear(in_features=784, out_features=16, bias=True)
      (fc2): Linear(in_features=16, out_features=784, bias=True)
    )
  )
  (11): Linear(in_features=784, out_features=10, bias=True)
)
Sequential(
  (0): Conv2d(3, 32, kernel_size=(3, 3), stride=(1, 1))
  (1): BatchNorm2d(32, eps=32, momentum=0.1, affine=True, track_running_stats=True)
  (2): ReLU(inplace=True)
  (3): Conv2d(32, 64, kernel_size=(4, 4), stride=(2, 2), padding=(1, 1))
  (4): BatchNorm2d(64, eps=64, momentum=0.1, affine=True, track_running_stats=True)
  (5): ReLU(inplace=True)
  (6): Conv2d(64, 64, kernel_size=(4, 4), stride=(2, 2), padding=(1, 1))
  (7): BatchNorm2d(64, eps=64, momentum=0.1, affine=True, track_running_stats=True)
  (8): ReLU(inplace=True)
  (9): Flatten()
  (10): ODEBlock(
    (odefunc): ODEfunc(
      (fc1): Linear(in_features=784, out_features=16, bias=True)
      (fc2): Linear(in_features=16, out_features=784, bias=True)
    )
  )
  (11): Linear(in_features=784, out_features=10, bias=True)
)
Sequential(
  (0): Conv2d(3, 32, kernel_size=(3, 3), stride=(1, 1))
  (1): BatchNorm2d(32, eps=32, momentum=0.1, affine=True, track_running_stats=True)
  (2): ReLU(inplace=True)
  (3): Conv2d(32, 64, kernel_size=(4, 4), stride=(2, 2), padding=(1, 1))
  (4): BatchNorm2d(64, eps=64, momentum=0.1, affine=True, track_running_stats=True)
  (5): ReLU(inplace=True)
  (6): Conv2d(64, 64, kernel_size=(4, 4), stride=(2, 2), padding=(1, 1))
  (7): BatchNorm2d(64, eps=64, momentum=0.1, affine=True, track_running_stats=True)
  (8): ReLU(inplace=True)
  (9): Flatten()
  (10): ODEBlock(
    (odefunc): ODEfunc(
      (fc1): Linear(in_features=784, out_features=16, bias=True)
      (fc2): Linear(in_features=16, out_features=784, bias=True)
    )
  )
  (11): Linear(in_features=784, out_features=10, bias=True)
)
Sequential(
  (0): Conv2d(3, 32, kernel_size=(3, 3), stride=(1, 1))
  (1): BatchNorm2d(32, eps=32, momentum=0.1, affine=True, track_running_stats=True)
  (2): ReLU(inplace=True)
  (3): Conv2d(32, 64, kernel_size=(4, 4), stride=(2, 2), padding=(1, 1))
  (4): BatchNorm2d(64, eps=64, momentum=0.1, affine=True, track_running_stats=True)
  (5): ReLU(inplace=True)
  (6): Conv2d(64, 64, kernel_size=(4, 4), stride=(2, 2), padding=(1, 1))
  (7): BatchNorm2d(64, eps=64, momentum=0.1, affine=True, track_running_stats=True)
  (8): ReLU(inplace=True)
  (9): Flatten()
  (10): ODEBlock(
    (odefunc): ODEfunc(
      (fc1): Linear(in_features=784, out_features=16, bias=True)
      (fc2): Linear(in_features=16, out_features=784, bias=True)
    )
  )
  (11): Linear(in_features=784, out_features=10, bias=True)
)
Number of parameters: 133386
Number of parameters: 133386
Number of parameters: 133386
Number of parameters: 133386
/home/manzand/Documents/Python/neuralODE_examples/cifar/odenet_cifar_example.py
/home/manzand/Documents/Python/neuralODE_examples/cifar/odenet_cifar_example.py
/home/manzand/Documents/Python/neuralODE_examples/cifar/odenet_cifar_example.py
…
Namespace(adjoint=False, batch_size=128, data_aug=False, debug=False, downsampling_method='conv', gpu=0, lr=0.01, nepochs=100, network='odenet', save='../logs/cifarmid', test_batch_size=1000, tol=0.001)
Namespace(adjoint=False, batch_size=128, data_aug=False, debug=False, downsampling_method='conv', gpu=0, lr=0.01, nepochs=100, network='odenet', save='../logs/cifarmid', test_batch_size=1000, tol=0.001)
Namespace(adjoint=False, batch_size=128, data_aug=False, debug=False, downsampling_method='conv', gpu=0, lr=0.01, nepochs=100, network='odenet', save='../logs/cifarmid', test_batch_size=1000, tol=0.001)
Sequential(
  (0): Conv2d(3, 32, kernel_size=(3, 3), stride=(1, 1))
  (1): BatchNorm2d(32, eps=32, momentum=0.1, affine=True, track_running_stats=True)
  (2): ReLU(inplace=True)
  (3): Conv2d(32, 64, kernel_size=(4, 4), stride=(2, 2), padding=(1, 1))
  (4): BatchNorm2d(64, eps=64, momentum=0.1, affine=True, track_running_stats=True)
  (5): ReLU(inplace=True)
  (6): Conv2d(64, 64, kernel_size=(4, 4), stride=(2, 2), padding=(1, 1))
  (7): BatchNorm2d(64, eps=64, momentum=0.1, affine=True, track_running_stats=True)
  (8): ReLU(inplace=True)
  (9): Flatten()
  (10): ODEBlock(
    (odefunc): ODEfunc(
      (fc1): Linear(in_features=3136, out_features=16, bias=True)
      (fc2): Linear(in_features=16, out_features=3136, bias=True)
    )
  )
  (11): Linear(in_features=3136, out_features=10, bias=True)
)
Sequential(
  (0): Conv2d(3, 32, kernel_size=(3, 3), stride=(1, 1))
  (1): BatchNorm2d(32, eps=32, momentum=0.1, affine=True, track_running_stats=True)
  (2): ReLU(inplace=True)
  (3): Conv2d(32, 64, kernel_size=(4, 4), stride=(2, 2), padding=(1, 1))
  (4): BatchNorm2d(64, eps=64, momentum=0.1, affine=True, track_running_stats=True)
  (5): ReLU(inplace=True)
  (6): Conv2d(64, 64, kernel_size=(4, 4), stride=(2, 2), padding=(1, 1))
  (7): BatchNorm2d(64, eps=64, momentum=0.1, affine=True, track_running_stats=True)
  (8): ReLU(inplace=True)
  (9): Flatten()
  (10): ODEBlock(
    (odefunc): ODEfunc(
      (fc1): Linear(in_features=3136, out_features=16, bias=True)
      (fc2): Linear(in_features=16, out_features=3136, bias=True)
    )
  )
  (11): Linear(in_features=3136, out_features=10, bias=True)
)
Sequential(
  (0): Conv2d(3, 32, kernel_size=(3, 3), stride=(1, 1))
  (1): BatchNorm2d(32, eps=32, momentum=0.1, affine=True, track_running_stats=True)
  (2): ReLU(inplace=True)
  (3): Conv2d(32, 64, kernel_size=(4, 4), stride=(2, 2), padding=(1, 1))
  (4): BatchNorm2d(64, eps=64, momentum=0.1, affine=True, track_running_stats=True)
  (5): ReLU(inplace=True)
  (6): Conv2d(64, 64, kernel_size=(4, 4), stride=(2, 2), padding=(1, 1))
  (7): BatchNorm2d(64, eps=64, momentum=0.1, affine=True, track_running_stats=True)
  (8): ReLU(inplace=True)
  (9): Flatten()
  (10): ODEBlock(
    (odefunc): ODEfunc(
      (fc1): Linear(in_features=3136, out_features=16, bias=True)
      (fc2): Linear(in_features=16, out_features=3136, bias=True)
    )
  )
  (11): Linear(in_features=3136, out_features=10, bias=True)
)
Sequential(
  (0): Conv2d(3, 32, kernel_size=(3, 3), stride=(1, 1))
  (1): BatchNorm2d(32, eps=32, momentum=0.1, affine=True, track_running_stats=True)
  (2): ReLU(inplace=True)
  (3): Conv2d(32, 64, kernel_size=(4, 4), stride=(2, 2), padding=(1, 1))
  (4): BatchNorm2d(64, eps=64, momentum=0.1, affine=True, track_running_stats=True)
  (5): ReLU(inplace=True)
  (6): Conv2d(64, 64, kernel_size=(4, 4), stride=(2, 2), padding=(1, 1))
  (7): BatchNorm2d(64, eps=64, momentum=0.1, affine=True, track_running_stats=True)
  (8): ReLU(inplace=True)
  (9): Flatten()
  (10): ODEBlock(
    (odefunc): ODEfunc(
      (fc1): Linear(in_features=3136, out_features=16, bias=True)
      (fc2): Linear(in_features=16, out_features=3136, bias=True)
    )
  )
  (11): Linear(in_features=3136, out_features=10, bias=True)
)
Sequential(
  (0): Conv2d(3, 32, kernel_size=(3, 3), stride=(1, 1))
  (1): BatchNorm2d(32, eps=32, momentum=0.1, affine=True, track_running_stats=True)
  (2): ReLU(inplace=True)
  (3): Conv2d(32, 64, kernel_size=(4, 4), stride=(2, 2), padding=(1, 1))
  (4): BatchNorm2d(64, eps=64, momentum=0.1, affine=True, track_running_stats=True)
  (5): ReLU(inplace=True)
  (6): Conv2d(64, 64, kernel_size=(4, 4), stride=(2, 2), padding=(1, 1))
  (7): BatchNorm2d(64, eps=64, momentum=0.1, affine=True, track_running_stats=True)
  (8): ReLU(inplace=True)
  (9): Flatten()
  (10): ODEBlock(
    (odefunc): ODEfunc(
      (fc1): Linear(in_features=3136, out_features=16, bias=True)
      (fc2): Linear(in_features=16, out_features=3136, bias=True)
    )
  )
  (11): Linear(in_features=3136, out_features=10, bias=True)
)
Number of parameters: 234522
Number of parameters: 234522
Number of parameters: 234522
Number of parameters: 234522
Number of parameters: 234522
Epoch 0000 | Time 1.016 (1.016) | NFE-F 32.0 | NFE-B 0.0 | Train Acc 0.1000 | Test Acc 0.1000
Epoch 0000 | Time 1.016 (1.016) | NFE-F 32.0 | NFE-B 0.0 | Train Acc 0.1000 | Test Acc 0.1000
Epoch 0000 | Time 1.016 (1.016) | NFE-F 32.0 | NFE-B 0.0 | Train Acc 0.1000 | Test Acc 0.1000
…
                    )
                )
    names = []
    params = []
    for name,param in model.named_parameters():
        names.append(name)
        params.append(param.detach().numpy())
    nn1 = dict({'Wb':params,'names':names})
    for name,param in model.named_buffers():
        names.append(name)
        params.append(param.detach().numpy())
    savemat("odecnn_cifar_mid.mat",nn1)
Namespace(adjoint=False, batch_size=128, data_aug=False, debug=False, downsampling_method='conv', gpu=0, lr=0.01, nepochs=100, network='odenet', save='../logs/cifarmid', test_batch_size=1000, tol=0.001)
Sequential(
  (0): Conv2d(3, 64, kernel_size=(3, 3), stride=(1, 1))
  (1): BatchNorm2d(64, eps=64, momentum=0.1, affine=True, track_running_stats=True)
  (2): ReLU(inplace=True)
  (3): Conv2d(64, 128, kernel_size=(4, 4), stride=(2, 2), padding=(1, 1))
  (4): BatchNorm2d(64, eps=128, momentum=0.1, affine=True, track_running_stats=True)
  (5): ReLU(inplace=True)
  (6): Conv2d(128, 128, kernel_size=(4, 4), stride=(2, 2), padding=(1, 1))
  (7): BatchNorm2d(64, eps=128, momentum=0.1, affine=True, track_running_stats=True)
  (8): ReLU(inplace=True)
  (9): Flatten()
  (10): ODEBlock(
    (odefunc): ODEfunc(
      (fc1): Linear(in_features=3136, out_features=16, bias=True)
      (fc2): Linear(in_features=16, out_features=3136, bias=True)
    )
  )
  (11): Linear(in_features=3136, out_features=10, bias=True)
)
Number of parameters: 530522
/home/manzand/Documents/Python/neuralODE_examples/cifar/odenet_cifar_example.py
/home/manzand/Documents/Python/neuralODE_examples/cifar/odenet_cifar_example.py
#!/usr/bin/env python3
# -*- coding: utf-8 -*-
"""
Created on Tue Jan 19 15:10:31 2021

@author: manzand
"""

import os
import argparse
import logging
import time
import numpy as np
…
    nn1 = dict({'Wb':params,'names':names})
    for name,param in model.named_buffers():
        names.append(name)
        params.append(param.detach().numpy())
    savemat("odecnn_cifar_mid.mat",nn1)
Namespace(adjoint=False, batch_size=128, data_aug=False, debug=False, downsampling_method='conv', gpu=0, lr=0.01, nepochs=100, network='odenet', save='../logs/cifarmid', test_batch_size=1000, tol=0.001)
Namespace(adjoint=False, batch_size=128, data_aug=False, debug=False, downsampling_method='conv', gpu=0, lr=0.01, nepochs=100, network='odenet', save='../logs/cifarmid', test_batch_size=1000, tol=0.001)
Sequential(
  (0): Conv2d(3, 64, kernel_size=(3, 3), stride=(1, 1))
  (1): BatchNorm2d(64, eps=64, momentum=0.1, affine=True, track_running_stats=True)
  (2): ReLU(inplace=True)
  (3): Conv2d(128, 128, kernel_size=(4, 4), stride=(2, 2), padding=(1, 1))
  (4): BatchNorm2d(64, eps=128, momentum=0.1, affine=True, track_running_stats=True)
  (5): ReLU(inplace=True)
  (6): Conv2d(128, 128, kernel_size=(4, 4), stride=(2, 2), padding=(1, 1))
  (7): BatchNorm2d(64, eps=128, momentum=0.1, affine=True, track_running_stats=True)
  (8): ReLU(inplace=True)
  (9): Flatten()
  (10): ODEBlock(
    (odefunc): ODEfunc(
      (fc1): Linear(in_features=3136, out_features=16, bias=True)
      (fc2): Linear(in_features=16, out_features=3136, bias=True)
    )
  )
  (11): Linear(in_features=3136, out_features=10, bias=True)
)
Sequential(
  (0): Conv2d(3, 64, kernel_size=(3, 3), stride=(1, 1))
  (1): BatchNorm2d(64, eps=64, momentum=0.1, affine=True, track_running_stats=True)
  (2): ReLU(inplace=True)
  (3): Conv2d(128, 128, kernel_size=(4, 4), stride=(2, 2), padding=(1, 1))
  (4): BatchNorm2d(64, eps=128, momentum=0.1, affine=True, track_running_stats=True)
  (5): ReLU(inplace=True)
  (6): Conv2d(128, 128, kernel_size=(4, 4), stride=(2, 2), padding=(1, 1))
  (7): BatchNorm2d(64, eps=128, momentum=0.1, affine=True, track_running_stats=True)
  (8): ReLU(inplace=True)
  (9): Flatten()
  (10): ODEBlock(
    (odefunc): ODEfunc(
      (fc1): Linear(in_features=3136, out_features=16, bias=True)
      (fc2): Linear(in_features=16, out_features=3136, bias=True)
    )
  )
  (11): Linear(in_features=3136, out_features=10, bias=True)
)
Number of parameters: 661594
Number of parameters: 661594
/home/manzand/Documents/Python/neuralODE_examples/cifar/odenet_cifar_example.py
/home/manzand/Documents/Python/neuralODE_examples/cifar/odenet_cifar_example.py
/home/manzand/Documents/Python/neuralODE_examples/cifar/odenet_cifar_example.py
#!/usr/bin/env python3
# -*- coding: utf-8 -*-
"""
Created on Tue Jan 19 15:10:31 2021
…
Namespace(adjoint=False, batch_size=128, data_aug=False, debug=False, downsampling_method='conv', gpu=0, lr=0.01, nepochs=100, network='odenet', save='../logs/cifarmid', test_batch_size=1000, tol=0.001)
Namespace(adjoint=False, batch_size=128, data_aug=False, debug=False, downsampling_method='conv', gpu=0, lr=0.01, nepochs=100, network='odenet', save='../logs/cifarmid', test_batch_size=1000, tol=0.001)
Namespace(adjoint=False, batch_size=128, data_aug=False, debug=False, downsampling_method='conv', gpu=0, lr=0.01, nepochs=100, network='odenet', save='../logs/cifarmid', test_batch_size=1000, tol=0.001)
Sequential(
  (0): Conv2d(3, 64, kernel_size=(3, 3), stride=(1, 1))
  (1): BatchNorm2d(64, eps=64, momentum=0.1, affine=True, track_running_stats=True)
  (2): ReLU(inplace=True)
  (3): Conv2d(128, 64, kernel_size=(4, 4), stride=(2, 2), padding=(1, 1))
  (4): BatchNorm2d(64, eps=128, momentum=0.1, affine=True, track_running_stats=True)
  (5): ReLU(inplace=True)
  (6): Conv2d(128, 128, kernel_size=(4, 4), stride=(2, 2), padding=(1, 1))
  (7): BatchNorm2d(64, eps=128, momentum=0.1, affine=True, track_running_stats=True)
  (8): ReLU(inplace=True)
  (9): Flatten()
  (10): ODEBlock(
    (odefunc): ODEfunc(
      (fc1): Linear(in_features=3136, out_features=16, bias=True)
      (fc2): Linear(in_features=16, out_features=3136, bias=True)
    )
  )
  (11): Linear(in_features=3136, out_features=10, bias=True)
)
Sequential(
  (0): Conv2d(3, 64, kernel_size=(3, 3), stride=(1, 1))
  (1): BatchNorm2d(64, eps=64, momentum=0.1, affine=True, track_running_stats=True)
  (2): ReLU(inplace=True)
  (3): Conv2d(128, 64, kernel_size=(4, 4), stride=(2, 2), padding=(1, 1))
  (4): BatchNorm2d(64, eps=128, momentum=0.1, affine=True, track_running_stats=True)
  (5): ReLU(inplace=True)
  (6): Conv2d(128, 128, kernel_size=(4, 4), stride=(2, 2), padding=(1, 1))
  (7): BatchNorm2d(64, eps=128, momentum=0.1, affine=True, track_running_stats=True)
  (8): ReLU(inplace=True)
  (9): Flatten()
  (10): ODEBlock(
    (odefunc): ODEfunc(
      (fc1): Linear(in_features=3136, out_features=16, bias=True)
      (fc2): Linear(in_features=16, out_features=3136, bias=True)
    )
  )
  (11): Linear(in_features=3136, out_features=10, bias=True)
)
Sequential(
  (0): Conv2d(3, 64, kernel_size=(3, 3), stride=(1, 1))
  (1): BatchNorm2d(64, eps=64, momentum=0.1, affine=True, track_running_stats=True)
  (2): ReLU(inplace=True)
  (3): Conv2d(128, 64, kernel_size=(4, 4), stride=(2, 2), padding=(1, 1))
  (4): BatchNorm2d(64, eps=128, momentum=0.1, affine=True, track_running_stats=True)
  (5): ReLU(inplace=True)
  (6): Conv2d(128, 128, kernel_size=(4, 4), stride=(2, 2), padding=(1, 1))
  (7): BatchNorm2d(64, eps=128, momentum=0.1, affine=True, track_running_stats=True)
  (8): ReLU(inplace=True)
  (9): Flatten()
  (10): ODEBlock(
    (odefunc): ODEfunc(
      (fc1): Linear(in_features=3136, out_features=16, bias=True)
      (fc2): Linear(in_features=16, out_features=3136, bias=True)
    )
  )
  (11): Linear(in_features=3136, out_features=10, bias=True)
)
Number of parameters: 530458
Number of parameters: 530458
Number of parameters: 530458
/home/manzand/Documents/Python/neuralODE_examples/cifar/odenet_cifar_example.py
/home/manzand/Documents/Python/neuralODE_examples/cifar/odenet_cifar_example.py
/home/manzand/Documents/Python/neuralODE_examples/cifar/odenet_cifar_example.py
/home/manzand/Documents/Python/neuralODE_examples/cifar/odenet_cifar_example.py
…
Namespace(adjoint=False, batch_size=128, data_aug=False, debug=False, downsampling_method='conv', gpu=0, lr=0.01, nepochs=100, network='odenet', save='../logs/cifarmid', test_batch_size=1000, tol=0.001)
Namespace(adjoint=False, batch_size=128, data_aug=False, debug=False, downsampling_method='conv', gpu=0, lr=0.01, nepochs=100, network='odenet', save='../logs/cifarmid', test_batch_size=1000, tol=0.001)
Namespace(adjoint=False, batch_size=128, data_aug=False, debug=False, downsampling_method='conv', gpu=0, lr=0.01, nepochs=100, network='odenet', save='../logs/cifarmid', test_batch_size=1000, tol=0.001)
Sequential(
  (0): Conv2d(3, 64, kernel_size=(3, 3), stride=(1, 1))
  (1): BatchNorm2d(64, eps=64, momentum=0.1, affine=True, track_running_stats=True)
  (2): ReLU(inplace=True)
  (3): Conv2d(64, 64, kernel_size=(4, 4), stride=(2, 2), padding=(1, 1))
  (4): BatchNorm2d(64, eps=128, momentum=0.1, affine=True, track_running_stats=True)
  (5): ReLU(inplace=True)
  (6): Conv2d(128, 128, kernel_size=(4, 4), stride=(2, 2), padding=(1, 1))
  (7): BatchNorm2d(64, eps=128, momentum=0.1, affine=True, track_running_stats=True)
  (8): ReLU(inplace=True)
  (9): Flatten()
  (10): ODEBlock(
    (odefunc): ODEfunc(
      (fc1): Linear(in_features=3136, out_features=16, bias=True)
      (fc2): Linear(in_features=16, out_features=3136, bias=True)
    )
  )
  (11): Linear(in_features=3136, out_features=10, bias=True)
)
Sequential(
  (0): Conv2d(3, 64, kernel_size=(3, 3), stride=(1, 1))
  (1): BatchNorm2d(64, eps=64, momentum=0.1, affine=True, track_running_stats=True)
  (2): ReLU(inplace=True)
  (3): Conv2d(64, 64, kernel_size=(4, 4), stride=(2, 2), padding=(1, 1))
  (4): BatchNorm2d(64, eps=128, momentum=0.1, affine=True, track_running_stats=True)
  (5): ReLU(inplace=True)
  (6): Conv2d(128, 128, kernel_size=(4, 4), stride=(2, 2), padding=(1, 1))
  (7): BatchNorm2d(64, eps=128, momentum=0.1, affine=True, track_running_stats=True)
  (8): ReLU(inplace=True)
  (9): Flatten()
  (10): ODEBlock(
    (odefunc): ODEfunc(
      (fc1): Linear(in_features=3136, out_features=16, bias=True)
      (fc2): Linear(in_features=16, out_features=3136, bias=True)
    )
  )
  (11): Linear(in_features=3136, out_features=10, bias=True)
)
Sequential(
  (0): Conv2d(3, 64, kernel_size=(3, 3), stride=(1, 1))
  (1): BatchNorm2d(64, eps=64, momentum=0.1, affine=True, track_running_stats=True)
  (2): ReLU(inplace=True)
  (3): Conv2d(64, 64, kernel_size=(4, 4), stride=(2, 2), padding=(1, 1))
  (4): BatchNorm2d(64, eps=128, momentum=0.1, affine=True, track_running_stats=True)
  (5): ReLU(inplace=True)
  (6): Conv2d(128, 128, kernel_size=(4, 4), stride=(2, 2), padding=(1, 1))
  (7): BatchNorm2d(64, eps=128, momentum=0.1, affine=True, track_running_stats=True)
  (8): ReLU(inplace=True)
  (9): Flatten()
  (10): ODEBlock(
    (odefunc): ODEfunc(
      (fc1): Linear(in_features=3136, out_features=16, bias=True)
      (fc2): Linear(in_features=16, out_features=3136, bias=True)
    )
  )
  (11): Linear(in_features=3136, out_features=10, bias=True)
)
Sequential(
  (0): Conv2d(3, 64, kernel_size=(3, 3), stride=(1, 1))
  (1): BatchNorm2d(64, eps=64, momentum=0.1, affine=True, track_running_stats=True)
  (2): ReLU(inplace=True)
  (3): Conv2d(64, 64, kernel_size=(4, 4), stride=(2, 2), padding=(1, 1))
  (4): BatchNorm2d(64, eps=128, momentum=0.1, affine=True, track_running_stats=True)
  (5): ReLU(inplace=True)
  (6): Conv2d(128, 128, kernel_size=(4, 4), stride=(2, 2), padding=(1, 1))
  (7): BatchNorm2d(64, eps=128, momentum=0.1, affine=True, track_running_stats=True)
  (8): ReLU(inplace=True)
  (9): Flatten()
  (10): ODEBlock(
    (odefunc): ODEfunc(
      (fc1): Linear(in_features=3136, out_features=16, bias=True)
      (fc2): Linear(in_features=16, out_features=3136, bias=True)
    )
  )
  (11): Linear(in_features=3136, out_features=10, bias=True)
)
Number of parameters: 464922
Number of parameters: 464922
Number of parameters: 464922
Number of parameters: 464922
/home/manzand/Documents/Python/neuralODE_examples/cifar/odenet_cifar_example.py
/home/manzand/Documents/Python/neuralODE_examples/cifar/odenet_cifar_example.py
/home/manzand/Documents/Python/neuralODE_examples/cifar/odenet_cifar_example.py
…
Namespace(adjoint=False, batch_size=128, data_aug=False, debug=False, downsampling_method='conv', gpu=0, lr=0.01, nepochs=100, network='odenet', save='../logs/cifarmid', test_batch_size=1000, tol=0.001)
Namespace(adjoint=False, batch_size=128, data_aug=False, debug=False, downsampling_method='conv', gpu=0, lr=0.01, nepochs=100, network='odenet', save='../logs/cifarmid', test_batch_size=1000, tol=0.001)
Namespace(adjoint=False, batch_size=128, data_aug=False, debug=False, downsampling_method='conv', gpu=0, lr=0.01, nepochs=100, network='odenet', save='../logs/cifarmid', test_batch_size=1000, tol=0.001)
Sequential(
  (0): Conv2d(3, 64, kernel_size=(3, 3), stride=(1, 1))
  (1): BatchNorm2d(64, eps=64, momentum=0.1, affine=True, track_running_stats=True)
  (2): ReLU(inplace=True)
  (3): Conv2d(64, 128, kernel_size=(4, 4), stride=(2, 2), padding=(1, 1))
  (4): BatchNorm2d(64, eps=128, momentum=0.1, affine=True, track_running_stats=True)
  (5): ReLU(inplace=True)
  (6): Conv2d(128, 128, kernel_size=(4, 4), stride=(2, 2), padding=(1, 1))
  (7): BatchNorm2d(64, eps=128, momentum=0.1, affine=True, track_running_stats=True)
  (8): ReLU(inplace=True)
  (9): Flatten()
  (10): ODEBlock(
    (odefunc): ODEfunc(
      (fc1): Linear(in_features=3136, out_features=16, bias=True)
      (fc2): Linear(in_features=16, out_features=3136, bias=True)
    )
  )
  (11): Linear(in_features=3136, out_features=10, bias=True)
)
Sequential(
  (0): Conv2d(3, 64, kernel_size=(3, 3), stride=(1, 1))
  (1): BatchNorm2d(64, eps=64, momentum=0.1, affine=True, track_running_stats=True)
  (2): ReLU(inplace=True)
  (3): Conv2d(64, 128, kernel_size=(4, 4), stride=(2, 2), padding=(1, 1))
  (4): BatchNorm2d(64, eps=128, momentum=0.1, affine=True, track_running_stats=True)
  (5): ReLU(inplace=True)
  (6): Conv2d(128, 128, kernel_size=(4, 4), stride=(2, 2), padding=(1, 1))
  (7): BatchNorm2d(64, eps=128, momentum=0.1, affine=True, track_running_stats=True)
  (8): ReLU(inplace=True)
  (9): Flatten()
  (10): ODEBlock(
    (odefunc): ODEfunc(
      (fc1): Linear(in_features=3136, out_features=16, bias=True)
      (fc2): Linear(in_features=16, out_features=3136, bias=True)
    )
  )
  (11): Linear(in_features=3136, out_features=10, bias=True)
)
Sequential(
  (0): Conv2d(3, 64, kernel_size=(3, 3), stride=(1, 1))
  (1): BatchNorm2d(64, eps=64, momentum=0.1, affine=True, track_running_stats=True)
  (2): ReLU(inplace=True)
  (3): Conv2d(64, 128, kernel_size=(4, 4), stride=(2, 2), padding=(1, 1))
  (4): BatchNorm2d(64, eps=128, momentum=0.1, affine=True, track_running_stats=True)
  (5): ReLU(inplace=True)
  (6): Conv2d(128, 128, kernel_size=(4, 4), stride=(2, 2), padding=(1, 1))
  (7): BatchNorm2d(64, eps=128, momentum=0.1, affine=True, track_running_stats=True)
  (8): ReLU(inplace=True)
  (9): Flatten()
  (10): ODEBlock(
    (odefunc): ODEfunc(
      (fc1): Linear(in_features=3136, out_features=16, bias=True)
      (fc2): Linear(in_features=16, out_features=3136, bias=True)
    )
  )
  (11): Linear(in_features=3136, out_features=10, bias=True)
)
Sequential(
  (0): Conv2d(3, 64, kernel_size=(3, 3), stride=(1, 1))
  (1): BatchNorm2d(64, eps=64, momentum=0.1, affine=True, track_running_stats=True)
  (2): ReLU(inplace=True)
  (3): Conv2d(64, 128, kernel_size=(4, 4), stride=(2, 2), padding=(1, 1))
  (4): BatchNorm2d(64, eps=128, momentum=0.1, affine=True, track_running_stats=True)
  (5): ReLU(inplace=True)
  (6): Conv2d(128, 128, kernel_size=(4, 4), stride=(2, 2), padding=(1, 1))
  (7): BatchNorm2d(64, eps=128, momentum=0.1, affine=True, track_running_stats=True)
  (8): ReLU(inplace=True)
  (9): Flatten()
  (10): ODEBlock(
    (odefunc): ODEfunc(
      (fc1): Linear(in_features=3136, out_features=16, bias=True)
      (fc2): Linear(in_features=16, out_features=3136, bias=True)
    )
  )
  (11): Linear(in_features=3136, out_features=10, bias=True)
)
Sequential(
  (0): Conv2d(3, 64, kernel_size=(3, 3), stride=(1, 1))
  (1): BatchNorm2d(64, eps=64, momentum=0.1, affine=True, track_running_stats=True)
  (2): ReLU(inplace=True)
  (3): Conv2d(64, 128, kernel_size=(4, 4), stride=(2, 2), padding=(1, 1))
  (4): BatchNorm2d(64, eps=128, momentum=0.1, affine=True, track_running_stats=True)
  (5): ReLU(inplace=True)
  (6): Conv2d(128, 128, kernel_size=(4, 4), stride=(2, 2), padding=(1, 1))
  (7): BatchNorm2d(64, eps=128, momentum=0.1, affine=True, track_running_stats=True)
  (8): ReLU(inplace=True)
  (9): Flatten()
  (10): ODEBlock(
    (odefunc): ODEfunc(
      (fc1): Linear(in_features=3136, out_features=16, bias=True)
      (fc2): Linear(in_features=16, out_features=3136, bias=True)
    )
  )
  (11): Linear(in_features=3136, out_features=10, bias=True)
)
Number of parameters: 530522
Number of parameters: 530522
Number of parameters: 530522
Number of parameters: 530522
Number of parameters: 530522
/home/manzand/Documents/Python/neuralODE_examples/cifar/odenet_cifar_example.py
/home/manzand/Documents/Python/neuralODE_examples/cifar/odenet_cifar_example.py
/home/manzand/Documents/Python/neuralODE_examples/cifar/odenet_cifar_example.py
…
Namespace(adjoint=False, batch_size=128, data_aug=False, debug=False, downsampling_method='conv', gpu=0, lr=0.01, nepochs=100, network='odenet', save='../logs/cifarmid', test_batch_size=1000, tol=0.001)
Namespace(adjoint=False, batch_size=128, data_aug=False, debug=False, downsampling_method='conv', gpu=0, lr=0.01, nepochs=100, network='odenet', save='../logs/cifarmid', test_batch_size=1000, tol=0.001)
Namespace(adjoint=False, batch_size=128, data_aug=False, debug=False, downsampling_method='conv', gpu=0, lr=0.01, nepochs=100, network='odenet', save='../logs/cifarmid', test_batch_size=1000, tol=0.001)
Sequential(
  (0): Conv2d(3, 64, kernel_size=(3, 3), stride=(1, 1))
  (1): BatchNorm2d(64, eps=64, momentum=0.1, affine=True, track_running_stats=True)
  (2): ReLU(inplace=True)
  (3): Conv2d(64, 128, kernel_size=(4, 4), stride=(2, 2), padding=(1, 1))
  (4): BatchNorm2d(128, eps=128, momentum=0.1, affine=True, track_running_stats=True)
  (5): ReLU(inplace=True)
  (6): Conv2d(128, 128, kernel_size=(4, 4), stride=(2, 2), padding=(1, 1))
  (7): BatchNorm2d(128, eps=128, momentum=0.1, affine=True, track_running_stats=True)
  (8): ReLU(inplace=True)
  (9): Flatten()
  (10): ODEBlock(
    (odefunc): ODEfunc(
      (fc1): Linear(in_features=3136, out_features=16, bias=True)
      (fc2): Linear(in_features=16, out_features=3136, bias=True)
    )
  )
  (11): Linear(in_features=3136, out_features=10, bias=True)
)
Sequential(
  (0): Conv2d(3, 64, kernel_size=(3, 3), stride=(1, 1))
  (1): BatchNorm2d(64, eps=64, momentum=0.1, affine=True, track_running_stats=True)
  (2): ReLU(inplace=True)
  (3): Conv2d(64, 128, kernel_size=(4, 4), stride=(2, 2), padding=(1, 1))
  (4): BatchNorm2d(128, eps=128, momentum=0.1, affine=True, track_running_stats=True)
  (5): ReLU(inplace=True)
  (6): Conv2d(128, 128, kernel_size=(4, 4), stride=(2, 2), padding=(1, 1))
  (7): BatchNorm2d(128, eps=128, momentum=0.1, affine=True, track_running_stats=True)
  (8): ReLU(inplace=True)
  (9): Flatten()
  (10): ODEBlock(
    (odefunc): ODEfunc(
      (fc1): Linear(in_features=3136, out_features=16, bias=True)
      (fc2): Linear(in_features=16, out_features=3136, bias=True)
    )
  )
  (11): Linear(in_features=3136, out_features=10, bias=True)
)
Sequential(
  (0): Conv2d(3, 64, kernel_size=(3, 3), stride=(1, 1))
  (1): BatchNorm2d(64, eps=64, momentum=0.1, affine=True, track_running_stats=True)
  (2): ReLU(inplace=True)
  (3): Conv2d(64, 128, kernel_size=(4, 4), stride=(2, 2), padding=(1, 1))
  (4): BatchNorm2d(128, eps=128, momentum=0.1, affine=True, track_running_stats=True)
  (5): ReLU(inplace=True)
  (6): Conv2d(128, 128, kernel_size=(4, 4), stride=(2, 2), padding=(1, 1))
  (7): BatchNorm2d(128, eps=128, momentum=0.1, affine=True, track_running_stats=True)
  (8): ReLU(inplace=True)
  (9): Flatten()
  (10): ODEBlock(
    (odefunc): ODEfunc(
      (fc1): Linear(in_features=3136, out_features=16, bias=True)
      (fc2): Linear(in_features=16, out_features=3136, bias=True)
    )
  )
  (11): Linear(in_features=3136, out_features=10, bias=True)
)
Sequential(
  (0): Conv2d(3, 64, kernel_size=(3, 3), stride=(1, 1))
  (1): BatchNorm2d(64, eps=64, momentum=0.1, affine=True, track_running_stats=True)
  (2): ReLU(inplace=True)
  (3): Conv2d(64, 128, kernel_size=(4, 4), stride=(2, 2), padding=(1, 1))
  (4): BatchNorm2d(128, eps=128, momentum=0.1, affine=True, track_running_stats=True)
  (5): ReLU(inplace=True)
  (6): Conv2d(128, 128, kernel_size=(4, 4), stride=(2, 2), padding=(1, 1))
  (7): BatchNorm2d(128, eps=128, momentum=0.1, affine=True, track_running_stats=True)
  (8): ReLU(inplace=True)
  (9): Flatten()
  (10): ODEBlock(
    (odefunc): ODEfunc(
      (fc1): Linear(in_features=3136, out_features=16, bias=True)
      (fc2): Linear(in_features=16, out_features=3136, bias=True)
    )
  )
  (11): Linear(in_features=3136, out_features=10, bias=True)
)
Sequential(
  (0): Conv2d(3, 64, kernel_size=(3, 3), stride=(1, 1))
  (1): BatchNorm2d(64, eps=64, momentum=0.1, affine=True, track_running_stats=True)
  (2): ReLU(inplace=True)
  (3): Conv2d(64, 128, kernel_size=(4, 4), stride=(2, 2), padding=(1, 1))
  (4): BatchNorm2d(128, eps=128, momentum=0.1, affine=True, track_running_stats=True)
  (5): ReLU(inplace=True)
  (6): Conv2d(128, 128, kernel_size=(4, 4), stride=(2, 2), padding=(1, 1))
  (7): BatchNorm2d(128, eps=128, momentum=0.1, affine=True, track_running_stats=True)
  (8): ReLU(inplace=True)
  (9): Flatten()
  (10): ODEBlock(
    (odefunc): ODEfunc(
      (fc1): Linear(in_features=3136, out_features=16, bias=True)
      (fc2): Linear(in_features=16, out_features=3136, bias=True)
    )
  )
  (11): Linear(in_features=3136, out_features=10, bias=True)
)
Sequential(
  (0): Conv2d(3, 64, kernel_size=(3, 3), stride=(1, 1))
  (1): BatchNorm2d(64, eps=64, momentum=0.1, affine=True, track_running_stats=True)
  (2): ReLU(inplace=True)
  (3): Conv2d(64, 128, kernel_size=(4, 4), stride=(2, 2), padding=(1, 1))
  (4): BatchNorm2d(128, eps=128, momentum=0.1, affine=True, track_running_stats=True)
  (5): ReLU(inplace=True)
  (6): Conv2d(128, 128, kernel_size=(4, 4), stride=(2, 2), padding=(1, 1))
  (7): BatchNorm2d(128, eps=128, momentum=0.1, affine=True, track_running_stats=True)
  (8): ReLU(inplace=True)
  (9): Flatten()
  (10): ODEBlock(
    (odefunc): ODEfunc(
      (fc1): Linear(in_features=3136, out_features=16, bias=True)
      (fc2): Linear(in_features=16, out_features=3136, bias=True)
    )
  )
  (11): Linear(in_features=3136, out_features=10, bias=True)
)
Number of parameters: 530778
Number of parameters: 530778
Number of parameters: 530778
Number of parameters: 530778
Number of parameters: 530778
Number of parameters: 530778
/home/manzand/Documents/Python/neuralODE_examples/cifar/odenet_cifar_example.py
/home/manzand/Documents/Python/neuralODE_examples/cifar/odenet_cifar_example.py
/home/manzand/Documents/Python/neuralODE_examples/cifar/odenet_cifar_example.py
…
Namespace(adjoint=False, batch_size=128, data_aug=False, debug=False, downsampling_method='conv', gpu=0, lr=0.01, nepochs=100, network='odenet', save='../logs/cifarmid', test_batch_size=1000, tol=0.001)
Namespace(adjoint=False, batch_size=128, data_aug=False, debug=False, downsampling_method='conv', gpu=0, lr=0.01, nepochs=100, network='odenet', save='../logs/cifarmid', test_batch_size=1000, tol=0.001)
Namespace(adjoint=False, batch_size=128, data_aug=False, debug=False, downsampling_method='conv', gpu=0, lr=0.01, nepochs=100, network='odenet', save='../logs/cifarmid', test_batch_size=1000, tol=0.001)
Sequential(
  (0): Conv2d(3, 64, kernel_size=(3, 3), stride=(1, 1))
  (1): BatchNorm2d(64, eps=64, momentum=0.1, affine=True, track_running_stats=True)
  (2): ReLU(inplace=True)
  (3): Conv2d(64, 128, kernel_size=(4, 4), stride=(2, 2), padding=(1, 1))
  (4): BatchNorm2d(128, eps=128, momentum=0.1, affine=True, track_running_stats=True)
  (5): ReLU(inplace=True)
  (6): Conv2d(128, 128, kernel_size=(4, 4), stride=(2, 2), padding=(1, 1))
  (7): BatchNorm2d(128, eps=128, momentum=0.1, affine=True, track_running_stats=True)
  (8): ReLU(inplace=True)
  (9): Flatten()
  (10): ODEBlock(
    (odefunc): ODEfunc(
      (fc1): Linear(in_features=6272, out_features=32, bias=True)
      (fc2): Linear(in_features=32, out_features=6272, bias=True)
    )
  )
  (11): Linear(in_features=6272, out_features=10, bias=True)
)
Sequential(
  (0): Conv2d(3, 64, kernel_size=(3, 3), stride=(1, 1))
  (1): BatchNorm2d(64, eps=64, momentum=0.1, affine=True, track_running_stats=True)
  (2): ReLU(inplace=True)
  (3): Conv2d(64, 128, kernel_size=(4, 4), stride=(2, 2), padding=(1, 1))
  (4): BatchNorm2d(128, eps=128, momentum=0.1, affine=True, track_running_stats=True)
  (5): ReLU(inplace=True)
  (6): Conv2d(128, 128, kernel_size=(4, 4), stride=(2, 2), padding=(1, 1))
  (7): BatchNorm2d(128, eps=128, momentum=0.1, affine=True, track_running_stats=True)
  (8): ReLU(inplace=True)
  (9): Flatten()
  (10): ODEBlock(
    (odefunc): ODEfunc(
      (fc1): Linear(in_features=6272, out_features=32, bias=True)
      (fc2): Linear(in_features=32, out_features=6272, bias=True)
    )
  )
  (11): Linear(in_features=6272, out_features=10, bias=True)
)
Sequential(
  (0): Conv2d(3, 64, kernel_size=(3, 3), stride=(1, 1))
  (1): BatchNorm2d(64, eps=64, momentum=0.1, affine=True, track_running_stats=True)
  (2): ReLU(inplace=True)
  (3): Conv2d(64, 128, kernel_size=(4, 4), stride=(2, 2), padding=(1, 1))
  (4): BatchNorm2d(128, eps=128, momentum=0.1, affine=True, track_running_stats=True)
  (5): ReLU(inplace=True)
  (6): Conv2d(128, 128, kernel_size=(4, 4), stride=(2, 2), padding=(1, 1))
  (7): BatchNorm2d(128, eps=128, momentum=0.1, affine=True, track_running_stats=True)
  (8): ReLU(inplace=True)
  (9): Flatten()
  (10): ODEBlock(
    (odefunc): ODEfunc(
      (fc1): Linear(in_features=6272, out_features=32, bias=True)
      (fc2): Linear(in_features=32, out_features=6272, bias=True)
    )
  )
  (11): Linear(in_features=6272, out_features=10, bias=True)
)
Sequential(
  (0): Conv2d(3, 64, kernel_size=(3, 3), stride=(1, 1))
  (1): BatchNorm2d(64, eps=64, momentum=0.1, affine=True, track_running_stats=True)
  (2): ReLU(inplace=True)
  (3): Conv2d(64, 128, kernel_size=(4, 4), stride=(2, 2), padding=(1, 1))
  (4): BatchNorm2d(128, eps=128, momentum=0.1, affine=True, track_running_stats=True)
  (5): ReLU(inplace=True)
  (6): Conv2d(128, 128, kernel_size=(4, 4), stride=(2, 2), padding=(1, 1))
  (7): BatchNorm2d(128, eps=128, momentum=0.1, affine=True, track_running_stats=True)
  (8): ReLU(inplace=True)
  (9): Flatten()
  (10): ODEBlock(
    (odefunc): ODEfunc(
      (fc1): Linear(in_features=6272, out_features=32, bias=True)
      (fc2): Linear(in_features=32, out_features=6272, bias=True)
    )
  )
  (11): Linear(in_features=6272, out_features=10, bias=True)
)
Sequential(
  (0): Conv2d(3, 64, kernel_size=(3, 3), stride=(1, 1))
  (1): BatchNorm2d(64, eps=64, momentum=0.1, affine=True, track_running_stats=True)
  (2): ReLU(inplace=True)
  (3): Conv2d(64, 128, kernel_size=(4, 4), stride=(2, 2), padding=(1, 1))
  (4): BatchNorm2d(128, eps=128, momentum=0.1, affine=True, track_running_stats=True)
  (5): ReLU(inplace=True)
  (6): Conv2d(128, 128, kernel_size=(4, 4), stride=(2, 2), padding=(1, 1))
  (7): BatchNorm2d(128, eps=128, momentum=0.1, affine=True, track_running_stats=True)
  (8): ReLU(inplace=True)
  (9): Flatten()
  (10): ODEBlock(
    (odefunc): ODEfunc(
      (fc1): Linear(in_features=6272, out_features=32, bias=True)
      (fc2): Linear(in_features=32, out_features=6272, bias=True)
    )
  )
  (11): Linear(in_features=6272, out_features=10, bias=True)
)
Sequential(
  (0): Conv2d(3, 64, kernel_size=(3, 3), stride=(1, 1))
  (1): BatchNorm2d(64, eps=64, momentum=0.1, affine=True, track_running_stats=True)
  (2): ReLU(inplace=True)
  (3): Conv2d(64, 128, kernel_size=(4, 4), stride=(2, 2), padding=(1, 1))
  (4): BatchNorm2d(128, eps=128, momentum=0.1, affine=True, track_running_stats=True)
  (5): ReLU(inplace=True)
  (6): Conv2d(128, 128, kernel_size=(4, 4), stride=(2, 2), padding=(1, 1))
  (7): BatchNorm2d(128, eps=128, momentum=0.1, affine=True, track_running_stats=True)
  (8): ReLU(inplace=True)
  (9): Flatten()
  (10): ODEBlock(
    (odefunc): ODEfunc(
      (fc1): Linear(in_features=6272, out_features=32, bias=True)
      (fc2): Linear(in_features=32, out_features=6272, bias=True)
    )
  )
  (11): Linear(in_features=6272, out_features=10, bias=True)
)
Sequential(
  (0): Conv2d(3, 64, kernel_size=(3, 3), stride=(1, 1))
  (1): BatchNorm2d(64, eps=64, momentum=0.1, affine=True, track_running_stats=True)
  (2): ReLU(inplace=True)
  (3): Conv2d(64, 128, kernel_size=(4, 4), stride=(2, 2), padding=(1, 1))
  (4): BatchNorm2d(128, eps=128, momentum=0.1, affine=True, track_running_stats=True)
  (5): ReLU(inplace=True)
  (6): Conv2d(128, 128, kernel_size=(4, 4), stride=(2, 2), padding=(1, 1))
  (7): BatchNorm2d(128, eps=128, momentum=0.1, affine=True, track_running_stats=True)
  (8): ReLU(inplace=True)
  (9): Flatten()
  (10): ODEBlock(
    (odefunc): ODEfunc(
      (fc1): Linear(in_features=6272, out_features=32, bias=True)
      (fc2): Linear(in_features=32, out_features=6272, bias=True)
    )
  )
  (11): Linear(in_features=6272, out_features=10, bias=True)
)
Sequential(
  (0): Conv2d(3, 64, kernel_size=(3, 3), stride=(1, 1))
  (1): BatchNorm2d(64, eps=64, momentum=0.1, affine=True, track_running_stats=True)
  (2): ReLU(inplace=True)
  (3): Conv2d(64, 128, kernel_size=(4, 4), stride=(2, 2), padding=(1, 1))
  (4): BatchNorm2d(128, eps=128, momentum=0.1, affine=True, track_running_stats=True)
  (5): ReLU(inplace=True)
  (6): Conv2d(128, 128, kernel_size=(4, 4), stride=(2, 2), padding=(1, 1))
  (7): BatchNorm2d(128, eps=128, momentum=0.1, affine=True, track_running_stats=True)
  (8): ReLU(inplace=True)
  (9): Flatten()
  (10): ODEBlock(
    (odefunc): ODEfunc(
      (fc1): Linear(in_features=6272, out_features=32, bias=True)
      (fc2): Linear(in_features=32, out_features=6272, bias=True)
    )
  )
  (11): Linear(in_features=6272, out_features=10, bias=True)
)
Number of parameters: 866346
Number of parameters: 866346
Number of parameters: 866346
Number of parameters: 866346
Number of parameters: 866346
Number of parameters: 866346
Number of parameters: 866346
Number of parameters: 866346
/home/manzand/Documents/Python/neuralODE_examples/cifar/odenet_cifar_example.py
/home/manzand/Documents/Python/neuralODE_examples/cifar/odenet_cifar_example.py
…
Namespace(adjoint=False, batch_size=128, data_aug=False, debug=False, downsampling_method='conv', gpu=0, lr=0.01, nepochs=100, network='odenet', save='../logs/cifarmid', test_batch_size=1000, tol=0.001)
Namespace(adjoint=False, batch_size=128, data_aug=False, debug=False, downsampling_method='conv', gpu=0, lr=0.01, nepochs=100, network='odenet', save='../logs/cifarmid', test_batch_size=1000, tol=0.001)
Namespace(adjoint=False, batch_size=128, data_aug=False, debug=False, downsampling_method='conv', gpu=0, lr=0.01, nepochs=100, network='odenet', save='../logs/cifarmid', test_batch_size=1000, tol=0.001)
Sequential(
  (0): Conv2d(3, 64, kernel_size=(3, 3), stride=(1, 1))
  (1): BatchNorm2d(64, eps=64, momentum=0.1, affine=True, track_running_stats=True)
  (2): ReLU(inplace=True)
  (3): Conv2d(64, 128, kernel_size=(4, 4), stride=(2, 2), padding=(1, 1))
  (4): BatchNorm2d(128, eps=128, momentum=0.1, affine=True, track_running_stats=True)
  (5): ReLU(inplace=True)
  (6): Conv2d(128, 128, kernel_size=(4, 4), stride=(2, 2), padding=(1, 1))
  (7): BatchNorm2d(128, eps=128, momentum=0.1, affine=True, track_running_stats=True)
  (8): ReLU(inplace=True)
  (9): Flatten()
  (10): ODEBlock(
    (odefunc): ODEfunc(
      (fc1): Linear(in_features=6272, out_features=32, bias=True)
      (fc2): Linear(in_features=32, out_features=32, bias=True)
      (fc3): Linear(in_features=32, out_features=6272, bias=True)
    )
  )
  (11): Linear(in_features=6272, out_features=10, bias=True)
)
Sequential(
  (0): Conv2d(3, 64, kernel_size=(3, 3), stride=(1, 1))
  (1): BatchNorm2d(64, eps=64, momentum=0.1, affine=True, track_running_stats=True)
  (2): ReLU(inplace=True)
  (3): Conv2d(64, 128, kernel_size=(4, 4), stride=(2, 2), padding=(1, 1))
  (4): BatchNorm2d(128, eps=128, momentum=0.1, affine=True, track_running_stats=True)
  (5): ReLU(inplace=True)
  (6): Conv2d(128, 128, kernel_size=(4, 4), stride=(2, 2), padding=(1, 1))
  (7): BatchNorm2d(128, eps=128, momentum=0.1, affine=True, track_running_stats=True)
  (8): ReLU(inplace=True)
  (9): Flatten()
  (10): ODEBlock(
    (odefunc): ODEfunc(
      (fc1): Linear(in_features=6272, out_features=32, bias=True)
      (fc2): Linear(in_features=32, out_features=32, bias=True)
      (fc3): Linear(in_features=32, out_features=6272, bias=True)
    )
  )
  (11): Linear(in_features=6272, out_features=10, bias=True)
)
Sequential(
  (0): Conv2d(3, 64, kernel_size=(3, 3), stride=(1, 1))
  (1): BatchNorm2d(64, eps=64, momentum=0.1, affine=True, track_running_stats=True)
  (2): ReLU(inplace=True)
  (3): Conv2d(64, 128, kernel_size=(4, 4), stride=(2, 2), padding=(1, 1))
  (4): BatchNorm2d(128, eps=128, momentum=0.1, affine=True, track_running_stats=True)
  (5): ReLU(inplace=True)
  (6): Conv2d(128, 128, kernel_size=(4, 4), stride=(2, 2), padding=(1, 1))
  (7): BatchNorm2d(128, eps=128, momentum=0.1, affine=True, track_running_stats=True)
  (8): ReLU(inplace=True)
  (9): Flatten()
  (10): ODEBlock(
    (odefunc): ODEfunc(
      (fc1): Linear(in_features=6272, out_features=32, bias=True)
      (fc2): Linear(in_features=32, out_features=32, bias=True)
      (fc3): Linear(in_features=32, out_features=6272, bias=True)
    )
  )
  (11): Linear(in_features=6272, out_features=10, bias=True)
)
Sequential(
  (0): Conv2d(3, 64, kernel_size=(3, 3), stride=(1, 1))
  (1): BatchNorm2d(64, eps=64, momentum=0.1, affine=True, track_running_stats=True)
  (2): ReLU(inplace=True)
  (3): Conv2d(64, 128, kernel_size=(4, 4), stride=(2, 2), padding=(1, 1))
  (4): BatchNorm2d(128, eps=128, momentum=0.1, affine=True, track_running_stats=True)
  (5): ReLU(inplace=True)
  (6): Conv2d(128, 128, kernel_size=(4, 4), stride=(2, 2), padding=(1, 1))
  (7): BatchNorm2d(128, eps=128, momentum=0.1, affine=True, track_running_stats=True)
  (8): ReLU(inplace=True)
  (9): Flatten()
  (10): ODEBlock(
    (odefunc): ODEfunc(
      (fc1): Linear(in_features=6272, out_features=32, bias=True)
      (fc2): Linear(in_features=32, out_features=32, bias=True)
      (fc3): Linear(in_features=32, out_features=6272, bias=True)
    )
  )
  (11): Linear(in_features=6272, out_features=10, bias=True)
)
Sequential(
  (0): Conv2d(3, 64, kernel_size=(3, 3), stride=(1, 1))
  (1): BatchNorm2d(64, eps=64, momentum=0.1, affine=True, track_running_stats=True)
  (2): ReLU(inplace=True)
  (3): Conv2d(64, 128, kernel_size=(4, 4), stride=(2, 2), padding=(1, 1))
  (4): BatchNorm2d(128, eps=128, momentum=0.1, affine=True, track_running_stats=True)
  (5): ReLU(inplace=True)
  (6): Conv2d(128, 128, kernel_size=(4, 4), stride=(2, 2), padding=(1, 1))
  (7): BatchNorm2d(128, eps=128, momentum=0.1, affine=True, track_running_stats=True)
  (8): ReLU(inplace=True)
  (9): Flatten()
  (10): ODEBlock(
    (odefunc): ODEfunc(
      (fc1): Linear(in_features=6272, out_features=32, bias=True)
      (fc2): Linear(in_features=32, out_features=32, bias=True)
      (fc3): Linear(in_features=32, out_features=6272, bias=True)
    )
  )
  (11): Linear(in_features=6272, out_features=10, bias=True)
)
Sequential(
  (0): Conv2d(3, 64, kernel_size=(3, 3), stride=(1, 1))
  (1): BatchNorm2d(64, eps=64, momentum=0.1, affine=True, track_running_stats=True)
  (2): ReLU(inplace=True)
  (3): Conv2d(64, 128, kernel_size=(4, 4), stride=(2, 2), padding=(1, 1))
  (4): BatchNorm2d(128, eps=128, momentum=0.1, affine=True, track_running_stats=True)
  (5): ReLU(inplace=True)
  (6): Conv2d(128, 128, kernel_size=(4, 4), stride=(2, 2), padding=(1, 1))
  (7): BatchNorm2d(128, eps=128, momentum=0.1, affine=True, track_running_stats=True)
  (8): ReLU(inplace=True)
  (9): Flatten()
  (10): ODEBlock(
    (odefunc): ODEfunc(
      (fc1): Linear(in_features=6272, out_features=32, bias=True)
      (fc2): Linear(in_features=32, out_features=32, bias=True)
      (fc3): Linear(in_features=32, out_features=6272, bias=True)
    )
  )
  (11): Linear(in_features=6272, out_features=10, bias=True)
)
Sequential(
  (0): Conv2d(3, 64, kernel_size=(3, 3), stride=(1, 1))
  (1): BatchNorm2d(64, eps=64, momentum=0.1, affine=True, track_running_stats=True)
  (2): ReLU(inplace=True)
  (3): Conv2d(64, 128, kernel_size=(4, 4), stride=(2, 2), padding=(1, 1))
  (4): BatchNorm2d(128, eps=128, momentum=0.1, affine=True, track_running_stats=True)
  (5): ReLU(inplace=True)
  (6): Conv2d(128, 128, kernel_size=(4, 4), stride=(2, 2), padding=(1, 1))
  (7): BatchNorm2d(128, eps=128, momentum=0.1, affine=True, track_running_stats=True)
  (8): ReLU(inplace=True)
  (9): Flatten()
  (10): ODEBlock(
    (odefunc): ODEfunc(
      (fc1): Linear(in_features=6272, out_features=32, bias=True)
      (fc2): Linear(in_features=32, out_features=32, bias=True)
      (fc3): Linear(in_features=32, out_features=6272, bias=True)
    )
  )
  (11): Linear(in_features=6272, out_features=10, bias=True)
)
Sequential(
  (0): Conv2d(3, 64, kernel_size=(3, 3), stride=(1, 1))
  (1): BatchNorm2d(64, eps=64, momentum=0.1, affine=True, track_running_stats=True)
  (2): ReLU(inplace=True)
  (3): Conv2d(64, 128, kernel_size=(4, 4), stride=(2, 2), padding=(1, 1))
  (4): BatchNorm2d(128, eps=128, momentum=0.1, affine=True, track_running_stats=True)
  (5): ReLU(inplace=True)
  (6): Conv2d(128, 128, kernel_size=(4, 4), stride=(2, 2), padding=(1, 1))
  (7): BatchNorm2d(128, eps=128, momentum=0.1, affine=True, track_running_stats=True)
  (8): ReLU(inplace=True)
  (9): Flatten()
  (10): ODEBlock(
    (odefunc): ODEfunc(
      (fc1): Linear(in_features=6272, out_features=32, bias=True)
      (fc2): Linear(in_features=32, out_features=32, bias=True)
      (fc3): Linear(in_features=32, out_features=6272, bias=True)
    )
  )
  (11): Linear(in_features=6272, out_features=10, bias=True)
)
Sequential(
  (0): Conv2d(3, 64, kernel_size=(3, 3), stride=(1, 1))
  (1): BatchNorm2d(64, eps=64, momentum=0.1, affine=True, track_running_stats=True)
  (2): ReLU(inplace=True)
  (3): Conv2d(64, 128, kernel_size=(4, 4), stride=(2, 2), padding=(1, 1))
  (4): BatchNorm2d(128, eps=128, momentum=0.1, affine=True, track_running_stats=True)
  (5): ReLU(inplace=True)
  (6): Conv2d(128, 128, kernel_size=(4, 4), stride=(2, 2), padding=(1, 1))
  (7): BatchNorm2d(128, eps=128, momentum=0.1, affine=True, track_running_stats=True)
  (8): ReLU(inplace=True)
  (9): Flatten()
  (10): ODEBlock(
    (odefunc): ODEfunc(
      (fc1): Linear(in_features=6272, out_features=32, bias=True)
      (fc2): Linear(in_features=32, out_features=32, bias=True)
      (fc3): Linear(in_features=32, out_features=6272, bias=True)
    )
  )
  (11): Linear(in_features=6272, out_features=10, bias=True)
)
Number of parameters: 867402
Number of parameters: 867402
Number of parameters: 867402
Number of parameters: 867402
Number of parameters: 867402
Number of parameters: 867402
Number of parameters: 867402
Number of parameters: 867402
Number of parameters: 867402
Epoch 0000 | Time 1.058 (1.058) | NFE-F 32.0 | NFE-B 0.0 | Train Acc 0.1153 | Test Acc 0.1170
…
Namespace(adjoint=False, batch_size=32, data_aug=False, debug=False, downsampling_method='conv', gpu=0, lr=0.001, nepochs=100, network='odenet', save='../logs/cifarmid', test_batch_size=1000, tol=0.001)
Namespace(adjoint=False, batch_size=32, data_aug=False, debug=False, downsampling_method='conv', gpu=0, lr=0.001, nepochs=100, network='odenet', save='../logs/cifarmid', test_batch_size=1000, tol=0.001)
Namespace(adjoint=False, batch_size=32, data_aug=False, debug=False, downsampling_method='conv', gpu=0, lr=0.001, nepochs=100, network='odenet', save='../logs/cifarmid', test_batch_size=1000, tol=0.001)
Sequential(
  (0): Conv2d(3, 64, kernel_size=(3, 3), stride=(1, 1))
  (1): BatchNorm2d(64, eps=64, momentum=0.1, affine=True, track_running_stats=True)
  (2): ReLU(inplace=True)
  (3): Conv2d(64, 128, kernel_size=(4, 4), stride=(2, 2), padding=(1, 1))
  (4): BatchNorm2d(128, eps=128, momentum=0.1, affine=True, track_running_stats=True)
  (5): ReLU(inplace=True)
  (6): Conv2d(128, 128, kernel_size=(4, 4), stride=(2, 2), padding=(1, 1))
  (7): BatchNorm2d(128, eps=128, momentum=0.1, affine=True, track_running_stats=True)
  (8): ReLU(inplace=True)
  (9): Flatten()
  (10): ODEBlock(
    (odefunc): ODEfunc(
      (fc1): Linear(in_features=6272, out_features=32, bias=True)
      (fc2): Linear(in_features=32, out_features=32, bias=True)
      (fc3): Linear(in_features=32, out_features=6272, bias=True)
    )
  )
  (11): Linear(in_features=6272, out_features=10, bias=True)
)
Sequential(
  (0): Conv2d(3, 64, kernel_size=(3, 3), stride=(1, 1))
  (1): BatchNorm2d(64, eps=64, momentum=0.1, affine=True, track_running_stats=True)
  (2): ReLU(inplace=True)
  (3): Conv2d(64, 128, kernel_size=(4, 4), stride=(2, 2), padding=(1, 1))
  (4): BatchNorm2d(128, eps=128, momentum=0.1, affine=True, track_running_stats=True)
  (5): ReLU(inplace=True)
  (6): Conv2d(128, 128, kernel_size=(4, 4), stride=(2, 2), padding=(1, 1))
  (7): BatchNorm2d(128, eps=128, momentum=0.1, affine=True, track_running_stats=True)
  (8): ReLU(inplace=True)
  (9): Flatten()
  (10): ODEBlock(
    (odefunc): ODEfunc(
      (fc1): Linear(in_features=6272, out_features=32, bias=True)
      (fc2): Linear(in_features=32, out_features=32, bias=True)
      (fc3): Linear(in_features=32, out_features=6272, bias=True)
    )
  )
  (11): Linear(in_features=6272, out_features=10, bias=True)
)
Sequential(
  (0): Conv2d(3, 64, kernel_size=(3, 3), stride=(1, 1))
  (1): BatchNorm2d(64, eps=64, momentum=0.1, affine=True, track_running_stats=True)
  (2): ReLU(inplace=True)
  (3): Conv2d(64, 128, kernel_size=(4, 4), stride=(2, 2), padding=(1, 1))
  (4): BatchNorm2d(128, eps=128, momentum=0.1, affine=True, track_running_stats=True)
  (5): ReLU(inplace=True)
  (6): Conv2d(128, 128, kernel_size=(4, 4), stride=(2, 2), padding=(1, 1))
  (7): BatchNorm2d(128, eps=128, momentum=0.1, affine=True, track_running_stats=True)
  (8): ReLU(inplace=True)
  (9): Flatten()
  (10): ODEBlock(
    (odefunc): ODEfunc(
      (fc1): Linear(in_features=6272, out_features=32, bias=True)
      (fc2): Linear(in_features=32, out_features=32, bias=True)
      (fc3): Linear(in_features=32, out_features=6272, bias=True)
    )
  )
  (11): Linear(in_features=6272, out_features=10, bias=True)
)
Sequential(
  (0): Conv2d(3, 64, kernel_size=(3, 3), stride=(1, 1))
  (1): BatchNorm2d(64, eps=64, momentum=0.1, affine=True, track_running_stats=True)
  (2): ReLU(inplace=True)
  (3): Conv2d(64, 128, kernel_size=(4, 4), stride=(2, 2), padding=(1, 1))
  (4): BatchNorm2d(128, eps=128, momentum=0.1, affine=True, track_running_stats=True)
  (5): ReLU(inplace=True)
  (6): Conv2d(128, 128, kernel_size=(4, 4), stride=(2, 2), padding=(1, 1))
  (7): BatchNorm2d(128, eps=128, momentum=0.1, affine=True, track_running_stats=True)
  (8): ReLU(inplace=True)
  (9): Flatten()
  (10): ODEBlock(
    (odefunc): ODEfunc(
      (fc1): Linear(in_features=6272, out_features=32, bias=True)
      (fc2): Linear(in_features=32, out_features=32, bias=True)
      (fc3): Linear(in_features=32, out_features=6272, bias=True)
    )
  )
  (11): Linear(in_features=6272, out_features=10, bias=True)
)
Sequential(
  (0): Conv2d(3, 64, kernel_size=(3, 3), stride=(1, 1))
  (1): BatchNorm2d(64, eps=64, momentum=0.1, affine=True, track_running_stats=True)
  (2): ReLU(inplace=True)
  (3): Conv2d(64, 128, kernel_size=(4, 4), stride=(2, 2), padding=(1, 1))
  (4): BatchNorm2d(128, eps=128, momentum=0.1, affine=True, track_running_stats=True)
  (5): ReLU(inplace=True)
  (6): Conv2d(128, 128, kernel_size=(4, 4), stride=(2, 2), padding=(1, 1))
  (7): BatchNorm2d(128, eps=128, momentum=0.1, affine=True, track_running_stats=True)
  (8): ReLU(inplace=True)
  (9): Flatten()
  (10): ODEBlock(
    (odefunc): ODEfunc(
      (fc1): Linear(in_features=6272, out_features=32, bias=True)
      (fc2): Linear(in_features=32, out_features=32, bias=True)
      (fc3): Linear(in_features=32, out_features=6272, bias=True)
    )
  )
  (11): Linear(in_features=6272, out_features=10, bias=True)
)
Sequential(
  (0): Conv2d(3, 64, kernel_size=(3, 3), stride=(1, 1))
  (1): BatchNorm2d(64, eps=64, momentum=0.1, affine=True, track_running_stats=True)
  (2): ReLU(inplace=True)
  (3): Conv2d(64, 128, kernel_size=(4, 4), stride=(2, 2), padding=(1, 1))
  (4): BatchNorm2d(128, eps=128, momentum=0.1, affine=True, track_running_stats=True)
  (5): ReLU(inplace=True)
  (6): Conv2d(128, 128, kernel_size=(4, 4), stride=(2, 2), padding=(1, 1))
  (7): BatchNorm2d(128, eps=128, momentum=0.1, affine=True, track_running_stats=True)
  (8): ReLU(inplace=True)
  (9): Flatten()
  (10): ODEBlock(
    (odefunc): ODEfunc(
      (fc1): Linear(in_features=6272, out_features=32, bias=True)
      (fc2): Linear(in_features=32, out_features=32, bias=True)
      (fc3): Linear(in_features=32, out_features=6272, bias=True)
    )
  )
  (11): Linear(in_features=6272, out_features=10, bias=True)
)
Sequential(
  (0): Conv2d(3, 64, kernel_size=(3, 3), stride=(1, 1))
  (1): BatchNorm2d(64, eps=64, momentum=0.1, affine=True, track_running_stats=True)
  (2): ReLU(inplace=True)
  (3): Conv2d(64, 128, kernel_size=(4, 4), stride=(2, 2), padding=(1, 1))
  (4): BatchNorm2d(128, eps=128, momentum=0.1, affine=True, track_running_stats=True)
  (5): ReLU(inplace=True)
  (6): Conv2d(128, 128, kernel_size=(4, 4), stride=(2, 2), padding=(1, 1))
  (7): BatchNorm2d(128, eps=128, momentum=0.1, affine=True, track_running_stats=True)
  (8): ReLU(inplace=True)
  (9): Flatten()
  (10): ODEBlock(
    (odefunc): ODEfunc(
      (fc1): Linear(in_features=6272, out_features=32, bias=True)
      (fc2): Linear(in_features=32, out_features=32, bias=True)
      (fc3): Linear(in_features=32, out_features=6272, bias=True)
    )
  )
  (11): Linear(in_features=6272, out_features=10, bias=True)
)
Sequential(
  (0): Conv2d(3, 64, kernel_size=(3, 3), stride=(1, 1))
  (1): BatchNorm2d(64, eps=64, momentum=0.1, affine=True, track_running_stats=True)
  (2): ReLU(inplace=True)
  (3): Conv2d(64, 128, kernel_size=(4, 4), stride=(2, 2), padding=(1, 1))
  (4): BatchNorm2d(128, eps=128, momentum=0.1, affine=True, track_running_stats=True)
  (5): ReLU(inplace=True)
  (6): Conv2d(128, 128, kernel_size=(4, 4), stride=(2, 2), padding=(1, 1))
  (7): BatchNorm2d(128, eps=128, momentum=0.1, affine=True, track_running_stats=True)
  (8): ReLU(inplace=True)
  (9): Flatten()
  (10): ODEBlock(
    (odefunc): ODEfunc(
      (fc1): Linear(in_features=6272, out_features=32, bias=True)
      (fc2): Linear(in_features=32, out_features=32, bias=True)
      (fc3): Linear(in_features=32, out_features=6272, bias=True)
    )
  )
  (11): Linear(in_features=6272, out_features=10, bias=True)
)
Sequential(
  (0): Conv2d(3, 64, kernel_size=(3, 3), stride=(1, 1))
  (1): BatchNorm2d(64, eps=64, momentum=0.1, affine=True, track_running_stats=True)
  (2): ReLU(inplace=True)
  (3): Conv2d(64, 128, kernel_size=(4, 4), stride=(2, 2), padding=(1, 1))
  (4): BatchNorm2d(128, eps=128, momentum=0.1, affine=True, track_running_stats=True)
  (5): ReLU(inplace=True)
  (6): Conv2d(128, 128, kernel_size=(4, 4), stride=(2, 2), padding=(1, 1))
  (7): BatchNorm2d(128, eps=128, momentum=0.1, affine=True, track_running_stats=True)
  (8): ReLU(inplace=True)
  (9): Flatten()
  (10): ODEBlock(
    (odefunc): ODEfunc(
      (fc1): Linear(in_features=6272, out_features=32, bias=True)
      (fc2): Linear(in_features=32, out_features=32, bias=True)
      (fc3): Linear(in_features=32, out_features=6272, bias=True)
    )
  )
  (11): Linear(in_features=6272, out_features=10, bias=True)
)
Sequential(
  (0): Conv2d(3, 64, kernel_size=(3, 3), stride=(1, 1))
  (1): BatchNorm2d(64, eps=64, momentum=0.1, affine=True, track_running_stats=True)
  (2): ReLU(inplace=True)
  (3): Conv2d(64, 128, kernel_size=(4, 4), stride=(2, 2), padding=(1, 1))
  (4): BatchNorm2d(128, eps=128, momentum=0.1, affine=True, track_running_stats=True)
  (5): ReLU(inplace=True)
  (6): Conv2d(128, 128, kernel_size=(4, 4), stride=(2, 2), padding=(1, 1))
  (7): BatchNorm2d(128, eps=128, momentum=0.1, affine=True, track_running_stats=True)
  (8): ReLU(inplace=True)
  (9): Flatten()
  (10): ODEBlock(
    (odefunc): ODEfunc(
      (fc1): Linear(in_features=6272, out_features=32, bias=True)
      (fc2): Linear(in_features=32, out_features=32, bias=True)
      (fc3): Linear(in_features=32, out_features=6272, bias=True)
    )
  )
  (11): Linear(in_features=6272, out_features=10, bias=True)
)
Number of parameters: 867402
Number of parameters: 867402
Number of parameters: 867402
Number of parameters: 867402
Number of parameters: 867402
Number of parameters: 867402
Number of parameters: 867402
Number of parameters: 867402
Number of parameters: 867402
Number of parameters: 867402
/home/manzand/Documents/Python/neuralODE_examples/cifar/odenet_cifar_example.py
…
                    )
                )
    names = []
    params = []
    for name,param in model.named_parameters():
        names.append(name)
        params.append(param.detach().numpy())
    nn1 = dict({'Wb':params,'names':names})
    for name,param in model.named_buffers():
        names.append(name)
        params.append(param.detach().numpy())
    savemat("odecnn_cifar_mid.mat",nn1)
Namespace(adjoint=False, batch_size=128, data_aug=False, debug=False, downsampling_method='conv', gpu=0, lr=0.001, nepochs=100, network='odenet', save='../logs/cifarmid', test_batch_size=1000, tol=0.001)
Sequential(
  (0): Conv2d(3, 32, kernel_size=(3, 3), stride=(1, 1))
  (1): BatchNorm2d(32, eps=32, momentum=0.1, affine=True, track_running_stats=True)
  (2): ReLU(inplace=True)
  (3): Conv2d(32, 64, kernel_size=(4, 4), stride=(2, 2), padding=(1, 1))
  (4): BatchNorm2d(64, eps=64, momentum=0.1, affine=True, track_running_stats=True)
  (5): ReLU(inplace=True)
  (6): Conv2d(64, 32, kernel_size=(4, 4), stride=(2, 2), padding=(1, 1))
  (7): BatchNorm2d(32, eps=32, momentum=0.1, affine=True, track_running_stats=True)
  (8): Flatten()
  (9): ODEBlock(
    (odefunc): ODEfunc(
      (fc1): Linear(in_features=6272, out_features=32, bias=True)
      (fc2): Linear(in_features=32, out_features=32, bias=True)
      (fc3): Linear(in_features=32, out_features=6272, bias=True)
    )
  )
  (10): Linear(in_features=6272, out_features=10, bias=True)
)
Number of parameters: 538282
/home/manzand/Documents/Python/neuralODE_examples/cifar/odenet_cifar_example.py
/home/manzand/Documents/Python/neuralODE_examples/cifar/odenet_cifar_example.py
#!/usr/bin/env python3
# -*- coding: utf-8 -*-
"""
Created on Tue Jan 19 15:10:31 2021

@author: manzand
"""

import os
import argparse
import logging
import time
import numpy as np
…
    nn1 = dict({'Wb':params,'names':names})
    for name,param in model.named_buffers():
        names.append(name)
        params.append(param.detach().numpy())
    savemat("odecnn_cifar_mid.mat",nn1)
Namespace(adjoint=False, batch_size=128, data_aug=False, debug=False, downsampling_method='conv', gpu=0, lr=0.001, nepochs=100, network='odenet', save='../logs/cifarmid', test_batch_size=1000, tol=0.001)
Namespace(adjoint=False, batch_size=128, data_aug=False, debug=False, downsampling_method='conv', gpu=0, lr=0.001, nepochs=100, network='odenet', save='../logs/cifarmid', test_batch_size=1000, tol=0.001)
Sequential(
  (0): Conv2d(3, 32, kernel_size=(3, 3), stride=(1, 1))
  (1): BatchNorm2d(32, eps=32, momentum=0.1, affine=True, track_running_stats=True)
  (2): ReLU(inplace=True)
  (3): Conv2d(32, 64, kernel_size=(4, 4), stride=(2, 2), padding=(1, 1))
  (4): BatchNorm2d(64, eps=64, momentum=0.1, affine=True, track_running_stats=True)
  (5): ReLU(inplace=True)
  (6): Conv2d(64, 32, kernel_size=(4, 4), stride=(2, 2), padding=(1, 1))
  (7): BatchNorm2d(32, eps=32, momentum=0.1, affine=True, track_running_stats=True)
  (8): Flatten()
  (9): ODEBlock(
    (odefunc): ODEfunc(
      (fc1): Linear(in_features=1568, out_features=32, bias=True)
      (fc2): Linear(in_features=32, out_features=32, bias=True)
      (fc3): Linear(in_features=32, out_features=1568, bias=True)
    )
  )
  (10): Linear(in_features=1568, out_features=10, bias=True)
)
Sequential(
  (0): Conv2d(3, 32, kernel_size=(3, 3), stride=(1, 1))
  (1): BatchNorm2d(32, eps=32, momentum=0.1, affine=True, track_running_stats=True)
  (2): ReLU(inplace=True)
  (3): Conv2d(32, 64, kernel_size=(4, 4), stride=(2, 2), padding=(1, 1))
  (4): BatchNorm2d(64, eps=64, momentum=0.1, affine=True, track_running_stats=True)
  (5): ReLU(inplace=True)
  (6): Conv2d(64, 32, kernel_size=(4, 4), stride=(2, 2), padding=(1, 1))
  (7): BatchNorm2d(32, eps=32, momentum=0.1, affine=True, track_running_stats=True)
  (8): Flatten()
  (9): ODEBlock(
    (odefunc): ODEfunc(
      (fc1): Linear(in_features=1568, out_features=32, bias=True)
      (fc2): Linear(in_features=32, out_features=32, bias=True)
      (fc3): Linear(in_features=32, out_features=1568, bias=True)
    )
  )
  (10): Linear(in_features=1568, out_features=10, bias=True)
)
Number of parameters: 185482
Number of parameters: 185482
Epoch 0000 | Time 0.337 (0.337) | NFE-F 32.0 | NFE-B 0.0 | Train Acc 0.1000 | Test Acc 0.1000
Epoch 0000 | Time 0.337 (0.337) | NFE-F 32.0 | NFE-B 0.0 | Train Acc 0.1000 | Test Acc 0.1000
Epoch 0001 | Time 0.416 (0.230) | NFE-F 26.5 | NFE-B 0.0 | Train Acc 0.1000 | Test Acc 0.1000
Epoch 0001 | Time 0.416 (0.230) | NFE-F 26.5 | NFE-B 0.0 | Train Acc 0.1000 | Test Acc 0.1000
…
    nn1 = dict({'Wb':params,'names':names})
    for name,param in model.named_buffers():
        names.append(name)
        params.append(param.detach().numpy())
    savemat("odecnn_gtsrb_tiny.mat",nn1)
Namespace(adjoint=False, batch_size=128, data_aug=True, debug=False, downsampling_method='conv', gpu=0, lr=0.01, nepochs=100, network='odenet', save='./experiment1', test_batch_size=1000, tol=0.001)
Namespace(adjoint=False, batch_size=128, data_aug=True, debug=False, downsampling_method='conv', gpu=0, lr=0.01, nepochs=100, network='odenet', save='./experiment1', test_batch_size=1000, tol=0.001)
Sequential(
  (0): Conv2d(1, 4, kernel_size=(3, 3), stride=(1, 1))
  (1): BatchNorm2d(4, eps=4, momentum=0.1, affine=True, track_running_stats=True)
  (2): ReLU(inplace=True)
  (3): Conv2d(4, 4, kernel_size=(4, 4), stride=(2, 2), padding=(1, 1))
  (4): BatchNorm2d(4, eps=4, momentum=0.1, affine=True, track_running_stats=True)
  (5): ReLU(inplace=True)
  (6): Flatten()
  (7): ODEBlock(
    (odefunc): ODEfunc(
      (fc1): Linear(in_features=676, out_features=10, bias=True)
      (fc2): Linear(in_features=10, out_features=676, bias=True)
    )
  )
  (8): Linear(in_features=676, out_features=10, bias=True)
)
Sequential(
  (0): Conv2d(1, 4, kernel_size=(3, 3), stride=(1, 1))
  (1): BatchNorm2d(4, eps=4, momentum=0.1, affine=True, track_running_stats=True)
  (2): ReLU(inplace=True)
  (3): Conv2d(4, 4, kernel_size=(4, 4), stride=(2, 2), padding=(1, 1))
  (4): BatchNorm2d(4, eps=4, momentum=0.1, affine=True, track_running_stats=True)
  (5): ReLU(inplace=True)
  (6): Flatten()
  (7): ODEBlock(
    (odefunc): ODEfunc(
      (fc1): Linear(in_features=676, out_features=10, bias=True)
      (fc2): Linear(in_features=10, out_features=676, bias=True)
    )
  )
  (8): Linear(in_features=676, out_features=10, bias=True)
)
Number of parameters: 21292
Number of parameters: 21292
/home/manzand/Documents/Python/neuralODE_examples/gtsrb/odenet_gtsrb_example_tiny.py
/home/manzand/Documents/Python/neuralODE_examples/gtsrb/odenet_gtsrb_example_tiny.py
#!/usr/bin/env python3
# -*- coding: utf-8 -*-
"""
Created on Thu Feb  4 09:04:31 2021

@author: manzand
"""

#!/usr/bin/env python3
…
    nn1 = dict({'Wb':params,'names':names})
    for name,param in model.named_buffers():
        names.append(name)
        params.append(param.detach().numpy())
    savemat("odecnn_gtsrb_tiny.mat",nn1)
Namespace(adjoint=False, batch_size=128, data_aug=True, debug=False, downsampling_method='conv', gpu=0, lr=0.01, nepochs=100, network='odenet', save='./experiment1', test_batch_size=1000, tol=0.001)
Namespace(adjoint=False, batch_size=128, data_aug=True, debug=False, downsampling_method='conv', gpu=0, lr=0.01, nepochs=100, network='odenet', save='./experiment1', test_batch_size=1000, tol=0.001)
Sequential(
  (0): Conv2d(3, 4, kernel_size=(3, 3), stride=(1, 1))
  (1): BatchNorm2d(4, eps=4, momentum=0.1, affine=True, track_running_stats=True)
  (2): ReLU(inplace=True)
  (3): Conv2d(4, 4, kernel_size=(4, 4), stride=(2, 2), padding=(1, 1))
  (4): BatchNorm2d(4, eps=4, momentum=0.1, affine=True, track_running_stats=True)
  (5): ReLU(inplace=True)
  (6): Flatten()
  (7): ODEBlock(
    (odefunc): ODEfunc(
      (fc1): Linear(in_features=676, out_features=10, bias=True)
      (fc2): Linear(in_features=10, out_features=676, bias=True)
    )
  )
  (8): Linear(in_features=676, out_features=10, bias=True)
)
Sequential(
  (0): Conv2d(3, 4, kernel_size=(3, 3), stride=(1, 1))
  (1): BatchNorm2d(4, eps=4, momentum=0.1, affine=True, track_running_stats=True)
  (2): ReLU(inplace=True)
  (3): Conv2d(4, 4, kernel_size=(4, 4), stride=(2, 2), padding=(1, 1))
  (4): BatchNorm2d(4, eps=4, momentum=0.1, affine=True, track_running_stats=True)
  (5): ReLU(inplace=True)
  (6): Flatten()
  (7): ODEBlock(
    (odefunc): ODEfunc(
      (fc1): Linear(in_features=676, out_features=10, bias=True)
      (fc2): Linear(in_features=10, out_features=676, bias=True)
    )
  )
  (8): Linear(in_features=676, out_features=10, bias=True)
)
Number of parameters: 21364
Number of parameters: 21364
/home/manzand/Documents/Python/neuralODE_examples/gtsrb/odenet_gtsrb_example.py
/home/manzand/Documents/Python/neuralODE_examples/gtsrb/odenet_gtsrb_example.py
#!/usr/bin/env python3
# -*- coding: utf-8 -*-
"""
Created on Tue Jan 19 15:10:31 2021

@author: manzand
"""

import os
import argparse
import logging
…
    nn1 = dict({'Wb':params,'names':names})
    for name,param in model.named_buffers():
        names.append(name)
        params.append(param.detach().numpy())
    savemat("odecnn_gtsrb_mid.mat",nn1)
Namespace(adjoint=False, batch_size=128, data_aug=True, debug=False, downsampling_method='conv', gpu=0, lr=0.01, nepochs=100, network='odenet', save='./experiment1', test_batch_size=1000, tol=0.001)
Namespace(adjoint=False, batch_size=128, data_aug=True, debug=False, downsampling_method='conv', gpu=0, lr=0.01, nepochs=100, network='odenet', save='./experiment1', test_batch_size=1000, tol=0.001)
Sequential(
  (0): Conv2d(1, 10, kernel_size=(3, 3), stride=(1, 1))
  (1): BatchNorm2d(10, eps=10, momentum=0.1, affine=True, track_running_stats=True)
  (2): ReLU(inplace=True)
  (3): Conv2d(10, 10, kernel_size=(4, 4), stride=(2, 2), padding=(1, 1))
  (4): BatchNorm2d(10, eps=10, momentum=0.1, affine=True, track_running_stats=True)
  (5): ReLU(inplace=True)
  (6): Flatten()
  (7): ODEBlock(
    (odefunc): ODEfunc(
      (fc1): Linear(in_features=1690, out_features=10, bias=True)
      (fc2): Linear(in_features=10, out_features=1690, bias=True)
    )
  )
  (8): Linear(in_features=1690, out_features=10, bias=True)
)
Sequential(
  (0): Conv2d(1, 10, kernel_size=(3, 3), stride=(1, 1))
  (1): BatchNorm2d(10, eps=10, momentum=0.1, affine=True, track_running_stats=True)
  (2): ReLU(inplace=True)
  (3): Conv2d(10, 10, kernel_size=(4, 4), stride=(2, 2), padding=(1, 1))
  (4): BatchNorm2d(10, eps=10, momentum=0.1, affine=True, track_running_stats=True)
  (5): ReLU(inplace=True)
  (6): Flatten()
  (7): ODEBlock(
    (odefunc): ODEfunc(
      (fc1): Linear(in_features=1690, out_features=10, bias=True)
      (fc2): Linear(in_features=10, out_features=1690, bias=True)
    )
  )
  (8): Linear(in_features=1690, out_features=10, bias=True)
)
Number of parameters: 54160
Number of parameters: 54160
/home/manzand/Documents/Python/neuralODE_examples/gtsrb/odenet_gtsrb_example.py
/home/manzand/Documents/Python/neuralODE_examples/gtsrb/odenet_gtsrb_example.py
#!/usr/bin/env python3
# -*- coding: utf-8 -*-
"""
Created on Tue Jan 19 15:10:31 2021

@author: manzand
"""

import os
import argparse
import logging
…
    nn1 = dict({'Wb':params,'names':names})
    for name,param in model.named_buffers():
        names.append(name)
        params.append(param.detach().numpy())
    savemat("odecnn_gtsrb_mid.mat",nn1)
Namespace(adjoint=False, batch_size=128, data_aug=True, debug=False, downsampling_method='conv', gpu=0, lr=0.01, nepochs=100, network='odenet', save='./experiment1', test_batch_size=1000, tol=0.001)
Namespace(adjoint=False, batch_size=128, data_aug=True, debug=False, downsampling_method='conv', gpu=0, lr=0.01, nepochs=100, network='odenet', save='./experiment1', test_batch_size=1000, tol=0.001)
Sequential(
  (0): Conv2d(3, 10, kernel_size=(3, 3), stride=(1, 1))
  (1): BatchNorm2d(10, eps=10, momentum=0.1, affine=True, track_running_stats=True)
  (2): ReLU(inplace=True)
  (3): Conv2d(10, 10, kernel_size=(4, 4), stride=(2, 2), padding=(1, 1))
  (4): BatchNorm2d(10, eps=10, momentum=0.1, affine=True, track_running_stats=True)
  (5): ReLU(inplace=True)
  (6): Flatten()
  (7): ODEBlock(
    (odefunc): ODEfunc(
      (fc1): Linear(in_features=1690, out_features=10, bias=True)
      (fc2): Linear(in_features=10, out_features=1690, bias=True)
    )
  )
  (8): Linear(in_features=1690, out_features=43, bias=True)
)
Sequential(
  (0): Conv2d(3, 10, kernel_size=(3, 3), stride=(1, 1))
  (1): BatchNorm2d(10, eps=10, momentum=0.1, affine=True, track_running_stats=True)
  (2): ReLU(inplace=True)
  (3): Conv2d(10, 10, kernel_size=(4, 4), stride=(2, 2), padding=(1, 1))
  (4): BatchNorm2d(10, eps=10, momentum=0.1, affine=True, track_running_stats=True)
  (5): ReLU(inplace=True)
  (6): Flatten()
  (7): ODEBlock(
    (odefunc): ODEfunc(
      (fc1): Linear(in_features=1690, out_features=10, bias=True)
      (fc2): Linear(in_features=10, out_features=1690, bias=True)
    )
  )
  (8): Linear(in_features=1690, out_features=43, bias=True)
)
Number of parameters: 110143
Number of parameters: 110143
/home/manzand/Documents/Python/neuralODE_examples/gtsrb/odenet_gtsrb_example_tiny.py
/home/manzand/Documents/Python/neuralODE_examples/gtsrb/odenet_gtsrb_example_tiny.py
#!/usr/bin/env python3
# -*- coding: utf-8 -*-
"""
Created on Thu Feb  4 09:04:31 2021

@author: manzand
"""

#!/usr/bin/env python3
…
    nn1 = dict({'Wb':params,'names':names})
    for name,param in model.named_buffers():
        names.append(name)
        params.append(param.detach().numpy())
    savemat("odecnn_gtsrb_tiny.mat",nn1)
Namespace(adjoint=False, batch_size=128, data_aug=True, debug=False, downsampling_method='conv', gpu=0, lr=0.01, nepochs=100, network='odenet', save='./experiment1', test_batch_size=1000, tol=0.001)
Namespace(adjoint=False, batch_size=128, data_aug=True, debug=False, downsampling_method='conv', gpu=0, lr=0.01, nepochs=100, network='odenet', save='./experiment1', test_batch_size=1000, tol=0.001)
Sequential(
  (0): Conv2d(3, 4, kernel_size=(3, 3), stride=(1, 1))
  (1): BatchNorm2d(4, eps=4, momentum=0.1, affine=True, track_running_stats=True)
  (2): ReLU(inplace=True)
  (3): Conv2d(4, 4, kernel_size=(4, 4), stride=(2, 2), padding=(1, 1))
  (4): BatchNorm2d(4, eps=4, momentum=0.1, affine=True, track_running_stats=True)
  (5): ReLU(inplace=True)
  (6): Flatten()
  (7): ODEBlock(
    (odefunc): ODEfunc(
      (fc1): Linear(in_features=900, out_features=10, bias=True)
      (fc2): Linear(in_features=10, out_features=900, bias=True)
    )
  )
  (8): Linear(in_features=900, out_features=43, bias=True)
)
Sequential(
  (0): Conv2d(3, 4, kernel_size=(3, 3), stride=(1, 1))
  (1): BatchNorm2d(4, eps=4, momentum=0.1, affine=True, track_running_stats=True)
  (2): ReLU(inplace=True)
  (3): Conv2d(4, 4, kernel_size=(4, 4), stride=(2, 2), padding=(1, 1))
  (4): BatchNorm2d(4, eps=4, momentum=0.1, affine=True, track_running_stats=True)
  (5): ReLU(inplace=True)
  (6): Flatten()
  (7): ODEBlock(
    (odefunc): ODEfunc(
      (fc1): Linear(in_features=900, out_features=10, bias=True)
      (fc2): Linear(in_features=10, out_features=900, bias=True)
    )
  )
  (8): Linear(in_features=900, out_features=43, bias=True)
)
Number of parameters: 58041
Number of parameters: 58041
Epoch 0000 | Time 0.482 (0.482) | NFE-F 14.0 | NFE-B 0.0 | Train Acc 0.0485 | Test Acc 0.0617
Epoch 0000 | Time 0.482 (0.482) | NFE-F 14.0 | NFE-B 0.0 | Train Acc 0.0485 | Test Acc 0.0617
Epoch 0001 | Time 0.458 (0.171) | NFE-F 16.9 | NFE-B 0.0 | Train Acc 0.2739 | Test Acc 0.2803
Epoch 0001 | Time 0.458 (0.171) | NFE-F 16.9 | NFE-B 0.0 | Train Acc 0.2739 | Test Acc 0.2803
…
    nn1 = dict({'Wb':params,'names':names})
    for name,param in model.named_buffers():
        names.append(name)
        params.append(param.detach().numpy())
    savemat("odecnn_gtsrb_tiny.mat",nn1)
Namespace(adjoint=False, batch_size=128, data_aug=True, debug=False, downsampling_method='conv', gpu=0, lr=0.01, nepochs=100, network='odenet', save='./experiment1', test_batch_size=1000, tol=0.001)
Namespace(adjoint=False, batch_size=128, data_aug=True, debug=False, downsampling_method='conv', gpu=0, lr=0.01, nepochs=100, network='odenet', save='./experiment1', test_batch_size=1000, tol=0.001)
Sequential(
  (0): Conv2d(3, 64, kernel_size=(3, 3), stride=(1, 1))
  (1): BatchNorm2d(64, eps=64, momentum=0.1, affine=True, track_running_stats=True)
  (2): AvgPool2d(kernel_size=64, stride=64, padding=0)
  (3): Conv2d(64, 64, kernel_size=(4, 4), stride=(2, 2), padding=(1, 1))
  (4): BatchNorm2d(64, eps=64, momentum=0.1, affine=True, track_running_stats=True)
  (5): AvgPool2d(kernel_size=64, stride=64, padding=0)
  (6): Conv2d(3, 64, kernel_size=(3, 3), stride=(1, 1))
  (7): BatchNorm2d(64, eps=64, momentum=0.1, affine=True, track_running_stats=True)
  (8): AvgPool2d(kernel_size=64, stride=64, padding=0)
  (9): Conv2d(64, 64, kernel_size=(4, 4), stride=(2, 2), padding=(1, 1))
  (10): BatchNorm2d(64, eps=64, momentum=0.1, affine=True, track_running_stats=True)
  (11): AvgPool2d(kernel_size=64, stride=64, padding=0)
  (12): Flatten()
  (13): ODEBlock(
    (odefunc): ODEfunc(
      (fc1): Linear(in_features=900, out_features=10, bias=True)
      (fc2): Linear(in_features=10, out_features=900, bias=True)
    )
  )
  (14): Linear(in_features=900, out_features=43, bias=True)
)
Sequential(
  (0): Conv2d(3, 64, kernel_size=(3, 3), stride=(1, 1))
  (1): BatchNorm2d(64, eps=64, momentum=0.1, affine=True, track_running_stats=True)
  (2): AvgPool2d(kernel_size=64, stride=64, padding=0)
  (3): Conv2d(64, 64, kernel_size=(4, 4), stride=(2, 2), padding=(1, 1))
  (4): BatchNorm2d(64, eps=64, momentum=0.1, affine=True, track_running_stats=True)
  (5): AvgPool2d(kernel_size=64, stride=64, padding=0)
  (6): Conv2d(3, 64, kernel_size=(3, 3), stride=(1, 1))
  (7): BatchNorm2d(64, eps=64, momentum=0.1, affine=True, track_running_stats=True)
  (8): AvgPool2d(kernel_size=64, stride=64, padding=0)
  (9): Conv2d(64, 64, kernel_size=(4, 4), stride=(2, 2), padding=(1, 1))
  (10): BatchNorm2d(64, eps=64, momentum=0.1, affine=True, track_running_stats=True)
  (11): AvgPool2d(kernel_size=64, stride=64, padding=0)
  (12): Flatten()
  (13): ODEBlock(
    (odefunc): ODEfunc(
      (fc1): Linear(in_features=900, out_features=10, bias=True)
      (fc2): Linear(in_features=10, out_features=900, bias=True)
    )
  )
  (14): Linear(in_features=900, out_features=43, bias=True)
)
Number of parameters: 192949
Number of parameters: 192949
/home/manzand/Documents/Python/neuralODE_examples/gtsrb/odenet_gtsrb_example_tiny.py
/home/manzand/Documents/Python/neuralODE_examples/gtsrb/odenet_gtsrb_example_tiny.py
#!/usr/bin/env python3
# -*- coding: utf-8 -*-
"""
Created on Thu Feb  4 09:04:31 2021

@author: manzand
"""

#!/usr/bin/env python3
…
