…
                    )
                )
    names = []
    params = []
    for name,param in model.named_parameters():
        names.append(name)
        params.append(param.detach().numpy())
    nn1 = dict({'Wb':params,'names':names})
    for name,param in model.named_buffers():
        names.append(name)
        params.append(param.detach().numpy())
    savemat("odecnn_cifar_tiny2.mat",nn1)
Namespace(adjoint=False, batch_size=128, data_aug=True, debug=False, downsampling_method='conv', gpu=0, lr=0.01, nepochs=200, network='odenet', save='./cifar1', test_batch_size=1000, tol=0.001)
Sequential(
  (0): Conv2d(1, 4, kernel_size=(3, 3), stride=(1, 1))
  (1): BatchNorm2d(4, eps=4, momentum=0.1, affine=True, track_running_stats=True)
  (2): ReLU(inplace=True)
  (3): Conv2d(4, 4, kernel_size=(4, 4), stride=(2, 2), padding=(1, 1))
  (4): BatchNorm2d(4, eps=4, momentum=0.1, affine=True, track_running_stats=True)
  (5): ReLU(inplace=True)
  (6): Flatten()
  (7): ODEBlock(
    (odefunc): ODEfunc(
      (fc1): Linear(in_features=676, out_features=10, bias=True)
      (fc2): Linear(in_features=10, out_features=676, bias=True)
    )
  )
  (8): Linear(in_features=676, out_features=10, bias=True)
)
Number of parameters: 21292
/home/manzand/Documents/Python/neuralODE_examples/odenet_cifar_example_tiny.py
/home/manzand/Documents/Python/neuralODE_examples/odenet_cifar_example_tiny.py
#!/usr/bin/env python3
# -*- coding: utf-8 -*-
"""
Created on Thu Feb  4 09:04:31 2021

@author: manzand
"""

#!/usr/bin/env python3
# -*- coding: utf-8 -*-
"""
Created on Tue Jan 19 15:10:31 2021
…
    nn1 = dict({'Wb':params,'names':names})
    for name,param in model.named_buffers():
        names.append(name)
        params.append(param.detach().numpy())
    savemat("odecnn_cifar_tiny2.mat",nn1)
Namespace(adjoint=False, batch_size=128, data_aug=True, debug=False, downsampling_method='conv', gpu=0, lr=0.01, nepochs=200, network='odenet', save='./cifar1', test_batch_size=1000, tol=0.001)
Namespace(adjoint=False, batch_size=128, data_aug=True, debug=False, downsampling_method='conv', gpu=0, lr=0.01, nepochs=200, network='odenet', save='./cifar1', test_batch_size=1000, tol=0.001)
Sequential(
  (0): Conv2d(3, 4, kernel_size=(3, 3), stride=(1, 1))
  (1): BatchNorm2d(4, eps=4, momentum=0.1, affine=True, track_running_stats=True)
  (2): ReLU(inplace=True)
  (3): Conv2d(4, 4, kernel_size=(4, 4), stride=(2, 2), padding=(1, 1))
  (4): BatchNorm2d(4, eps=4, momentum=0.1, affine=True, track_running_stats=True)
  (5): ReLU(inplace=True)
  (6): Flatten()
  (7): ODEBlock(
    (odefunc): ODEfunc(
      (fc1): Linear(in_features=676, out_features=10, bias=True)
      (fc2): Linear(in_features=10, out_features=676, bias=True)
    )
  )
  (8): Linear(in_features=676, out_features=10, bias=True)
)
Sequential(
  (0): Conv2d(3, 4, kernel_size=(3, 3), stride=(1, 1))
  (1): BatchNorm2d(4, eps=4, momentum=0.1, affine=True, track_running_stats=True)
  (2): ReLU(inplace=True)
  (3): Conv2d(4, 4, kernel_size=(4, 4), stride=(2, 2), padding=(1, 1))
  (4): BatchNorm2d(4, eps=4, momentum=0.1, affine=True, track_running_stats=True)
  (5): ReLU(inplace=True)
  (6): Flatten()
  (7): ODEBlock(
    (odefunc): ODEfunc(
      (fc1): Linear(in_features=676, out_features=10, bias=True)
      (fc2): Linear(in_features=10, out_features=676, bias=True)
    )
  )
  (8): Linear(in_features=676, out_features=10, bias=True)
)
Number of parameters: 21364
Number of parameters: 21364
/home/manzand/Documents/Python/neuralODE_examples/odenet_cifar_example_tiny.py
/home/manzand/Documents/Python/neuralODE_examples/odenet_cifar_example_tiny.py
/home/manzand/Documents/Python/neuralODE_examples/odenet_cifar_example_tiny.py
#!/usr/bin/env python3
# -*- coding: utf-8 -*-
"""
Created on Thu Feb  4 09:04:31 2021
…
    savemat("odecnn_cifar_tiny2.mat",nn1)
Namespace(adjoint=False, batch_size=128, data_aug=True, debug=False, downsampling_method='conv', gpu=0, lr=0.01, nepochs=200, network='odenet', save='./cifar1', test_batch_size=1000, tol=0.001)
Namespace(adjoint=False, batch_size=128, data_aug=True, debug=False, downsampling_method='conv', gpu=0, lr=0.01, nepochs=200, network='odenet', save='./cifar1', test_batch_size=1000, tol=0.001)
Namespace(adjoint=False, batch_size=128, data_aug=True, debug=False, downsampling_method='conv', gpu=0, lr=0.01, nepochs=200, network='odenet', save='./cifar1', test_batch_size=1000, tol=0.001)
Sequential(
  (0): Conv2d(3, 4, kernel_size=(3, 3), stride=(1, 1))
  (1): BatchNorm2d(4, eps=4, momentum=0.1, affine=True, track_running_stats=True)
  (2): ReLU(inplace=True)
  (3): Conv2d(4, 4, kernel_size=(4, 4), stride=(2, 2), padding=(1, 1))
  (4): BatchNorm2d(4, eps=4, momentum=0.1, affine=True, track_running_stats=True)
  (5): ReLU(inplace=True)
  (6): Flatten()
  (7): ODEBlock(
    (odefunc): ODEfunc(
      (fc1): Linear(in_features=676, out_features=10, bias=True)
      (fc2): Linear(in_features=10, out_features=676, bias=True)
    )
  )
  (8): Linear(in_features=676, out_features=10, bias=True)
)
Sequential(
  (0): Conv2d(3, 4, kernel_size=(3, 3), stride=(1, 1))
  (1): BatchNorm2d(4, eps=4, momentum=0.1, affine=True, track_running_stats=True)
  (2): ReLU(inplace=True)
  (3): Conv2d(4, 4, kernel_size=(4, 4), stride=(2, 2), padding=(1, 1))
  (4): BatchNorm2d(4, eps=4, momentum=0.1, affine=True, track_running_stats=True)
  (5): ReLU(inplace=True)
  (6): Flatten()
  (7): ODEBlock(
    (odefunc): ODEfunc(
      (fc1): Linear(in_features=676, out_features=10, bias=True)
      (fc2): Linear(in_features=10, out_features=676, bias=True)
    )
  )
  (8): Linear(in_features=676, out_features=10, bias=True)
)
Sequential(
  (0): Conv2d(3, 4, kernel_size=(3, 3), stride=(1, 1))
  (1): BatchNorm2d(4, eps=4, momentum=0.1, affine=True, track_running_stats=True)
  (2): ReLU(inplace=True)
  (3): Conv2d(4, 4, kernel_size=(4, 4), stride=(2, 2), padding=(1, 1))
  (4): BatchNorm2d(4, eps=4, momentum=0.1, affine=True, track_running_stats=True)
  (5): ReLU(inplace=True)
  (6): Flatten()
  (7): ODEBlock(
    (odefunc): ODEfunc(
      (fc1): Linear(in_features=676, out_features=10, bias=True)
      (fc2): Linear(in_features=10, out_features=676, bias=True)
    )
  )
  (8): Linear(in_features=676, out_features=10, bias=True)
)
Number of parameters: 21364
Number of parameters: 21364
Number of parameters: 21364
/home/manzand/Documents/Python/neuralODE_examples/odenet_cifar_example_tiny.py
/home/manzand/Documents/Python/neuralODE_examples/odenet_cifar_example_tiny.py
/home/manzand/Documents/Python/neuralODE_examples/odenet_cifar_example_tiny.py
/home/manzand/Documents/Python/neuralODE_examples/odenet_cifar_example_tiny.py
…
Namespace(adjoint=False, batch_size=128, data_aug=True, debug=False, downsampling_method='conv', gpu=0, lr=0.01, nepochs=200, network='odenet', save='./cifar1', test_batch_size=1000, tol=0.001)
Namespace(adjoint=False, batch_size=128, data_aug=True, debug=False, downsampling_method='conv', gpu=0, lr=0.01, nepochs=200, network='odenet', save='./cifar1', test_batch_size=1000, tol=0.001)
Namespace(adjoint=False, batch_size=128, data_aug=True, debug=False, downsampling_method='conv', gpu=0, lr=0.01, nepochs=200, network='odenet', save='./cifar1', test_batch_size=1000, tol=0.001)
Namespace(adjoint=False, batch_size=128, data_aug=True, debug=False, downsampling_method='conv', gpu=0, lr=0.01, nepochs=200, network='odenet', save='./cifar1', test_batch_size=1000, tol=0.001)
Sequential(
  (0): Conv2d(3, 4, kernel_size=(3, 3), stride=(1, 1))
  (1): BatchNorm2d(4, eps=4, momentum=0.1, affine=True, track_running_stats=True)
  (2): ReLU(inplace=True)
  (3): Conv2d(4, 4, kernel_size=(4, 4), stride=(2, 2), padding=(1, 1))
  (4): BatchNorm2d(4, eps=4, momentum=0.1, affine=True, track_running_stats=True)
  (5): ReLU(inplace=True)
  (6): Flatten()
  (7): ODEBlock(
    (odefunc): ODEfunc(
      (fc1): Linear(in_features=90000, out_features=10, bias=True)
      (fc2): Linear(in_features=10, out_features=90000, bias=True)
    )
  )
  (8): Linear(in_features=676, out_features=10, bias=True)
)
Sequential(
  (0): Conv2d(3, 4, kernel_size=(3, 3), stride=(1, 1))
  (1): BatchNorm2d(4, eps=4, momentum=0.1, affine=True, track_running_stats=True)
  (2): ReLU(inplace=True)
  (3): Conv2d(4, 4, kernel_size=(4, 4), stride=(2, 2), padding=(1, 1))
  (4): BatchNorm2d(4, eps=4, momentum=0.1, affine=True, track_running_stats=True)
  (5): ReLU(inplace=True)
  (6): Flatten()
  (7): ODEBlock(
    (odefunc): ODEfunc(
      (fc1): Linear(in_features=90000, out_features=10, bias=True)
      (fc2): Linear(in_features=10, out_features=90000, bias=True)
    )
  )
  (8): Linear(in_features=676, out_features=10, bias=True)
)
Sequential(
  (0): Conv2d(3, 4, kernel_size=(3, 3), stride=(1, 1))
  (1): BatchNorm2d(4, eps=4, momentum=0.1, affine=True, track_running_stats=True)
  (2): ReLU(inplace=True)
  (3): Conv2d(4, 4, kernel_size=(4, 4), stride=(2, 2), padding=(1, 1))
  (4): BatchNorm2d(4, eps=4, momentum=0.1, affine=True, track_running_stats=True)
  (5): ReLU(inplace=True)
  (6): Flatten()
  (7): ODEBlock(
    (odefunc): ODEfunc(
      (fc1): Linear(in_features=90000, out_features=10, bias=True)
      (fc2): Linear(in_features=10, out_features=90000, bias=True)
    )
  )
  (8): Linear(in_features=676, out_features=10, bias=True)
)
Sequential(
  (0): Conv2d(3, 4, kernel_size=(3, 3), stride=(1, 1))
  (1): BatchNorm2d(4, eps=4, momentum=0.1, affine=True, track_running_stats=True)
  (2): ReLU(inplace=True)
  (3): Conv2d(4, 4, kernel_size=(4, 4), stride=(2, 2), padding=(1, 1))
  (4): BatchNorm2d(4, eps=4, momentum=0.1, affine=True, track_running_stats=True)
  (5): ReLU(inplace=True)
  (6): Flatten()
  (7): ODEBlock(
    (odefunc): ODEfunc(
      (fc1): Linear(in_features=90000, out_features=10, bias=True)
      (fc2): Linear(in_features=10, out_features=90000, bias=True)
    )
  )
  (8): Linear(in_features=676, out_features=10, bias=True)
)
Number of parameters: 1897168
Number of parameters: 1897168
Number of parameters: 1897168
Number of parameters: 1897168
/home/manzand/Documents/Python/neuralODE_examples/odenet_cifar_example_tiny.py
/home/manzand/Documents/Python/neuralODE_examples/odenet_cifar_example_tiny.py
/home/manzand/Documents/Python/neuralODE_examples/odenet_cifar_example_tiny.py
…
Namespace(adjoint=False, batch_size=128, data_aug=True, debug=False, downsampling_method='conv', gpu=0, lr=0.01, nepochs=200, network='odenet', save='./cifar1', test_batch_size=1000, tol=0.001)
Namespace(adjoint=False, batch_size=128, data_aug=True, debug=False, downsampling_method='conv', gpu=0, lr=0.01, nepochs=200, network='odenet', save='./cifar1', test_batch_size=1000, tol=0.001)
Namespace(adjoint=False, batch_size=128, data_aug=True, debug=False, downsampling_method='conv', gpu=0, lr=0.01, nepochs=200, network='odenet', save='./cifar1', test_batch_size=1000, tol=0.001)
Namespace(adjoint=False, batch_size=128, data_aug=True, debug=False, downsampling_method='conv', gpu=0, lr=0.01, nepochs=200, network='odenet', save='./cifar1', test_batch_size=1000, tol=0.001)
Sequential(
  (0): Conv2d(3, 4, kernel_size=(3, 3), stride=(1, 1))
  (1): BatchNorm2d(4, eps=4, momentum=0.1, affine=True, track_running_stats=True)
  (2): ReLU(inplace=True)
  (3): Conv2d(4, 4, kernel_size=(4, 4), stride=(2, 2), padding=(1, 1))
  (4): BatchNorm2d(4, eps=4, momentum=0.1, affine=True, track_running_stats=True)
  (5): ReLU(inplace=True)
  (6): Flatten()
  (7): ODEBlock(
    (odefunc): ODEfunc(
      (fc1): Linear(in_features=90000, out_features=10, bias=True)
      (fc2): Linear(in_features=10, out_features=90000, bias=True)
    )
  )
  (8): Linear(in_features=90000, out_features=10, bias=True)
)
Sequential(
  (0): Conv2d(3, 4, kernel_size=(3, 3), stride=(1, 1))
  (1): BatchNorm2d(4, eps=4, momentum=0.1, affine=True, track_running_stats=True)
  (2): ReLU(inplace=True)
  (3): Conv2d(4, 4, kernel_size=(4, 4), stride=(2, 2), padding=(1, 1))
  (4): BatchNorm2d(4, eps=4, momentum=0.1, affine=True, track_running_stats=True)
  (5): ReLU(inplace=True)
  (6): Flatten()
  (7): ODEBlock(
    (odefunc): ODEfunc(
      (fc1): Linear(in_features=90000, out_features=10, bias=True)
      (fc2): Linear(in_features=10, out_features=90000, bias=True)
    )
  )
  (8): Linear(in_features=90000, out_features=10, bias=True)
)
Sequential(
  (0): Conv2d(3, 4, kernel_size=(3, 3), stride=(1, 1))
  (1): BatchNorm2d(4, eps=4, momentum=0.1, affine=True, track_running_stats=True)
  (2): ReLU(inplace=True)
  (3): Conv2d(4, 4, kernel_size=(4, 4), stride=(2, 2), padding=(1, 1))
  (4): BatchNorm2d(4, eps=4, momentum=0.1, affine=True, track_running_stats=True)
  (5): ReLU(inplace=True)
  (6): Flatten()
  (7): ODEBlock(
    (odefunc): ODEfunc(
      (fc1): Linear(in_features=90000, out_features=10, bias=True)
      (fc2): Linear(in_features=10, out_features=90000, bias=True)
    )
  )
  (8): Linear(in_features=90000, out_features=10, bias=True)
)
Sequential(
  (0): Conv2d(3, 4, kernel_size=(3, 3), stride=(1, 1))
  (1): BatchNorm2d(4, eps=4, momentum=0.1, affine=True, track_running_stats=True)
  (2): ReLU(inplace=True)
  (3): Conv2d(4, 4, kernel_size=(4, 4), stride=(2, 2), padding=(1, 1))
  (4): BatchNorm2d(4, eps=4, momentum=0.1, affine=True, track_running_stats=True)
  (5): ReLU(inplace=True)
  (6): Flatten()
  (7): ODEBlock(
    (odefunc): ODEfunc(
      (fc1): Linear(in_features=90000, out_features=10, bias=True)
      (fc2): Linear(in_features=10, out_features=90000, bias=True)
    )
  )
  (8): Linear(in_features=90000, out_features=10, bias=True)
)
Sequential(
  (0): Conv2d(3, 4, kernel_size=(3, 3), stride=(1, 1))
  (1): BatchNorm2d(4, eps=4, momentum=0.1, affine=True, track_running_stats=True)
  (2): ReLU(inplace=True)
  (3): Conv2d(4, 4, kernel_size=(4, 4), stride=(2, 2), padding=(1, 1))
  (4): BatchNorm2d(4, eps=4, momentum=0.1, affine=True, track_running_stats=True)
  (5): ReLU(inplace=True)
  (6): Flatten()
  (7): ODEBlock(
    (odefunc): ODEfunc(
      (fc1): Linear(in_features=90000, out_features=10, bias=True)
      (fc2): Linear(in_features=10, out_features=90000, bias=True)
    )
  )
  (8): Linear(in_features=90000, out_features=10, bias=True)
)
Number of parameters: 2790408
Number of parameters: 2790408
Number of parameters: 2790408
Number of parameters: 2790408
Number of parameters: 2790408
/home/manzand/Documents/Python/neuralODE_examples/odenet_cifar_example_tiny.py
/home/manzand/Documents/Python/neuralODE_examples/odenet_cifar_example_tiny.py
/home/manzand/Documents/Python/neuralODE_examples/odenet_cifar_example_tiny.py
…
Namespace(adjoint=False, batch_size=128, data_aug=True, debug=False, downsampling_method='conv', gpu=0, lr=0.01, nepochs=200, network='odenet', save='./cifar1', test_batch_size=1000, tol=0.001)
Namespace(adjoint=False, batch_size=128, data_aug=True, debug=False, downsampling_method='conv', gpu=0, lr=0.01, nepochs=200, network='odenet', save='./cifar1', test_batch_size=1000, tol=0.001)
Namespace(adjoint=False, batch_size=128, data_aug=True, debug=False, downsampling_method='conv', gpu=0, lr=0.01, nepochs=200, network='odenet', save='./cifar1', test_batch_size=1000, tol=0.001)
Namespace(adjoint=False, batch_size=128, data_aug=True, debug=False, downsampling_method='conv', gpu=0, lr=0.01, nepochs=200, network='odenet', save='./cifar1', test_batch_size=1000, tol=0.001)
Sequential(
  (0): Conv2d(3, 4, kernel_size=(3, 3), stride=(1, 1))
  (1): BatchNorm2d(4, eps=4, momentum=0.1, affine=True, track_running_stats=True)
  (2): ReLU(inplace=True)
  (3): Conv2d(4, 4, kernel_size=(4, 4), stride=(2, 2), padding=(1, 1))
  (4): BatchNorm2d(4, eps=4, momentum=0.1, affine=True, track_running_stats=True)
  (5): ReLU(inplace=True)
  (6): Flatten()
  (7): ODEBlock(
    (odefunc): ODEfunc(
      (fc1): Linear(in_features=9000, out_features=10, bias=True)
      (fc2): Linear(in_features=10, out_features=9000, bias=True)
    )
  )
  (8): Linear(in_features=9000, out_features=10, bias=True)
)
Sequential(
  (0): Conv2d(3, 4, kernel_size=(3, 3), stride=(1, 1))
  (1): BatchNorm2d(4, eps=4, momentum=0.1, affine=True, track_running_stats=True)
  (2): ReLU(inplace=True)
  (3): Conv2d(4, 4, kernel_size=(4, 4), stride=(2, 2), padding=(1, 1))
  (4): BatchNorm2d(4, eps=4, momentum=0.1, affine=True, track_running_stats=True)
  (5): ReLU(inplace=True)
  (6): Flatten()
  (7): ODEBlock(
    (odefunc): ODEfunc(
      (fc1): Linear(in_features=9000, out_features=10, bias=True)
      (fc2): Linear(in_features=10, out_features=9000, bias=True)
    )
  )
  (8): Linear(in_features=9000, out_features=10, bias=True)
)
Sequential(
  (0): Conv2d(3, 4, kernel_size=(3, 3), stride=(1, 1))
  (1): BatchNorm2d(4, eps=4, momentum=0.1, affine=True, track_running_stats=True)
  (2): ReLU(inplace=True)
  (3): Conv2d(4, 4, kernel_size=(4, 4), stride=(2, 2), padding=(1, 1))
  (4): BatchNorm2d(4, eps=4, momentum=0.1, affine=True, track_running_stats=True)
  (5): ReLU(inplace=True)
  (6): Flatten()
  (7): ODEBlock(
    (odefunc): ODEfunc(
      (fc1): Linear(in_features=9000, out_features=10, bias=True)
      (fc2): Linear(in_features=10, out_features=9000, bias=True)
    )
  )
  (8): Linear(in_features=9000, out_features=10, bias=True)
)
Sequential(
  (0): Conv2d(3, 4, kernel_size=(3, 3), stride=(1, 1))
  (1): BatchNorm2d(4, eps=4, momentum=0.1, affine=True, track_running_stats=True)
  (2): ReLU(inplace=True)
  (3): Conv2d(4, 4, kernel_size=(4, 4), stride=(2, 2), padding=(1, 1))
  (4): BatchNorm2d(4, eps=4, momentum=0.1, affine=True, track_running_stats=True)
  (5): ReLU(inplace=True)
  (6): Flatten()
  (7): ODEBlock(
    (odefunc): ODEfunc(
      (fc1): Linear(in_features=9000, out_features=10, bias=True)
      (fc2): Linear(in_features=10, out_features=9000, bias=True)
    )
  )
  (8): Linear(in_features=9000, out_features=10, bias=True)
)
Sequential(
  (0): Conv2d(3, 4, kernel_size=(3, 3), stride=(1, 1))
  (1): BatchNorm2d(4, eps=4, momentum=0.1, affine=True, track_running_stats=True)
  (2): ReLU(inplace=True)
  (3): Conv2d(4, 4, kernel_size=(4, 4), stride=(2, 2), padding=(1, 1))
  (4): BatchNorm2d(4, eps=4, momentum=0.1, affine=True, track_running_stats=True)
  (5): ReLU(inplace=True)
  (6): Flatten()
  (7): ODEBlock(
    (odefunc): ODEfunc(
      (fc1): Linear(in_features=9000, out_features=10, bias=True)
      (fc2): Linear(in_features=10, out_features=9000, bias=True)
    )
  )
  (8): Linear(in_features=9000, out_features=10, bias=True)
)
Sequential(
  (0): Conv2d(3, 4, kernel_size=(3, 3), stride=(1, 1))
  (1): BatchNorm2d(4, eps=4, momentum=0.1, affine=True, track_running_stats=True)
  (2): ReLU(inplace=True)
  (3): Conv2d(4, 4, kernel_size=(4, 4), stride=(2, 2), padding=(1, 1))
  (4): BatchNorm2d(4, eps=4, momentum=0.1, affine=True, track_running_stats=True)
  (5): ReLU(inplace=True)
  (6): Flatten()
  (7): ODEBlock(
    (odefunc): ODEfunc(
      (fc1): Linear(in_features=9000, out_features=10, bias=True)
      (fc2): Linear(in_features=10, out_features=9000, bias=True)
    )
  )
  (8): Linear(in_features=9000, out_features=10, bias=True)
)
Number of parameters: 279408
Number of parameters: 279408
Number of parameters: 279408
Number of parameters: 279408
Number of parameters: 279408
Number of parameters: 279408
/home/manzand/Documents/Python/neuralODE_examples/odenet_cifar_example_tiny.py
/home/manzand/Documents/Python/neuralODE_examples/odenet_cifar_example_tiny.py
/home/manzand/Documents/Python/neuralODE_examples/odenet_cifar_example_tiny.py
…
Namespace(adjoint=False, batch_size=128, data_aug=True, debug=False, downsampling_method='conv', gpu=0, lr=0.01, nepochs=200, network='odenet', save='./cifar1', test_batch_size=1000, tol=0.001)
Namespace(adjoint=False, batch_size=128, data_aug=True, debug=False, downsampling_method='conv', gpu=0, lr=0.01, nepochs=200, network='odenet', save='./cifar1', test_batch_size=1000, tol=0.001)
Namespace(adjoint=False, batch_size=128, data_aug=True, debug=False, downsampling_method='conv', gpu=0, lr=0.01, nepochs=200, network='odenet', save='./cifar1', test_batch_size=1000, tol=0.001)
Namespace(adjoint=False, batch_size=128, data_aug=True, debug=False, downsampling_method='conv', gpu=0, lr=0.01, nepochs=200, network='odenet', save='./cifar1', test_batch_size=1000, tol=0.001)
Sequential(
  (0): Conv2d(3, 4, kernel_size=(3, 3), stride=(1, 1))
  (1): BatchNorm2d(4, eps=4, momentum=0.1, affine=True, track_running_stats=True)
  (2): ReLU(inplace=True)
  (3): Conv2d(4, 4, kernel_size=(4, 4), stride=(2, 2), padding=(1, 1))
  (4): BatchNorm2d(4, eps=4, momentum=0.1, affine=True, track_running_stats=True)
  (5): ReLU(inplace=True)
  (6): Flatten()
  (7): ODEBlock(
    (odefunc): ODEfunc(
      (fc1): Linear(in_features=9000, out_features=10, bias=True)
      (fc2): Linear(in_features=10, out_features=9000, bias=True)
    )
  )
  (8): Linear(in_features=9000, out_features=10, bias=True)
)
Sequential(
  (0): Conv2d(3, 4, kernel_size=(3, 3), stride=(1, 1))
  (1): BatchNorm2d(4, eps=4, momentum=0.1, affine=True, track_running_stats=True)
  (2): ReLU(inplace=True)
  (3): Conv2d(4, 4, kernel_size=(4, 4), stride=(2, 2), padding=(1, 1))
  (4): BatchNorm2d(4, eps=4, momentum=0.1, affine=True, track_running_stats=True)
  (5): ReLU(inplace=True)
  (6): Flatten()
  (7): ODEBlock(
    (odefunc): ODEfunc(
      (fc1): Linear(in_features=9000, out_features=10, bias=True)
      (fc2): Linear(in_features=10, out_features=9000, bias=True)
    )
  )
  (8): Linear(in_features=9000, out_features=10, bias=True)
)
Sequential(
  (0): Conv2d(3, 4, kernel_size=(3, 3), stride=(1, 1))
  (1): BatchNorm2d(4, eps=4, momentum=0.1, affine=True, track_running_stats=True)
  (2): ReLU(inplace=True)
  (3): Conv2d(4, 4, kernel_size=(4, 4), stride=(2, 2), padding=(1, 1))
  (4): BatchNorm2d(4, eps=4, momentum=0.1, affine=True, track_running_stats=True)
  (5): ReLU(inplace=True)
  (6): Flatten()
  (7): ODEBlock(
    (odefunc): ODEfunc(
      (fc1): Linear(in_features=9000, out_features=10, bias=True)
      (fc2): Linear(in_features=10, out_features=9000, bias=True)
    )
  )
  (8): Linear(in_features=9000, out_features=10, bias=True)
)
Sequential(
  (0): Conv2d(3, 4, kernel_size=(3, 3), stride=(1, 1))
  (1): BatchNorm2d(4, eps=4, momentum=0.1, affine=True, track_running_stats=True)
  (2): ReLU(inplace=True)
  (3): Conv2d(4, 4, kernel_size=(4, 4), stride=(2, 2), padding=(1, 1))
  (4): BatchNorm2d(4, eps=4, momentum=0.1, affine=True, track_running_stats=True)
  (5): ReLU(inplace=True)
  (6): Flatten()
  (7): ODEBlock(
    (odefunc): ODEfunc(
      (fc1): Linear(in_features=9000, out_features=10, bias=True)
      (fc2): Linear(in_features=10, out_features=9000, bias=True)
    )
  )
  (8): Linear(in_features=9000, out_features=10, bias=True)
)
Sequential(
  (0): Conv2d(3, 4, kernel_size=(3, 3), stride=(1, 1))
  (1): BatchNorm2d(4, eps=4, momentum=0.1, affine=True, track_running_stats=True)
  (2): ReLU(inplace=True)
  (3): Conv2d(4, 4, kernel_size=(4, 4), stride=(2, 2), padding=(1, 1))
  (4): BatchNorm2d(4, eps=4, momentum=0.1, affine=True, track_running_stats=True)
  (5): ReLU(inplace=True)
  (6): Flatten()
  (7): ODEBlock(
    (odefunc): ODEfunc(
      (fc1): Linear(in_features=9000, out_features=10, bias=True)
      (fc2): Linear(in_features=10, out_features=9000, bias=True)
    )
  )
  (8): Linear(in_features=9000, out_features=10, bias=True)
)
Sequential(
  (0): Conv2d(3, 4, kernel_size=(3, 3), stride=(1, 1))
  (1): BatchNorm2d(4, eps=4, momentum=0.1, affine=True, track_running_stats=True)
  (2): ReLU(inplace=True)
  (3): Conv2d(4, 4, kernel_size=(4, 4), stride=(2, 2), padding=(1, 1))
  (4): BatchNorm2d(4, eps=4, momentum=0.1, affine=True, track_running_stats=True)
  (5): ReLU(inplace=True)
  (6): Flatten()
  (7): ODEBlock(
    (odefunc): ODEfunc(
      (fc1): Linear(in_features=9000, out_features=10, bias=True)
      (fc2): Linear(in_features=10, out_features=9000, bias=True)
    )
  )
  (8): Linear(in_features=9000, out_features=10, bias=True)
)
Sequential(
  (0): Conv2d(3, 4, kernel_size=(3, 3), stride=(1, 1))
  (1): BatchNorm2d(4, eps=4, momentum=0.1, affine=True, track_running_stats=True)
  (2): ReLU(inplace=True)
  (3): Conv2d(4, 4, kernel_size=(4, 4), stride=(2, 2), padding=(1, 1))
  (4): BatchNorm2d(4, eps=4, momentum=0.1, affine=True, track_running_stats=True)
  (5): ReLU(inplace=True)
  (6): Flatten()
  (7): ODEBlock(
    (odefunc): ODEfunc(
      (fc1): Linear(in_features=9000, out_features=10, bias=True)
      (fc2): Linear(in_features=10, out_features=9000, bias=True)
    )
  )
  (8): Linear(in_features=9000, out_features=10, bias=True)
)
Number of parameters: 279408
Number of parameters: 279408
Number of parameters: 279408
Number of parameters: 279408
Number of parameters: 279408
Number of parameters: 279408
Number of parameters: 279408
/home/manzand/Documents/Python/neuralODE_examples/odenet_cifar_example_tiny.py
/home/manzand/Documents/Python/neuralODE_examples/odenet_cifar_example_tiny.py
…
Namespace(adjoint=False, batch_size=128, data_aug=True, debug=False, downsampling_method='conv', gpu=0, lr=0.01, nepochs=200, network='odenet', save='./cifar1', test_batch_size=1000, tol=0.001)
Namespace(adjoint=False, batch_size=128, data_aug=True, debug=False, downsampling_method='conv', gpu=0, lr=0.01, nepochs=200, network='odenet', save='./cifar1', test_batch_size=1000, tol=0.001)
Namespace(adjoint=False, batch_size=128, data_aug=True, debug=False, downsampling_method='conv', gpu=0, lr=0.01, nepochs=200, network='odenet', save='./cifar1', test_batch_size=1000, tol=0.001)
Namespace(adjoint=False, batch_size=128, data_aug=True, debug=False, downsampling_method='conv', gpu=0, lr=0.01, nepochs=200, network='odenet', save='./cifar1', test_batch_size=1000, tol=0.001)
Sequential(
  (0): Conv2d(3, 4, kernel_size=(3, 3), stride=(1, 1))
  (1): BatchNorm2d(4, eps=4, momentum=0.1, affine=True, track_running_stats=True)
  (2): ReLU(inplace=True)
  (3): Conv2d(4, 4, kernel_size=(4, 4), stride=(2, 2), padding=(1, 1))
  (4): BatchNorm2d(4, eps=4, momentum=0.1, affine=True, track_running_stats=True)
  (5): ReLU(inplace=True)
  (6): Flatten()
  (7): ODEBlock(
    (odefunc): ODEfunc(
      (fc1): Linear(in_features=86528, out_features=10, bias=True)
      (fc2): Linear(in_features=10, out_features=86528, bias=True)
    )
  )
  (8): Linear(in_features=86528, out_features=10, bias=True)
)
Sequential(
  (0): Conv2d(3, 4, kernel_size=(3, 3), stride=(1, 1))
  (1): BatchNorm2d(4, eps=4, momentum=0.1, affine=True, track_running_stats=True)
  (2): ReLU(inplace=True)
  (3): Conv2d(4, 4, kernel_size=(4, 4), stride=(2, 2), padding=(1, 1))
  (4): BatchNorm2d(4, eps=4, momentum=0.1, affine=True, track_running_stats=True)
  (5): ReLU(inplace=True)
  (6): Flatten()
  (7): ODEBlock(
    (odefunc): ODEfunc(
      (fc1): Linear(in_features=86528, out_features=10, bias=True)
      (fc2): Linear(in_features=10, out_features=86528, bias=True)
    )
  )
  (8): Linear(in_features=86528, out_features=10, bias=True)
)
Sequential(
  (0): Conv2d(3, 4, kernel_size=(3, 3), stride=(1, 1))
  (1): BatchNorm2d(4, eps=4, momentum=0.1, affine=True, track_running_stats=True)
  (2): ReLU(inplace=True)
  (3): Conv2d(4, 4, kernel_size=(4, 4), stride=(2, 2), padding=(1, 1))
  (4): BatchNorm2d(4, eps=4, momentum=0.1, affine=True, track_running_stats=True)
  (5): ReLU(inplace=True)
  (6): Flatten()
  (7): ODEBlock(
    (odefunc): ODEfunc(
      (fc1): Linear(in_features=86528, out_features=10, bias=True)
      (fc2): Linear(in_features=10, out_features=86528, bias=True)
    )
  )
  (8): Linear(in_features=86528, out_features=10, bias=True)
)
Sequential(
  (0): Conv2d(3, 4, kernel_size=(3, 3), stride=(1, 1))
  (1): BatchNorm2d(4, eps=4, momentum=0.1, affine=True, track_running_stats=True)
  (2): ReLU(inplace=True)
  (3): Conv2d(4, 4, kernel_size=(4, 4), stride=(2, 2), padding=(1, 1))
  (4): BatchNorm2d(4, eps=4, momentum=0.1, affine=True, track_running_stats=True)
  (5): ReLU(inplace=True)
  (6): Flatten()
  (7): ODEBlock(
    (odefunc): ODEfunc(
      (fc1): Linear(in_features=86528, out_features=10, bias=True)
      (fc2): Linear(in_features=10, out_features=86528, bias=True)
    )
  )
  (8): Linear(in_features=86528, out_features=10, bias=True)
)
Sequential(
  (0): Conv2d(3, 4, kernel_size=(3, 3), stride=(1, 1))
  (1): BatchNorm2d(4, eps=4, momentum=0.1, affine=True, track_running_stats=True)
  (2): ReLU(inplace=True)
  (3): Conv2d(4, 4, kernel_size=(4, 4), stride=(2, 2), padding=(1, 1))
  (4): BatchNorm2d(4, eps=4, momentum=0.1, affine=True, track_running_stats=True)
  (5): ReLU(inplace=True)
  (6): Flatten()
  (7): ODEBlock(
    (odefunc): ODEfunc(
      (fc1): Linear(in_features=86528, out_features=10, bias=True)
      (fc2): Linear(in_features=10, out_features=86528, bias=True)
    )
  )
  (8): Linear(in_features=86528, out_features=10, bias=True)
)
Sequential(
  (0): Conv2d(3, 4, kernel_size=(3, 3), stride=(1, 1))
  (1): BatchNorm2d(4, eps=4, momentum=0.1, affine=True, track_running_stats=True)
  (2): ReLU(inplace=True)
  (3): Conv2d(4, 4, kernel_size=(4, 4), stride=(2, 2), padding=(1, 1))
  (4): BatchNorm2d(4, eps=4, momentum=0.1, affine=True, track_running_stats=True)
  (5): ReLU(inplace=True)
  (6): Flatten()
  (7): ODEBlock(
    (odefunc): ODEfunc(
      (fc1): Linear(in_features=86528, out_features=10, bias=True)
      (fc2): Linear(in_features=10, out_features=86528, bias=True)
    )
  )
  (8): Linear(in_features=86528, out_features=10, bias=True)
)
Sequential(
  (0): Conv2d(3, 4, kernel_size=(3, 3), stride=(1, 1))
  (1): BatchNorm2d(4, eps=4, momentum=0.1, affine=True, track_running_stats=True)
  (2): ReLU(inplace=True)
  (3): Conv2d(4, 4, kernel_size=(4, 4), stride=(2, 2), padding=(1, 1))
  (4): BatchNorm2d(4, eps=4, momentum=0.1, affine=True, track_running_stats=True)
  (5): ReLU(inplace=True)
  (6): Flatten()
  (7): ODEBlock(
    (odefunc): ODEfunc(
      (fc1): Linear(in_features=86528, out_features=10, bias=True)
      (fc2): Linear(in_features=10, out_features=86528, bias=True)
    )
  )
  (8): Linear(in_features=86528, out_features=10, bias=True)
)
Sequential(
  (0): Conv2d(3, 4, kernel_size=(3, 3), stride=(1, 1))
  (1): BatchNorm2d(4, eps=4, momentum=0.1, affine=True, track_running_stats=True)
  (2): ReLU(inplace=True)
  (3): Conv2d(4, 4, kernel_size=(4, 4), stride=(2, 2), padding=(1, 1))
  (4): BatchNorm2d(4, eps=4, momentum=0.1, affine=True, track_running_stats=True)
  (5): ReLU(inplace=True)
  (6): Flatten()
  (7): ODEBlock(
    (odefunc): ODEfunc(
      (fc1): Linear(in_features=86528, out_features=10, bias=True)
      (fc2): Linear(in_features=10, out_features=86528, bias=True)
    )
  )
  (8): Linear(in_features=86528, out_features=10, bias=True)
)
Number of parameters: 2682776
Number of parameters: 2682776
Number of parameters: 2682776
Number of parameters: 2682776
Number of parameters: 2682776
Number of parameters: 2682776
Number of parameters: 2682776
Number of parameters: 2682776
/home/manzand/Documents/Python/neuralODE_examples/odenet_cifar_example_tiny.py
/home/manzand/Documents/Python/neuralODE_examples/odenet_cifar_example_tiny.py
…
Namespace(adjoint=False, batch_size=128, data_aug=True, debug=False, downsampling_method='conv', gpu=0, lr=0.01, nepochs=200, network='odenet', save='./cifar1', test_batch_size=1000, tol=0.001)
Namespace(adjoint=False, batch_size=128, data_aug=True, debug=False, downsampling_method='conv', gpu=0, lr=0.01, nepochs=200, network='odenet', save='./cifar1', test_batch_size=1000, tol=0.001)
Namespace(adjoint=False, batch_size=128, data_aug=True, debug=False, downsampling_method='conv', gpu=0, lr=0.01, nepochs=200, network='odenet', save='./cifar1', test_batch_size=1000, tol=0.001)
Namespace(adjoint=False, batch_size=128, data_aug=True, debug=False, downsampling_method='conv', gpu=0, lr=0.01, nepochs=200, network='odenet', save='./cifar1', test_batch_size=1000, tol=0.001)
Sequential(
  (0): Conv2d(3, 4, kernel_size=(3, 3), stride=(1, 1))
  (1): BatchNorm2d(4, eps=4, momentum=0.1, affine=True, track_running_stats=True)
  (2): ReLU(inplace=True)
  (3): Conv2d(4, 4, kernel_size=(4, 4), stride=(2, 2), padding=(1, 1))
  (4): BatchNorm2d(4, eps=4, momentum=0.1, affine=True, track_running_stats=True)
  (5): ReLU(inplace=True)
  (6): Flatten()
  (7): ODEBlock(
    (odefunc): ODEfunc(
      (fc1): Linear(in_features=5408, out_features=16, bias=True)
      (fc2): Linear(in_features=16, out_features=5408, bias=True)
    )
  )
  (8): Linear(in_features=5408, out_features=10, bias=True)
)
Sequential(
  (0): Conv2d(3, 4, kernel_size=(3, 3), stride=(1, 1))
  (1): BatchNorm2d(4, eps=4, momentum=0.1, affine=True, track_running_stats=True)
  (2): ReLU(inplace=True)
  (3): Conv2d(4, 4, kernel_size=(4, 4), stride=(2, 2), padding=(1, 1))
  (4): BatchNorm2d(4, eps=4, momentum=0.1, affine=True, track_running_stats=True)
  (5): ReLU(inplace=True)
  (6): Flatten()
  (7): ODEBlock(
    (odefunc): ODEfunc(
      (fc1): Linear(in_features=5408, out_features=16, bias=True)
      (fc2): Linear(in_features=16, out_features=5408, bias=True)
    )
  )
  (8): Linear(in_features=5408, out_features=10, bias=True)
)
Sequential(
  (0): Conv2d(3, 4, kernel_size=(3, 3), stride=(1, 1))
  (1): BatchNorm2d(4, eps=4, momentum=0.1, affine=True, track_running_stats=True)
  (2): ReLU(inplace=True)
  (3): Conv2d(4, 4, kernel_size=(4, 4), stride=(2, 2), padding=(1, 1))
  (4): BatchNorm2d(4, eps=4, momentum=0.1, affine=True, track_running_stats=True)
  (5): ReLU(inplace=True)
  (6): Flatten()
  (7): ODEBlock(
    (odefunc): ODEfunc(
      (fc1): Linear(in_features=5408, out_features=16, bias=True)
      (fc2): Linear(in_features=16, out_features=5408, bias=True)
    )
  )
  (8): Linear(in_features=5408, out_features=10, bias=True)
)
Sequential(
  (0): Conv2d(3, 4, kernel_size=(3, 3), stride=(1, 1))
  (1): BatchNorm2d(4, eps=4, momentum=0.1, affine=True, track_running_stats=True)
  (2): ReLU(inplace=True)
  (3): Conv2d(4, 4, kernel_size=(4, 4), stride=(2, 2), padding=(1, 1))
  (4): BatchNorm2d(4, eps=4, momentum=0.1, affine=True, track_running_stats=True)
  (5): ReLU(inplace=True)
  (6): Flatten()
  (7): ODEBlock(
    (odefunc): ODEfunc(
      (fc1): Linear(in_features=5408, out_features=16, bias=True)
      (fc2): Linear(in_features=16, out_features=5408, bias=True)
    )
  )
  (8): Linear(in_features=5408, out_features=10, bias=True)
)
Sequential(
  (0): Conv2d(3, 4, kernel_size=(3, 3), stride=(1, 1))
  (1): BatchNorm2d(4, eps=4, momentum=0.1, affine=True, track_running_stats=True)
  (2): ReLU(inplace=True)
  (3): Conv2d(4, 4, kernel_size=(4, 4), stride=(2, 2), padding=(1, 1))
  (4): BatchNorm2d(4, eps=4, momentum=0.1, affine=True, track_running_stats=True)
  (5): ReLU(inplace=True)
  (6): Flatten()
  (7): ODEBlock(
    (odefunc): ODEfunc(
      (fc1): Linear(in_features=5408, out_features=16, bias=True)
      (fc2): Linear(in_features=16, out_features=5408, bias=True)
    )
  )
  (8): Linear(in_features=5408, out_features=10, bias=True)
)
Sequential(
  (0): Conv2d(3, 4, kernel_size=(3, 3), stride=(1, 1))
  (1): BatchNorm2d(4, eps=4, momentum=0.1, affine=True, track_running_stats=True)
  (2): ReLU(inplace=True)
  (3): Conv2d(4, 4, kernel_size=(4, 4), stride=(2, 2), padding=(1, 1))
  (4): BatchNorm2d(4, eps=4, momentum=0.1, affine=True, track_running_stats=True)
  (5): ReLU(inplace=True)
  (6): Flatten()
  (7): ODEBlock(
    (odefunc): ODEfunc(
      (fc1): Linear(in_features=5408, out_features=16, bias=True)
      (fc2): Linear(in_features=16, out_features=5408, bias=True)
    )
  )
  (8): Linear(in_features=5408, out_features=10, bias=True)
)
Sequential(
  (0): Conv2d(3, 4, kernel_size=(3, 3), stride=(1, 1))
  (1): BatchNorm2d(4, eps=4, momentum=0.1, affine=True, track_running_stats=True)
  (2): ReLU(inplace=True)
  (3): Conv2d(4, 4, kernel_size=(4, 4), stride=(2, 2), padding=(1, 1))
  (4): BatchNorm2d(4, eps=4, momentum=0.1, affine=True, track_running_stats=True)
  (5): ReLU(inplace=True)
  (6): Flatten()
  (7): ODEBlock(
    (odefunc): ODEfunc(
      (fc1): Linear(in_features=5408, out_features=16, bias=True)
      (fc2): Linear(in_features=16, out_features=5408, bias=True)
    )
  )
  (8): Linear(in_features=5408, out_features=10, bias=True)
)
Sequential(
  (0): Conv2d(3, 4, kernel_size=(3, 3), stride=(1, 1))
  (1): BatchNorm2d(4, eps=4, momentum=0.1, affine=True, track_running_stats=True)
  (2): ReLU(inplace=True)
  (3): Conv2d(4, 4, kernel_size=(4, 4), stride=(2, 2), padding=(1, 1))
  (4): BatchNorm2d(4, eps=4, momentum=0.1, affine=True, track_running_stats=True)
  (5): ReLU(inplace=True)
  (6): Flatten()
  (7): ODEBlock(
    (odefunc): ODEfunc(
      (fc1): Linear(in_features=5408, out_features=16, bias=True)
      (fc2): Linear(in_features=16, out_features=5408, bias=True)
    )
  )
  (8): Linear(in_features=5408, out_features=10, bias=True)
)
Sequential(
  (0): Conv2d(3, 4, kernel_size=(3, 3), stride=(1, 1))
  (1): BatchNorm2d(4, eps=4, momentum=0.1, affine=True, track_running_stats=True)
  (2): ReLU(inplace=True)
  (3): Conv2d(4, 4, kernel_size=(4, 4), stride=(2, 2), padding=(1, 1))
  (4): BatchNorm2d(4, eps=4, momentum=0.1, affine=True, track_running_stats=True)
  (5): ReLU(inplace=True)
  (6): Flatten()
  (7): ODEBlock(
    (odefunc): ODEfunc(
      (fc1): Linear(in_features=5408, out_features=16, bias=True)
      (fc2): Linear(in_features=16, out_features=5408, bias=True)
    )
  )
  (8): Linear(in_features=5408, out_features=10, bias=True)
)
Number of parameters: 232958
Number of parameters: 232958
Number of parameters: 232958
Number of parameters: 232958
Number of parameters: 232958
Number of parameters: 232958
Number of parameters: 232958
Number of parameters: 232958
Number of parameters: 232958
/home/manzand/Documents/Python/neuralODE_examples/odenet_cifar_example_tiny.py
/home/manzand/Documents/Python/neuralODE_examples/odenet_cifar_example_tiny.py
…
Namespace(adjoint=False, batch_size=128, data_aug=True, debug=False, downsampling_method='conv', gpu=0, lr=0.01, nepochs=200, network='odenet', save='./cifar1', test_batch_size=1000, tol=0.001)
Namespace(adjoint=False, batch_size=128, data_aug=True, debug=False, downsampling_method='conv', gpu=0, lr=0.01, nepochs=200, network='odenet', save='./cifar1', test_batch_size=1000, tol=0.001)
Namespace(adjoint=False, batch_size=128, data_aug=True, debug=False, downsampling_method='conv', gpu=0, lr=0.01, nepochs=200, network='odenet', save='./cifar1', test_batch_size=1000, tol=0.001)
Namespace(adjoint=False, batch_size=128, data_aug=True, debug=False, downsampling_method='conv', gpu=0, lr=0.01, nepochs=200, network='odenet', save='./cifar1', test_batch_size=1000, tol=0.001)
Sequential(
  (0): Conv2d(3, 4, kernel_size=(3, 3), stride=(1, 1))
  (1): BatchNorm2d(4, eps=4, momentum=0.1, affine=True, track_running_stats=True)
  (2): ReLU(inplace=True)
  (3): Conv2d(4, 4, kernel_size=(4, 4), stride=(2, 2), padding=(1, 1))
  (4): BatchNorm2d(4, eps=4, momentum=0.1, affine=True, track_running_stats=True)
  (5): ReLU(inplace=True)
  (6): Flatten()
  (7): ODEBlock(
    (odefunc): ODEfunc(
      (fc1): Linear(in_features=676, out_features=16, bias=True)
      (fc2): Linear(in_features=16, out_features=676, bias=True)
    )
  )
  (8): Linear(in_features=676, out_features=10, bias=True)
)
Sequential(
  (0): Conv2d(3, 4, kernel_size=(3, 3), stride=(1, 1))
  (1): BatchNorm2d(4, eps=4, momentum=0.1, affine=True, track_running_stats=True)
  (2): ReLU(inplace=True)
  (3): Conv2d(4, 4, kernel_size=(4, 4), stride=(2, 2), padding=(1, 1))
  (4): BatchNorm2d(4, eps=4, momentum=0.1, affine=True, track_running_stats=True)
  (5): ReLU(inplace=True)
  (6): Flatten()
  (7): ODEBlock(
    (odefunc): ODEfunc(
      (fc1): Linear(in_features=676, out_features=16, bias=True)
      (fc2): Linear(in_features=16, out_features=676, bias=True)
    )
  )
  (8): Linear(in_features=676, out_features=10, bias=True)
)
Sequential(
  (0): Conv2d(3, 4, kernel_size=(3, 3), stride=(1, 1))
  (1): BatchNorm2d(4, eps=4, momentum=0.1, affine=True, track_running_stats=True)
  (2): ReLU(inplace=True)
  (3): Conv2d(4, 4, kernel_size=(4, 4), stride=(2, 2), padding=(1, 1))
  (4): BatchNorm2d(4, eps=4, momentum=0.1, affine=True, track_running_stats=True)
  (5): ReLU(inplace=True)
  (6): Flatten()
  (7): ODEBlock(
    (odefunc): ODEfunc(
      (fc1): Linear(in_features=676, out_features=16, bias=True)
      (fc2): Linear(in_features=16, out_features=676, bias=True)
    )
  )
  (8): Linear(in_features=676, out_features=10, bias=True)
)
Sequential(
  (0): Conv2d(3, 4, kernel_size=(3, 3), stride=(1, 1))
  (1): BatchNorm2d(4, eps=4, momentum=0.1, affine=True, track_running_stats=True)
  (2): ReLU(inplace=True)
  (3): Conv2d(4, 4, kernel_size=(4, 4), stride=(2, 2), padding=(1, 1))
  (4): BatchNorm2d(4, eps=4, momentum=0.1, affine=True, track_running_stats=True)
  (5): ReLU(inplace=True)
  (6): Flatten()
  (7): ODEBlock(
    (odefunc): ODEfunc(
      (fc1): Linear(in_features=676, out_features=16, bias=True)
      (fc2): Linear(in_features=16, out_features=676, bias=True)
    )
  )
  (8): Linear(in_features=676, out_features=10, bias=True)
)
Sequential(
  (0): Conv2d(3, 4, kernel_size=(3, 3), stride=(1, 1))
  (1): BatchNorm2d(4, eps=4, momentum=0.1, affine=True, track_running_stats=True)
  (2): ReLU(inplace=True)
  (3): Conv2d(4, 4, kernel_size=(4, 4), stride=(2, 2), padding=(1, 1))
  (4): BatchNorm2d(4, eps=4, momentum=0.1, affine=True, track_running_stats=True)
  (5): ReLU(inplace=True)
  (6): Flatten()
  (7): ODEBlock(
    (odefunc): ODEfunc(
      (fc1): Linear(in_features=676, out_features=16, bias=True)
      (fc2): Linear(in_features=16, out_features=676, bias=True)
    )
  )
  (8): Linear(in_features=676, out_features=10, bias=True)
)
Sequential(
  (0): Conv2d(3, 4, kernel_size=(3, 3), stride=(1, 1))
  (1): BatchNorm2d(4, eps=4, momentum=0.1, affine=True, track_running_stats=True)
  (2): ReLU(inplace=True)
  (3): Conv2d(4, 4, kernel_size=(4, 4), stride=(2, 2), padding=(1, 1))
  (4): BatchNorm2d(4, eps=4, momentum=0.1, affine=True, track_running_stats=True)
  (5): ReLU(inplace=True)
  (6): Flatten()
  (7): ODEBlock(
    (odefunc): ODEfunc(
      (fc1): Linear(in_features=676, out_features=16, bias=True)
      (fc2): Linear(in_features=16, out_features=676, bias=True)
    )
  )
  (8): Linear(in_features=676, out_features=10, bias=True)
)
Sequential(
  (0): Conv2d(3, 4, kernel_size=(3, 3), stride=(1, 1))
  (1): BatchNorm2d(4, eps=4, momentum=0.1, affine=True, track_running_stats=True)
  (2): ReLU(inplace=True)
  (3): Conv2d(4, 4, kernel_size=(4, 4), stride=(2, 2), padding=(1, 1))
  (4): BatchNorm2d(4, eps=4, momentum=0.1, affine=True, track_running_stats=True)
  (5): ReLU(inplace=True)
  (6): Flatten()
  (7): ODEBlock(
    (odefunc): ODEfunc(
      (fc1): Linear(in_features=676, out_features=16, bias=True)
      (fc2): Linear(in_features=16, out_features=676, bias=True)
    )
  )
  (8): Linear(in_features=676, out_features=10, bias=True)
)
Sequential(
  (0): Conv2d(3, 4, kernel_size=(3, 3), stride=(1, 1))
  (1): BatchNorm2d(4, eps=4, momentum=0.1, affine=True, track_running_stats=True)
  (2): ReLU(inplace=True)
  (3): Conv2d(4, 4, kernel_size=(4, 4), stride=(2, 2), padding=(1, 1))
  (4): BatchNorm2d(4, eps=4, momentum=0.1, affine=True, track_running_stats=True)
  (5): ReLU(inplace=True)
  (6): Flatten()
  (7): ODEBlock(
    (odefunc): ODEfunc(
      (fc1): Linear(in_features=676, out_features=16, bias=True)
      (fc2): Linear(in_features=16, out_features=676, bias=True)
    )
  )
  (8): Linear(in_features=676, out_features=10, bias=True)
)
Sequential(
  (0): Conv2d(3, 4, kernel_size=(3, 3), stride=(1, 1))
  (1): BatchNorm2d(4, eps=4, momentum=0.1, affine=True, track_running_stats=True)
  (2): ReLU(inplace=True)
  (3): Conv2d(4, 4, kernel_size=(4, 4), stride=(2, 2), padding=(1, 1))
  (4): BatchNorm2d(4, eps=4, momentum=0.1, affine=True, track_running_stats=True)
  (5): ReLU(inplace=True)
  (6): Flatten()
  (7): ODEBlock(
    (odefunc): ODEfunc(
      (fc1): Linear(in_features=676, out_features=16, bias=True)
      (fc2): Linear(in_features=16, out_features=676, bias=True)
    )
  )
  (8): Linear(in_features=676, out_features=10, bias=True)
)
Sequential(
  (0): Conv2d(3, 4, kernel_size=(3, 3), stride=(1, 1))
  (1): BatchNorm2d(4, eps=4, momentum=0.1, affine=True, track_running_stats=True)
  (2): ReLU(inplace=True)
  (3): Conv2d(4, 4, kernel_size=(4, 4), stride=(2, 2), padding=(1, 1))
  (4): BatchNorm2d(4, eps=4, momentum=0.1, affine=True, track_running_stats=True)
  (5): ReLU(inplace=True)
  (6): Flatten()
  (7): ODEBlock(
    (odefunc): ODEfunc(
      (fc1): Linear(in_features=676, out_features=16, bias=True)
      (fc2): Linear(in_features=16, out_features=676, bias=True)
    )
  )
  (8): Linear(in_features=676, out_features=10, bias=True)
)
Number of parameters: 29482
Number of parameters: 29482
Number of parameters: 29482
Number of parameters: 29482
Number of parameters: 29482
Number of parameters: 29482
Number of parameters: 29482
Number of parameters: 29482
Number of parameters: 29482
Number of parameters: 29482
/home/manzand/Documents/Python/neuralODE_examples/odenet_cifar_example_tiny.py
…
                    )
                )
    names = []
    params = []
    for name,param in model.named_parameters():
        names.append(name)
        params.append(param.detach().numpy())
    nn1 = dict({'Wb':params,'names':names})
    for name,param in model.named_buffers():
        names.append(name)
        params.append(param.detach().numpy())
    savemat("odecnn_cifar_tiny2.mat",nn1)
Namespace(adjoint=False, batch_size=128, data_aug=True, debug=False, downsampling_method='conv', gpu=0, lr=0.01, nepochs=200, network='odenet', save='./cifar1', test_batch_size=1000, tol=0.001)
Sequential(
  (0): Conv2d(3, 4, kernel_size=(3, 3), stride=(1, 1))
  (1): BatchNorm2d(4, eps=4, momentum=0.1, affine=True, track_running_stats=True)
  (2): ReLU(inplace=True)
  (3): Conv2d(4, 4, kernel_size=(4, 4), stride=(2, 2), padding=(1, 1))
  (4): BatchNorm2d(4, eps=4, momentum=0.1, affine=True, track_running_stats=True)
  (5): ReLU(inplace=True)
  (6): Flatten()
  (7): ODEBlock(
    (odefunc): ODEfunc(
      (fc1): Linear(in_features=676, out_features=16, bias=True)
      (fc2): Linear(in_features=16, out_features=676, bias=True)
    )
  )
  (8): Linear(in_features=676, out_features=10, bias=True)
)
Number of parameters: 29482
/home/manzand/Documents/Python/neuralODE_examples/odenet_cifar_example_tiny.py
/home/manzand/Documents/Python/neuralODE_examples/odenet_cifar_example_tiny.py
#!/usr/bin/env python3
# -*- coding: utf-8 -*-
"""
Created on Thu Feb  4 09:04:31 2021

@author: manzand
"""

#!/usr/bin/env python3
# -*- coding: utf-8 -*-
"""
Created on Tue Jan 19 15:10:31 2021
…
    nn1 = dict({'Wb':params,'names':names})
    for name,param in model.named_buffers():
        names.append(name)
        params.append(param.detach().numpy())
    savemat("odecnn_cifar_tiny2.mat",nn1)
Namespace(adjoint=False, batch_size=128, data_aug=True, debug=False, downsampling_method='conv', gpu=0, lr=0.01, nepochs=200, network='odenet', save='./cifar1', test_batch_size=1000, tol=0.001)
Namespace(adjoint=False, batch_size=128, data_aug=True, debug=False, downsampling_method='conv', gpu=0, lr=0.01, nepochs=200, network='odenet', save='./cifar1', test_batch_size=1000, tol=0.001)
Sequential(
  (0): Conv2d(3, 4, kernel_size=(3, 3), stride=(1, 1))
  (1): BatchNorm2d(4, eps=4, momentum=0.1, affine=True, track_running_stats=True)
  (2): ReLU(inplace=True)
  (3): Conv2d(4, 4, kernel_size=(4, 4), stride=(2, 2), padding=(1, 1))
  (4): BatchNorm2d(4, eps=4, momentum=0.1, affine=True, track_running_stats=True)
  (5): ReLU(inplace=True)
  (6): Flatten()
  (7): ODEBlock(
    (odefunc): ODEfunc(
      (fc1): Linear(in_features=676, out_features=16, bias=True)
      (fc2): Linear(in_features=16, out_features=676, bias=True)
    )
  )
  (8): Linear(in_features=676, out_features=10, bias=True)
)
Sequential(
  (0): Conv2d(3, 4, kernel_size=(3, 3), stride=(1, 1))
  (1): BatchNorm2d(4, eps=4, momentum=0.1, affine=True, track_running_stats=True)
  (2): ReLU(inplace=True)
  (3): Conv2d(4, 4, kernel_size=(4, 4), stride=(2, 2), padding=(1, 1))
  (4): BatchNorm2d(4, eps=4, momentum=0.1, affine=True, track_running_stats=True)
  (5): ReLU(inplace=True)
  (6): Flatten()
  (7): ODEBlock(
    (odefunc): ODEfunc(
      (fc1): Linear(in_features=676, out_features=16, bias=True)
      (fc2): Linear(in_features=16, out_features=676, bias=True)
    )
  )
  (8): Linear(in_features=676, out_features=10, bias=True)
)
Number of parameters: 29482
Number of parameters: 29482
/home/manzand/Documents/Python/neuralODE_examples/odenet_cifar_example_tiny.py
/home/manzand/Documents/Python/neuralODE_examples/odenet_cifar_example_tiny.py
/home/manzand/Documents/Python/neuralODE_examples/odenet_cifar_example_tiny.py
#!/usr/bin/env python3
# -*- coding: utf-8 -*-
"""
Created on Thu Feb  4 09:04:31 2021
…
    savemat("odecnn_cifar_tiny2.mat",nn1)
Namespace(adjoint=False, batch_size=128, data_aug=True, debug=False, downsampling_method='conv', gpu=0, lr=0.01, nepochs=200, network='odenet', save='./cifar1', test_batch_size=1000, tol=0.001)
Namespace(adjoint=False, batch_size=128, data_aug=True, debug=False, downsampling_method='conv', gpu=0, lr=0.01, nepochs=200, network='odenet', save='./cifar1', test_batch_size=1000, tol=0.001)
Namespace(adjoint=False, batch_size=128, data_aug=True, debug=False, downsampling_method='conv', gpu=0, lr=0.01, nepochs=200, network='odenet', save='./cifar1', test_batch_size=1000, tol=0.001)
Sequential(
  (0): Conv2d(3, 4, kernel_size=(3, 3), stride=(1, 1))
  (1): BatchNorm2d(4, eps=4, momentum=0.1, affine=True, track_running_stats=True)
  (2): ReLU(inplace=True)
  (3): Conv2d(4, 4, kernel_size=(4, 4), stride=(2, 2), padding=(1, 1))
  (4): BatchNorm2d(4, eps=4, momentum=0.1, affine=True, track_running_stats=True)
  (5): ReLU(inplace=True)
  (6): Flatten()
  (7): ODEBlock(
    (odefunc): ODEfunc(
      (fc1): Linear(in_features=676, out_features=16, bias=True)
      (fc2): Linear(in_features=16, out_features=676, bias=True)
    )
  )
  (8): Linear(in_features=676, out_features=10, bias=True)
)
Sequential(
  (0): Conv2d(3, 4, kernel_size=(3, 3), stride=(1, 1))
  (1): BatchNorm2d(4, eps=4, momentum=0.1, affine=True, track_running_stats=True)
  (2): ReLU(inplace=True)
  (3): Conv2d(4, 4, kernel_size=(4, 4), stride=(2, 2), padding=(1, 1))
  (4): BatchNorm2d(4, eps=4, momentum=0.1, affine=True, track_running_stats=True)
  (5): ReLU(inplace=True)
  (6): Flatten()
  (7): ODEBlock(
    (odefunc): ODEfunc(
      (fc1): Linear(in_features=676, out_features=16, bias=True)
      (fc2): Linear(in_features=16, out_features=676, bias=True)
    )
  )
  (8): Linear(in_features=676, out_features=10, bias=True)
)
Sequential(
  (0): Conv2d(3, 4, kernel_size=(3, 3), stride=(1, 1))
  (1): BatchNorm2d(4, eps=4, momentum=0.1, affine=True, track_running_stats=True)
  (2): ReLU(inplace=True)
  (3): Conv2d(4, 4, kernel_size=(4, 4), stride=(2, 2), padding=(1, 1))
  (4): BatchNorm2d(4, eps=4, momentum=0.1, affine=True, track_running_stats=True)
  (5): ReLU(inplace=True)
  (6): Flatten()
  (7): ODEBlock(
    (odefunc): ODEfunc(
      (fc1): Linear(in_features=676, out_features=16, bias=True)
      (fc2): Linear(in_features=16, out_features=676, bias=True)
    )
  )
  (8): Linear(in_features=676, out_features=10, bias=True)
)
Number of parameters: 29482
Number of parameters: 29482
Number of parameters: 29482
/home/manzand/Documents/Python/neuralODE_examples/odenet_cifar_example_tiny.py
/home/manzand/Documents/Python/neuralODE_examples/odenet_cifar_example_tiny.py
/home/manzand/Documents/Python/neuralODE_examples/odenet_cifar_example_tiny.py
/home/manzand/Documents/Python/neuralODE_examples/odenet_cifar_example_tiny.py
…
Namespace(adjoint=False, batch_size=128, data_aug=True, debug=False, downsampling_method='conv', gpu=0, lr=0.01, nepochs=200, network='odenet', save='./cifar1', test_batch_size=1000, tol=0.001)
Namespace(adjoint=False, batch_size=128, data_aug=True, debug=False, downsampling_method='conv', gpu=0, lr=0.01, nepochs=200, network='odenet', save='./cifar1', test_batch_size=1000, tol=0.001)
Namespace(adjoint=False, batch_size=128, data_aug=True, debug=False, downsampling_method='conv', gpu=0, lr=0.01, nepochs=200, network='odenet', save='./cifar1', test_batch_size=1000, tol=0.001)
Namespace(adjoint=False, batch_size=128, data_aug=True, debug=False, downsampling_method='conv', gpu=0, lr=0.01, nepochs=200, network='odenet', save='./cifar1', test_batch_size=1000, tol=0.001)
Sequential(
  (0): Conv2d(3, 4, kernel_size=(3, 3), stride=(1, 1))
  (1): BatchNorm2d(4, eps=4, momentum=0.1, affine=True, track_running_stats=True)
  (2): ReLU(inplace=True)
  (3): Conv2d(4, 4, kernel_size=(4, 4), stride=(2, 2), padding=(1, 1))
  (4): BatchNorm2d(4, eps=4, momentum=0.1, affine=True, track_running_stats=True)
  (5): ReLU(inplace=True)
  (6): Flatten()
  (7): ODEBlock(
    (odefunc): ODEfunc(
      (fc1): Linear(in_features=676, out_features=16, bias=True)
      (fc2): Linear(in_features=16, out_features=676, bias=True)
    )
  )
  (8): Linear(in_features=676, out_features=10, bias=True)
)
Sequential(
  (0): Conv2d(3, 4, kernel_size=(3, 3), stride=(1, 1))
  (1): BatchNorm2d(4, eps=4, momentum=0.1, affine=True, track_running_stats=True)
  (2): ReLU(inplace=True)
  (3): Conv2d(4, 4, kernel_size=(4, 4), stride=(2, 2), padding=(1, 1))
  (4): BatchNorm2d(4, eps=4, momentum=0.1, affine=True, track_running_stats=True)
  (5): ReLU(inplace=True)
  (6): Flatten()
  (7): ODEBlock(
    (odefunc): ODEfunc(
      (fc1): Linear(in_features=676, out_features=16, bias=True)
      (fc2): Linear(in_features=16, out_features=676, bias=True)
    )
  )
  (8): Linear(in_features=676, out_features=10, bias=True)
)
Sequential(
  (0): Conv2d(3, 4, kernel_size=(3, 3), stride=(1, 1))
  (1): BatchNorm2d(4, eps=4, momentum=0.1, affine=True, track_running_stats=True)
  (2): ReLU(inplace=True)
  (3): Conv2d(4, 4, kernel_size=(4, 4), stride=(2, 2), padding=(1, 1))
  (4): BatchNorm2d(4, eps=4, momentum=0.1, affine=True, track_running_stats=True)
  (5): ReLU(inplace=True)
  (6): Flatten()
  (7): ODEBlock(
    (odefunc): ODEfunc(
      (fc1): Linear(in_features=676, out_features=16, bias=True)
      (fc2): Linear(in_features=16, out_features=676, bias=True)
    )
  )
  (8): Linear(in_features=676, out_features=10, bias=True)
)
Sequential(
  (0): Conv2d(3, 4, kernel_size=(3, 3), stride=(1, 1))
  (1): BatchNorm2d(4, eps=4, momentum=0.1, affine=True, track_running_stats=True)
  (2): ReLU(inplace=True)
  (3): Conv2d(4, 4, kernel_size=(4, 4), stride=(2, 2), padding=(1, 1))
  (4): BatchNorm2d(4, eps=4, momentum=0.1, affine=True, track_running_stats=True)
  (5): ReLU(inplace=True)
  (6): Flatten()
  (7): ODEBlock(
    (odefunc): ODEfunc(
      (fc1): Linear(in_features=676, out_features=16, bias=True)
      (fc2): Linear(in_features=16, out_features=676, bias=True)
    )
  )
  (8): Linear(in_features=676, out_features=10, bias=True)
)
Number of parameters: 29482
Number of parameters: 29482
Number of parameters: 29482
Number of parameters: 29482
/home/manzand/Documents/Python/neuralODE_examples/odenet_cifar_example_tiny.py
/home/manzand/Documents/Python/neuralODE_examples/odenet_cifar_example_tiny.py
/home/manzand/Documents/Python/neuralODE_examples/odenet_cifar_example_tiny.py
/home/manzand/Documents/Python/neuralODE_examples/odenet_cifar_example_tiny.py
…
Namespace(adjoint=False, batch_size=128, data_aug=True, debug=False, downsampling_method='conv', gpu=0, lr=0.01, nepochs=200, network='odenet', save='./cifar1', test_batch_size=1000, tol=0.001)
Namespace(adjoint=False, batch_size=128, data_aug=True, debug=False, downsampling_method='conv', gpu=0, lr=0.01, nepochs=200, network='odenet', save='./cifar1', test_batch_size=1000, tol=0.001)
Namespace(adjoint=False, batch_size=128, data_aug=True, debug=False, downsampling_method='conv', gpu=0, lr=0.01, nepochs=200, network='odenet', save='./cifar1', test_batch_size=1000, tol=0.001)
Namespace(adjoint=False, batch_size=128, data_aug=True, debug=False, downsampling_method='conv', gpu=0, lr=0.01, nepochs=200, network='odenet', save='./cifar1', test_batch_size=1000, tol=0.001)
Sequential(
  (0): Conv2d(3, 4, kernel_size=(3, 3), stride=(1, 1))
  (1): BatchNorm2d(4, eps=4, momentum=0.1, affine=True, track_running_stats=True)
  (2): ReLU(inplace=True)
  (3): Conv2d(4, 4, kernel_size=(4, 4), stride=(2, 2), padding=(1, 1))
  (4): BatchNorm2d(4, eps=4, momentum=0.1, affine=True, track_running_stats=True)
  (5): ReLU(inplace=True)
  (6): Flatten()
  (7): ODEBlock(
    (odefunc): ODEfunc(
      (fc1): Linear(in_features=676, out_features=16, bias=True)
      (fc2): Linear(in_features=16, out_features=676, bias=True)
    )
  )
  (8): Linear(in_features=676, out_features=10, bias=True)
)
Sequential(
  (0): Conv2d(3, 4, kernel_size=(3, 3), stride=(1, 1))
  (1): BatchNorm2d(4, eps=4, momentum=0.1, affine=True, track_running_stats=True)
  (2): ReLU(inplace=True)
  (3): Conv2d(4, 4, kernel_size=(4, 4), stride=(2, 2), padding=(1, 1))
  (4): BatchNorm2d(4, eps=4, momentum=0.1, affine=True, track_running_stats=True)
  (5): ReLU(inplace=True)
  (6): Flatten()
  (7): ODEBlock(
    (odefunc): ODEfunc(
      (fc1): Linear(in_features=676, out_features=16, bias=True)
      (fc2): Linear(in_features=16, out_features=676, bias=True)
    )
  )
  (8): Linear(in_features=676, out_features=10, bias=True)
)
Sequential(
  (0): Conv2d(3, 4, kernel_size=(3, 3), stride=(1, 1))
  (1): BatchNorm2d(4, eps=4, momentum=0.1, affine=True, track_running_stats=True)
  (2): ReLU(inplace=True)
  (3): Conv2d(4, 4, kernel_size=(4, 4), stride=(2, 2), padding=(1, 1))
  (4): BatchNorm2d(4, eps=4, momentum=0.1, affine=True, track_running_stats=True)
  (5): ReLU(inplace=True)
  (6): Flatten()
  (7): ODEBlock(
    (odefunc): ODEfunc(
      (fc1): Linear(in_features=676, out_features=16, bias=True)
      (fc2): Linear(in_features=16, out_features=676, bias=True)
    )
  )
  (8): Linear(in_features=676, out_features=10, bias=True)
)
Sequential(
  (0): Conv2d(3, 4, kernel_size=(3, 3), stride=(1, 1))
  (1): BatchNorm2d(4, eps=4, momentum=0.1, affine=True, track_running_stats=True)
  (2): ReLU(inplace=True)
  (3): Conv2d(4, 4, kernel_size=(4, 4), stride=(2, 2), padding=(1, 1))
  (4): BatchNorm2d(4, eps=4, momentum=0.1, affine=True, track_running_stats=True)
  (5): ReLU(inplace=True)
  (6): Flatten()
  (7): ODEBlock(
    (odefunc): ODEfunc(
      (fc1): Linear(in_features=676, out_features=16, bias=True)
      (fc2): Linear(in_features=16, out_features=676, bias=True)
    )
  )
  (8): Linear(in_features=676, out_features=10, bias=True)
)
Sequential(
  (0): Conv2d(3, 4, kernel_size=(3, 3), stride=(1, 1))
  (1): BatchNorm2d(4, eps=4, momentum=0.1, affine=True, track_running_stats=True)
  (2): ReLU(inplace=True)
  (3): Conv2d(4, 4, kernel_size=(4, 4), stride=(2, 2), padding=(1, 1))
  (4): BatchNorm2d(4, eps=4, momentum=0.1, affine=True, track_running_stats=True)
  (5): ReLU(inplace=True)
  (6): Flatten()
  (7): ODEBlock(
    (odefunc): ODEfunc(
      (fc1): Linear(in_features=676, out_features=16, bias=True)
      (fc2): Linear(in_features=16, out_features=676, bias=True)
    )
  )
  (8): Linear(in_features=676, out_features=10, bias=True)
)
Number of parameters: 29482
Number of parameters: 29482
Number of parameters: 29482
Number of parameters: 29482
Number of parameters: 29482
/home/manzand/Documents/Python/neuralODE_examples/odenet_cifar_example_tiny.py
/home/manzand/Documents/Python/neuralODE_examples/odenet_cifar_example_tiny.py
/home/manzand/Documents/Python/neuralODE_examples/odenet_cifar_example_tiny.py
…
Namespace(adjoint=False, batch_size=128, data_aug=False, debug=False, downsampling_method='conv', gpu=0, lr=0.01, nepochs=200, network='odenet', save='./cifar1', test_batch_size=1000, tol=0.001)
Namespace(adjoint=False, batch_size=128, data_aug=False, debug=False, downsampling_method='conv', gpu=0, lr=0.01, nepochs=200, network='odenet', save='./cifar1', test_batch_size=1000, tol=0.001)
Namespace(adjoint=False, batch_size=128, data_aug=False, debug=False, downsampling_method='conv', gpu=0, lr=0.01, nepochs=200, network='odenet', save='./cifar1', test_batch_size=1000, tol=0.001)
Sequential(
  (0): Conv2d(3, 4, kernel_size=(3, 3), stride=(1, 1))
  (1): BatchNorm2d(4, eps=4, momentum=0.1, affine=True, track_running_stats=True)
  (2): ReLU(inplace=True)
  (3): Conv2d(4, 4, kernel_size=(4, 4), stride=(2, 2), padding=(1, 1))
  (4): BatchNorm2d(4, eps=4, momentum=0.1, affine=True, track_running_stats=True)
  (5): ReLU(inplace=True)
  (6): Flatten()
  (7): ODEBlock(
    (odefunc): ODEfunc(
      (fc1): Linear(in_features=676, out_features=16, bias=True)
      (fc2): Linear(in_features=16, out_features=676, bias=True)
    )
  )
  (8): Linear(in_features=676, out_features=10, bias=True)
)
Sequential(
  (0): Conv2d(3, 4, kernel_size=(3, 3), stride=(1, 1))
  (1): BatchNorm2d(4, eps=4, momentum=0.1, affine=True, track_running_stats=True)
  (2): ReLU(inplace=True)
  (3): Conv2d(4, 4, kernel_size=(4, 4), stride=(2, 2), padding=(1, 1))
  (4): BatchNorm2d(4, eps=4, momentum=0.1, affine=True, track_running_stats=True)
  (5): ReLU(inplace=True)
  (6): Flatten()
  (7): ODEBlock(
    (odefunc): ODEfunc(
      (fc1): Linear(in_features=676, out_features=16, bias=True)
      (fc2): Linear(in_features=16, out_features=676, bias=True)
    )
  )
  (8): Linear(in_features=676, out_features=10, bias=True)
)
Sequential(
  (0): Conv2d(3, 4, kernel_size=(3, 3), stride=(1, 1))
  (1): BatchNorm2d(4, eps=4, momentum=0.1, affine=True, track_running_stats=True)
  (2): ReLU(inplace=True)
  (3): Conv2d(4, 4, kernel_size=(4, 4), stride=(2, 2), padding=(1, 1))
  (4): BatchNorm2d(4, eps=4, momentum=0.1, affine=True, track_running_stats=True)
  (5): ReLU(inplace=True)
  (6): Flatten()
  (7): ODEBlock(
    (odefunc): ODEfunc(
      (fc1): Linear(in_features=676, out_features=16, bias=True)
      (fc2): Linear(in_features=16, out_features=676, bias=True)
    )
  )
  (8): Linear(in_features=676, out_features=10, bias=True)
)
Sequential(
  (0): Conv2d(3, 4, kernel_size=(3, 3), stride=(1, 1))
  (1): BatchNorm2d(4, eps=4, momentum=0.1, affine=True, track_running_stats=True)
  (2): ReLU(inplace=True)
  (3): Conv2d(4, 4, kernel_size=(4, 4), stride=(2, 2), padding=(1, 1))
  (4): BatchNorm2d(4, eps=4, momentum=0.1, affine=True, track_running_stats=True)
  (5): ReLU(inplace=True)
  (6): Flatten()
  (7): ODEBlock(
    (odefunc): ODEfunc(
      (fc1): Linear(in_features=676, out_features=16, bias=True)
      (fc2): Linear(in_features=16, out_features=676, bias=True)
    )
  )
  (8): Linear(in_features=676, out_features=10, bias=True)
)
Sequential(
  (0): Conv2d(3, 4, kernel_size=(3, 3), stride=(1, 1))
  (1): BatchNorm2d(4, eps=4, momentum=0.1, affine=True, track_running_stats=True)
  (2): ReLU(inplace=True)
  (3): Conv2d(4, 4, kernel_size=(4, 4), stride=(2, 2), padding=(1, 1))
  (4): BatchNorm2d(4, eps=4, momentum=0.1, affine=True, track_running_stats=True)
  (5): ReLU(inplace=True)
  (6): Flatten()
  (7): ODEBlock(
    (odefunc): ODEfunc(
      (fc1): Linear(in_features=676, out_features=16, bias=True)
      (fc2): Linear(in_features=16, out_features=676, bias=True)
    )
  )
  (8): Linear(in_features=676, out_features=10, bias=True)
)
Sequential(
  (0): Conv2d(3, 4, kernel_size=(3, 3), stride=(1, 1))
  (1): BatchNorm2d(4, eps=4, momentum=0.1, affine=True, track_running_stats=True)
  (2): ReLU(inplace=True)
  (3): Conv2d(4, 4, kernel_size=(4, 4), stride=(2, 2), padding=(1, 1))
  (4): BatchNorm2d(4, eps=4, momentum=0.1, affine=True, track_running_stats=True)
  (5): ReLU(inplace=True)
  (6): Flatten()
  (7): ODEBlock(
    (odefunc): ODEfunc(
      (fc1): Linear(in_features=676, out_features=16, bias=True)
      (fc2): Linear(in_features=16, out_features=676, bias=True)
    )
  )
  (8): Linear(in_features=676, out_features=10, bias=True)
)
Number of parameters: 29482
Number of parameters: 29482
Number of parameters: 29482
Number of parameters: 29482
Number of parameters: 29482
Number of parameters: 29482
/home/manzand/Documents/Python/neuralODE_examples/odenet_cifar_example_tiny.py
/home/manzand/Documents/Python/neuralODE_examples/odenet_cifar_example_tiny.py
/home/manzand/Documents/Python/neuralODE_examples/odenet_cifar_example_tiny.py
…
Namespace(adjoint=False, batch_size=128, data_aug=False, debug=False, downsampling_method='conv', gpu=0, lr=0.01, nepochs=200, network='odenet', save='./cifar1', test_batch_size=1000, tol=0.001)
Namespace(adjoint=False, batch_size=128, data_aug=False, debug=False, downsampling_method='conv', gpu=0, lr=0.01, nepochs=200, network='odenet', save='./cifar1', test_batch_size=1000, tol=0.001)
Namespace(adjoint=False, batch_size=128, data_aug=False, debug=False, downsampling_method='conv', gpu=0, lr=0.01, nepochs=200, network='odenet', save='./cifar1', test_batch_size=1000, tol=0.001)
Sequential(
  (0): Conv2d(3, 4, kernel_size=(3, 3), stride=(1, 1))
  (1): BatchNorm2d(4, eps=4, momentum=0.1, affine=True, track_running_stats=True)
  (2): ReLU(inplace=True)
  (3): Conv2d(4, 4, kernel_size=(4, 4), stride=(2, 2), padding=(1, 1))
  (4): BatchNorm2d(4, eps=4, momentum=0.1, affine=True, track_running_stats=True)
  (5): ReLU(inplace=True)
  (6): Flatten()
  (7): ODEBlock(
    (odefunc): ODEfunc(
      (fc1): Linear(in_features=900, out_features=16, bias=True)
      (fc2): Linear(in_features=16, out_features=900, bias=True)
    )
  )
  (8): Linear(in_features=900, out_features=10, bias=True)
)
Sequential(
  (0): Conv2d(3, 4, kernel_size=(3, 3), stride=(1, 1))
  (1): BatchNorm2d(4, eps=4, momentum=0.1, affine=True, track_running_stats=True)
  (2): ReLU(inplace=True)
  (3): Conv2d(4, 4, kernel_size=(4, 4), stride=(2, 2), padding=(1, 1))
  (4): BatchNorm2d(4, eps=4, momentum=0.1, affine=True, track_running_stats=True)
  (5): ReLU(inplace=True)
  (6): Flatten()
  (7): ODEBlock(
    (odefunc): ODEfunc(
      (fc1): Linear(in_features=900, out_features=16, bias=True)
      (fc2): Linear(in_features=16, out_features=900, bias=True)
    )
  )
  (8): Linear(in_features=900, out_features=10, bias=True)
)
Sequential(
  (0): Conv2d(3, 4, kernel_size=(3, 3), stride=(1, 1))
  (1): BatchNorm2d(4, eps=4, momentum=0.1, affine=True, track_running_stats=True)
  (2): ReLU(inplace=True)
  (3): Conv2d(4, 4, kernel_size=(4, 4), stride=(2, 2), padding=(1, 1))
  (4): BatchNorm2d(4, eps=4, momentum=0.1, affine=True, track_running_stats=True)
  (5): ReLU(inplace=True)
  (6): Flatten()
  (7): ODEBlock(
    (odefunc): ODEfunc(
      (fc1): Linear(in_features=900, out_features=16, bias=True)
      (fc2): Linear(in_features=16, out_features=900, bias=True)
    )
  )
  (8): Linear(in_features=900, out_features=10, bias=True)
)
Sequential(
  (0): Conv2d(3, 4, kernel_size=(3, 3), stride=(1, 1))
  (1): BatchNorm2d(4, eps=4, momentum=0.1, affine=True, track_running_stats=True)
  (2): ReLU(inplace=True)
  (3): Conv2d(4, 4, kernel_size=(4, 4), stride=(2, 2), padding=(1, 1))
  (4): BatchNorm2d(4, eps=4, momentum=0.1, affine=True, track_running_stats=True)
  (5): ReLU(inplace=True)
  (6): Flatten()
  (7): ODEBlock(
    (odefunc): ODEfunc(
      (fc1): Linear(in_features=900, out_features=16, bias=True)
      (fc2): Linear(in_features=16, out_features=900, bias=True)
    )
  )
  (8): Linear(in_features=900, out_features=10, bias=True)
)
Sequential(
  (0): Conv2d(3, 4, kernel_size=(3, 3), stride=(1, 1))
  (1): BatchNorm2d(4, eps=4, momentum=0.1, affine=True, track_running_stats=True)
  (2): ReLU(inplace=True)
  (3): Conv2d(4, 4, kernel_size=(4, 4), stride=(2, 2), padding=(1, 1))
  (4): BatchNorm2d(4, eps=4, momentum=0.1, affine=True, track_running_stats=True)
  (5): ReLU(inplace=True)
  (6): Flatten()
  (7): ODEBlock(
    (odefunc): ODEfunc(
      (fc1): Linear(in_features=900, out_features=16, bias=True)
      (fc2): Linear(in_features=16, out_features=900, bias=True)
    )
  )
  (8): Linear(in_features=900, out_features=10, bias=True)
)
Sequential(
  (0): Conv2d(3, 4, kernel_size=(3, 3), stride=(1, 1))
  (1): BatchNorm2d(4, eps=4, momentum=0.1, affine=True, track_running_stats=True)
  (2): ReLU(inplace=True)
  (3): Conv2d(4, 4, kernel_size=(4, 4), stride=(2, 2), padding=(1, 1))
  (4): BatchNorm2d(4, eps=4, momentum=0.1, affine=True, track_running_stats=True)
  (5): ReLU(inplace=True)
  (6): Flatten()
  (7): ODEBlock(
    (odefunc): ODEfunc(
      (fc1): Linear(in_features=900, out_features=16, bias=True)
      (fc2): Linear(in_features=16, out_features=900, bias=True)
    )
  )
  (8): Linear(in_features=900, out_features=10, bias=True)
)
Sequential(
  (0): Conv2d(3, 4, kernel_size=(3, 3), stride=(1, 1))
  (1): BatchNorm2d(4, eps=4, momentum=0.1, affine=True, track_running_stats=True)
  (2): ReLU(inplace=True)
  (3): Conv2d(4, 4, kernel_size=(4, 4), stride=(2, 2), padding=(1, 1))
  (4): BatchNorm2d(4, eps=4, momentum=0.1, affine=True, track_running_stats=True)
  (5): ReLU(inplace=True)
  (6): Flatten()
  (7): ODEBlock(
    (odefunc): ODEfunc(
      (fc1): Linear(in_features=900, out_features=16, bias=True)
      (fc2): Linear(in_features=16, out_features=900, bias=True)
    )
  )
  (8): Linear(in_features=900, out_features=10, bias=True)
)
Number of parameters: 39114
Number of parameters: 39114
Number of parameters: 39114
Number of parameters: 39114
Number of parameters: 39114
Number of parameters: 39114
Number of parameters: 39114
/home/manzand/Documents/Python/neuralODE_examples/odenet_cifar_example_tiny.py
/home/manzand/Documents/Python/neuralODE_examples/odenet_cifar_example_tiny.py
…
Namespace(adjoint=False, batch_size=128, data_aug=False, debug=False, downsampling_method='conv', gpu=0, lr=0.01, nepochs=200, network='odenet', save='./cifar1', test_batch_size=1000, tol=0.001)
Namespace(adjoint=False, batch_size=128, data_aug=False, debug=False, downsampling_method='conv', gpu=0, lr=0.01, nepochs=200, network='odenet', save='./cifar1', test_batch_size=1000, tol=0.001)
Namespace(adjoint=False, batch_size=128, data_aug=False, debug=False, downsampling_method='conv', gpu=0, lr=0.01, nepochs=200, network='odenet', save='./cifar1', test_batch_size=1000, tol=0.001)
Sequential(
  (0): Conv2d(3, 4, kernel_size=(3, 3), stride=(1, 1))
  (1): BatchNorm2d(4, eps=4, momentum=0.1, affine=True, track_running_stats=True)
  (2): ReLU(inplace=True)
  (3): Conv2d(4, 4, kernel_size=(4, 4), stride=(2, 2), padding=(1, 1))
  (4): BatchNorm2d(4, eps=4, momentum=0.1, affine=True, track_running_stats=True)
  (5): ReLU(inplace=True)
  (6): Flatten()
  (7): ODEBlock(
    (odefunc): ODEfunc(
      (fc1): Linear(in_features=900, out_features=16, bias=True)
      (fc2): Linear(in_features=16, out_features=900, bias=True)
    )
  )
  (8): Linear(in_features=900, out_features=10, bias=True)
)
Sequential(
  (0): Conv2d(3, 4, kernel_size=(3, 3), stride=(1, 1))
  (1): BatchNorm2d(4, eps=4, momentum=0.1, affine=True, track_running_stats=True)
  (2): ReLU(inplace=True)
  (3): Conv2d(4, 4, kernel_size=(4, 4), stride=(2, 2), padding=(1, 1))
  (4): BatchNorm2d(4, eps=4, momentum=0.1, affine=True, track_running_stats=True)
  (5): ReLU(inplace=True)
  (6): Flatten()
  (7): ODEBlock(
    (odefunc): ODEfunc(
      (fc1): Linear(in_features=900, out_features=16, bias=True)
      (fc2): Linear(in_features=16, out_features=900, bias=True)
    )
  )
  (8): Linear(in_features=900, out_features=10, bias=True)
)
Sequential(
  (0): Conv2d(3, 4, kernel_size=(3, 3), stride=(1, 1))
  (1): BatchNorm2d(4, eps=4, momentum=0.1, affine=True, track_running_stats=True)
  (2): ReLU(inplace=True)
  (3): Conv2d(4, 4, kernel_size=(4, 4), stride=(2, 2), padding=(1, 1))
  (4): BatchNorm2d(4, eps=4, momentum=0.1, affine=True, track_running_stats=True)
  (5): ReLU(inplace=True)
  (6): Flatten()
  (7): ODEBlock(
    (odefunc): ODEfunc(
      (fc1): Linear(in_features=900, out_features=16, bias=True)
      (fc2): Linear(in_features=16, out_features=900, bias=True)
    )
  )
  (8): Linear(in_features=900, out_features=10, bias=True)
)
Sequential(
  (0): Conv2d(3, 4, kernel_size=(3, 3), stride=(1, 1))
  (1): BatchNorm2d(4, eps=4, momentum=0.1, affine=True, track_running_stats=True)
  (2): ReLU(inplace=True)
  (3): Conv2d(4, 4, kernel_size=(4, 4), stride=(2, 2), padding=(1, 1))
  (4): BatchNorm2d(4, eps=4, momentum=0.1, affine=True, track_running_stats=True)
  (5): ReLU(inplace=True)
  (6): Flatten()
  (7): ODEBlock(
    (odefunc): ODEfunc(
      (fc1): Linear(in_features=900, out_features=16, bias=True)
      (fc2): Linear(in_features=16, out_features=900, bias=True)
    )
  )
  (8): Linear(in_features=900, out_features=10, bias=True)
)
Sequential(
  (0): Conv2d(3, 4, kernel_size=(3, 3), stride=(1, 1))
  (1): BatchNorm2d(4, eps=4, momentum=0.1, affine=True, track_running_stats=True)
  (2): ReLU(inplace=True)
  (3): Conv2d(4, 4, kernel_size=(4, 4), stride=(2, 2), padding=(1, 1))
  (4): BatchNorm2d(4, eps=4, momentum=0.1, affine=True, track_running_stats=True)
  (5): ReLU(inplace=True)
  (6): Flatten()
  (7): ODEBlock(
    (odefunc): ODEfunc(
      (fc1): Linear(in_features=900, out_features=16, bias=True)
      (fc2): Linear(in_features=16, out_features=900, bias=True)
    )
  )
  (8): Linear(in_features=900, out_features=10, bias=True)
)
Sequential(
  (0): Conv2d(3, 4, kernel_size=(3, 3), stride=(1, 1))
  (1): BatchNorm2d(4, eps=4, momentum=0.1, affine=True, track_running_stats=True)
  (2): ReLU(inplace=True)
  (3): Conv2d(4, 4, kernel_size=(4, 4), stride=(2, 2), padding=(1, 1))
  (4): BatchNorm2d(4, eps=4, momentum=0.1, affine=True, track_running_stats=True)
  (5): ReLU(inplace=True)
  (6): Flatten()
  (7): ODEBlock(
    (odefunc): ODEfunc(
      (fc1): Linear(in_features=900, out_features=16, bias=True)
      (fc2): Linear(in_features=16, out_features=900, bias=True)
    )
  )
  (8): Linear(in_features=900, out_features=10, bias=True)
)
Sequential(
  (0): Conv2d(3, 4, kernel_size=(3, 3), stride=(1, 1))
  (1): BatchNorm2d(4, eps=4, momentum=0.1, affine=True, track_running_stats=True)
  (2): ReLU(inplace=True)
  (3): Conv2d(4, 4, kernel_size=(4, 4), stride=(2, 2), padding=(1, 1))
  (4): BatchNorm2d(4, eps=4, momentum=0.1, affine=True, track_running_stats=True)
  (5): ReLU(inplace=True)
  (6): Flatten()
  (7): ODEBlock(
    (odefunc): ODEfunc(
      (fc1): Linear(in_features=900, out_features=16, bias=True)
      (fc2): Linear(in_features=16, out_features=900, bias=True)
    )
  )
  (8): Linear(in_features=900, out_features=10, bias=True)
)
Sequential(
  (0): Conv2d(3, 4, kernel_size=(3, 3), stride=(1, 1))
  (1): BatchNorm2d(4, eps=4, momentum=0.1, affine=True, track_running_stats=True)
  (2): ReLU(inplace=True)
  (3): Conv2d(4, 4, kernel_size=(4, 4), stride=(2, 2), padding=(1, 1))
  (4): BatchNorm2d(4, eps=4, momentum=0.1, affine=True, track_running_stats=True)
  (5): ReLU(inplace=True)
  (6): Flatten()
  (7): ODEBlock(
    (odefunc): ODEfunc(
      (fc1): Linear(in_features=900, out_features=16, bias=True)
      (fc2): Linear(in_features=16, out_features=900, bias=True)
    )
  )
  (8): Linear(in_features=900, out_features=10, bias=True)
)
Number of parameters: 39114
Number of parameters: 39114
Number of parameters: 39114
Number of parameters: 39114
Number of parameters: 39114
Number of parameters: 39114
Number of parameters: 39114
Number of parameters: 39114
/home/manzand/Documents/Python/neuralODE_examples/odenet_cifar_example_tiny.py
/home/manzand/Documents/Python/neuralODE_examples/odenet_cifar_example_tiny.py
…
Namespace(adjoint=False, batch_size=128, data_aug=False, debug=False, downsampling_method='conv', gpu=0, lr=0.01, nepochs=200, network='odenet', save='./cifar1', test_batch_size=1000, tol=0.001)
Namespace(adjoint=False, batch_size=128, data_aug=False, debug=False, downsampling_method='conv', gpu=0, lr=0.01, nepochs=200, network='odenet', save='./cifar1', test_batch_size=1000, tol=0.001)
Namespace(adjoint=False, batch_size=128, data_aug=False, debug=False, downsampling_method='conv', gpu=0, lr=0.01, nepochs=200, network='odenet', save='./cifar1', test_batch_size=1000, tol=0.001)
Sequential(
  (0): Conv2d(3, 4, kernel_size=(3, 3), stride=(1, 1))
  (1): BatchNorm2d(4, eps=4, momentum=0.1, affine=True, track_running_stats=True)
  (2): ReLU(inplace=True)
  (3): Conv2d(4, 4, kernel_size=(4, 4), stride=(2, 2), padding=(1, 1))
  (4): BatchNorm2d(4, eps=4, momentum=0.1, affine=True, track_running_stats=True)
  (5): ReLU(inplace=True)
  (6): Flatten()
  (7): ODEBlock(
    (odefunc): ODEfunc(
      (fc1): Linear(in_features=900, out_features=16, bias=True)
      (fc2): Linear(in_features=16, out_features=900, bias=True)
    )
  )
  (8): Linear(in_features=900, out_features=10, bias=True)
)
Sequential(
  (0): Conv2d(3, 4, kernel_size=(3, 3), stride=(1, 1))
  (1): BatchNorm2d(4, eps=4, momentum=0.1, affine=True, track_running_stats=True)
  (2): ReLU(inplace=True)
  (3): Conv2d(4, 4, kernel_size=(4, 4), stride=(2, 2), padding=(1, 1))
  (4): BatchNorm2d(4, eps=4, momentum=0.1, affine=True, track_running_stats=True)
  (5): ReLU(inplace=True)
  (6): Flatten()
  (7): ODEBlock(
    (odefunc): ODEfunc(
      (fc1): Linear(in_features=900, out_features=16, bias=True)
      (fc2): Linear(in_features=16, out_features=900, bias=True)
    )
  )
  (8): Linear(in_features=900, out_features=10, bias=True)
)
Sequential(
  (0): Conv2d(3, 4, kernel_size=(3, 3), stride=(1, 1))
  (1): BatchNorm2d(4, eps=4, momentum=0.1, affine=True, track_running_stats=True)
  (2): ReLU(inplace=True)
  (3): Conv2d(4, 4, kernel_size=(4, 4), stride=(2, 2), padding=(1, 1))
  (4): BatchNorm2d(4, eps=4, momentum=0.1, affine=True, track_running_stats=True)
  (5): ReLU(inplace=True)
  (6): Flatten()
  (7): ODEBlock(
    (odefunc): ODEfunc(
      (fc1): Linear(in_features=900, out_features=16, bias=True)
      (fc2): Linear(in_features=16, out_features=900, bias=True)
    )
  )
  (8): Linear(in_features=900, out_features=10, bias=True)
)
Sequential(
  (0): Conv2d(3, 4, kernel_size=(3, 3), stride=(1, 1))
  (1): BatchNorm2d(4, eps=4, momentum=0.1, affine=True, track_running_stats=True)
  (2): ReLU(inplace=True)
  (3): Conv2d(4, 4, kernel_size=(4, 4), stride=(2, 2), padding=(1, 1))
  (4): BatchNorm2d(4, eps=4, momentum=0.1, affine=True, track_running_stats=True)
  (5): ReLU(inplace=True)
  (6): Flatten()
  (7): ODEBlock(
    (odefunc): ODEfunc(
      (fc1): Linear(in_features=900, out_features=16, bias=True)
      (fc2): Linear(in_features=16, out_features=900, bias=True)
    )
  )
  (8): Linear(in_features=900, out_features=10, bias=True)
)
Sequential(
  (0): Conv2d(3, 4, kernel_size=(3, 3), stride=(1, 1))
  (1): BatchNorm2d(4, eps=4, momentum=0.1, affine=True, track_running_stats=True)
  (2): ReLU(inplace=True)
  (3): Conv2d(4, 4, kernel_size=(4, 4), stride=(2, 2), padding=(1, 1))
  (4): BatchNorm2d(4, eps=4, momentum=0.1, affine=True, track_running_stats=True)
  (5): ReLU(inplace=True)
  (6): Flatten()
  (7): ODEBlock(
    (odefunc): ODEfunc(
      (fc1): Linear(in_features=900, out_features=16, bias=True)
      (fc2): Linear(in_features=16, out_features=900, bias=True)
    )
  )
  (8): Linear(in_features=900, out_features=10, bias=True)
)
Sequential(
  (0): Conv2d(3, 4, kernel_size=(3, 3), stride=(1, 1))
  (1): BatchNorm2d(4, eps=4, momentum=0.1, affine=True, track_running_stats=True)
  (2): ReLU(inplace=True)
  (3): Conv2d(4, 4, kernel_size=(4, 4), stride=(2, 2), padding=(1, 1))
  (4): BatchNorm2d(4, eps=4, momentum=0.1, affine=True, track_running_stats=True)
  (5): ReLU(inplace=True)
  (6): Flatten()
  (7): ODEBlock(
    (odefunc): ODEfunc(
      (fc1): Linear(in_features=900, out_features=16, bias=True)
      (fc2): Linear(in_features=16, out_features=900, bias=True)
    )
  )
  (8): Linear(in_features=900, out_features=10, bias=True)
)
Sequential(
  (0): Conv2d(3, 4, kernel_size=(3, 3), stride=(1, 1))
  (1): BatchNorm2d(4, eps=4, momentum=0.1, affine=True, track_running_stats=True)
  (2): ReLU(inplace=True)
  (3): Conv2d(4, 4, kernel_size=(4, 4), stride=(2, 2), padding=(1, 1))
  (4): BatchNorm2d(4, eps=4, momentum=0.1, affine=True, track_running_stats=True)
  (5): ReLU(inplace=True)
  (6): Flatten()
  (7): ODEBlock(
    (odefunc): ODEfunc(
      (fc1): Linear(in_features=900, out_features=16, bias=True)
      (fc2): Linear(in_features=16, out_features=900, bias=True)
    )
  )
  (8): Linear(in_features=900, out_features=10, bias=True)
)
Sequential(
  (0): Conv2d(3, 4, kernel_size=(3, 3), stride=(1, 1))
  (1): BatchNorm2d(4, eps=4, momentum=0.1, affine=True, track_running_stats=True)
  (2): ReLU(inplace=True)
  (3): Conv2d(4, 4, kernel_size=(4, 4), stride=(2, 2), padding=(1, 1))
  (4): BatchNorm2d(4, eps=4, momentum=0.1, affine=True, track_running_stats=True)
  (5): ReLU(inplace=True)
  (6): Flatten()
  (7): ODEBlock(
    (odefunc): ODEfunc(
      (fc1): Linear(in_features=900, out_features=16, bias=True)
      (fc2): Linear(in_features=16, out_features=900, bias=True)
    )
  )
  (8): Linear(in_features=900, out_features=10, bias=True)
)
Sequential(
  (0): Conv2d(3, 4, kernel_size=(3, 3), stride=(1, 1))
  (1): BatchNorm2d(4, eps=4, momentum=0.1, affine=True, track_running_stats=True)
  (2): ReLU(inplace=True)
  (3): Conv2d(4, 4, kernel_size=(4, 4), stride=(2, 2), padding=(1, 1))
  (4): BatchNorm2d(4, eps=4, momentum=0.1, affine=True, track_running_stats=True)
  (5): ReLU(inplace=True)
  (6): Flatten()
  (7): ODEBlock(
    (odefunc): ODEfunc(
      (fc1): Linear(in_features=900, out_features=16, bias=True)
      (fc2): Linear(in_features=16, out_features=900, bias=True)
    )
  )
  (8): Linear(in_features=900, out_features=10, bias=True)
)
Number of parameters: 39114
Number of parameters: 39114
Number of parameters: 39114
Number of parameters: 39114
Number of parameters: 39114
Number of parameters: 39114
Number of parameters: 39114
Number of parameters: 39114
Number of parameters: 39114
/home/manzand/Documents/Python/neuralODE_examples/odenet_cifar_example_tiny.py
/home/manzand/Documents/Python/neuralODE_examples/odenet_cifar_example_tiny.py
…
Namespace(adjoint=False, batch_size=128, data_aug=False, debug=False, downsampling_method='conv', gpu=0, lr=0.01, nepochs=200, network='odenet', save='./cifar1', test_batch_size=1000, tol=0.001)
Namespace(adjoint=False, batch_size=128, data_aug=False, debug=False, downsampling_method='conv', gpu=0, lr=0.01, nepochs=200, network='odenet', save='./cifar1', test_batch_size=1000, tol=0.001)
Namespace(adjoint=False, batch_size=128, data_aug=False, debug=False, downsampling_method='conv', gpu=0, lr=0.01, nepochs=200, network='odenet', save='./cifar1', test_batch_size=1000, tol=0.001)
Sequential(
  (0): Conv2d(3, 4, kernel_size=(3, 3), stride=(1, 1))
  (1): BatchNorm2d(4, eps=4, momentum=0.1, affine=True, track_running_stats=True)
  (2): ReLU(inplace=True)
  (3): Conv2d(4, 4, kernel_size=(4, 4), stride=(2, 2), padding=(1, 1))
  (4): BatchNorm2d(4, eps=4, momentum=0.1, affine=True, track_running_stats=True)
  (5): ReLU(inplace=True)
  (6): Flatten()
  (7): ODEBlock(
    (odefunc): ODEfunc(
      (fc1): Linear(in_features=900, out_features=16, bias=True)
      (fc2): Linear(in_features=16, out_features=900, bias=True)
    )
  )
  (8): Linear(in_features=900, out_features=10, bias=True)
)
Sequential(
  (0): Conv2d(3, 4, kernel_size=(3, 3), stride=(1, 1))
  (1): BatchNorm2d(4, eps=4, momentum=0.1, affine=True, track_running_stats=True)
  (2): ReLU(inplace=True)
  (3): Conv2d(4, 4, kernel_size=(4, 4), stride=(2, 2), padding=(1, 1))
  (4): BatchNorm2d(4, eps=4, momentum=0.1, affine=True, track_running_stats=True)
  (5): ReLU(inplace=True)
  (6): Flatten()
  (7): ODEBlock(
    (odefunc): ODEfunc(
      (fc1): Linear(in_features=900, out_features=16, bias=True)
      (fc2): Linear(in_features=16, out_features=900, bias=True)
    )
  )
  (8): Linear(in_features=900, out_features=10, bias=True)
)
Sequential(
  (0): Conv2d(3, 4, kernel_size=(3, 3), stride=(1, 1))
  (1): BatchNorm2d(4, eps=4, momentum=0.1, affine=True, track_running_stats=True)
  (2): ReLU(inplace=True)
  (3): Conv2d(4, 4, kernel_size=(4, 4), stride=(2, 2), padding=(1, 1))
  (4): BatchNorm2d(4, eps=4, momentum=0.1, affine=True, track_running_stats=True)
  (5): ReLU(inplace=True)
  (6): Flatten()
  (7): ODEBlock(
    (odefunc): ODEfunc(
      (fc1): Linear(in_features=900, out_features=16, bias=True)
      (fc2): Linear(in_features=16, out_features=900, bias=True)
    )
  )
  (8): Linear(in_features=900, out_features=10, bias=True)
)
Sequential(
  (0): Conv2d(3, 4, kernel_size=(3, 3), stride=(1, 1))
  (1): BatchNorm2d(4, eps=4, momentum=0.1, affine=True, track_running_stats=True)
  (2): ReLU(inplace=True)
  (3): Conv2d(4, 4, kernel_size=(4, 4), stride=(2, 2), padding=(1, 1))
  (4): BatchNorm2d(4, eps=4, momentum=0.1, affine=True, track_running_stats=True)
  (5): ReLU(inplace=True)
  (6): Flatten()
  (7): ODEBlock(
    (odefunc): ODEfunc(
      (fc1): Linear(in_features=900, out_features=16, bias=True)
      (fc2): Linear(in_features=16, out_features=900, bias=True)
    )
  )
  (8): Linear(in_features=900, out_features=10, bias=True)
)
Sequential(
  (0): Conv2d(3, 4, kernel_size=(3, 3), stride=(1, 1))
  (1): BatchNorm2d(4, eps=4, momentum=0.1, affine=True, track_running_stats=True)
  (2): ReLU(inplace=True)
  (3): Conv2d(4, 4, kernel_size=(4, 4), stride=(2, 2), padding=(1, 1))
  (4): BatchNorm2d(4, eps=4, momentum=0.1, affine=True, track_running_stats=True)
  (5): ReLU(inplace=True)
  (6): Flatten()
  (7): ODEBlock(
    (odefunc): ODEfunc(
      (fc1): Linear(in_features=900, out_features=16, bias=True)
      (fc2): Linear(in_features=16, out_features=900, bias=True)
    )
  )
  (8): Linear(in_features=900, out_features=10, bias=True)
)
Sequential(
  (0): Conv2d(3, 4, kernel_size=(3, 3), stride=(1, 1))
  (1): BatchNorm2d(4, eps=4, momentum=0.1, affine=True, track_running_stats=True)
  (2): ReLU(inplace=True)
  (3): Conv2d(4, 4, kernel_size=(4, 4), stride=(2, 2), padding=(1, 1))
  (4): BatchNorm2d(4, eps=4, momentum=0.1, affine=True, track_running_stats=True)
  (5): ReLU(inplace=True)
  (6): Flatten()
  (7): ODEBlock(
    (odefunc): ODEfunc(
      (fc1): Linear(in_features=900, out_features=16, bias=True)
      (fc2): Linear(in_features=16, out_features=900, bias=True)
    )
  )
  (8): Linear(in_features=900, out_features=10, bias=True)
)
Sequential(
  (0): Conv2d(3, 4, kernel_size=(3, 3), stride=(1, 1))
  (1): BatchNorm2d(4, eps=4, momentum=0.1, affine=True, track_running_stats=True)
  (2): ReLU(inplace=True)
  (3): Conv2d(4, 4, kernel_size=(4, 4), stride=(2, 2), padding=(1, 1))
  (4): BatchNorm2d(4, eps=4, momentum=0.1, affine=True, track_running_stats=True)
  (5): ReLU(inplace=True)
  (6): Flatten()
  (7): ODEBlock(
    (odefunc): ODEfunc(
      (fc1): Linear(in_features=900, out_features=16, bias=True)
      (fc2): Linear(in_features=16, out_features=900, bias=True)
    )
  )
  (8): Linear(in_features=900, out_features=10, bias=True)
)
Sequential(
  (0): Conv2d(3, 4, kernel_size=(3, 3), stride=(1, 1))
  (1): BatchNorm2d(4, eps=4, momentum=0.1, affine=True, track_running_stats=True)
  (2): ReLU(inplace=True)
  (3): Conv2d(4, 4, kernel_size=(4, 4), stride=(2, 2), padding=(1, 1))
  (4): BatchNorm2d(4, eps=4, momentum=0.1, affine=True, track_running_stats=True)
  (5): ReLU(inplace=True)
  (6): Flatten()
  (7): ODEBlock(
    (odefunc): ODEfunc(
      (fc1): Linear(in_features=900, out_features=16, bias=True)
      (fc2): Linear(in_features=16, out_features=900, bias=True)
    )
  )
  (8): Linear(in_features=900, out_features=10, bias=True)
)
Sequential(
  (0): Conv2d(3, 4, kernel_size=(3, 3), stride=(1, 1))
  (1): BatchNorm2d(4, eps=4, momentum=0.1, affine=True, track_running_stats=True)
  (2): ReLU(inplace=True)
  (3): Conv2d(4, 4, kernel_size=(4, 4), stride=(2, 2), padding=(1, 1))
  (4): BatchNorm2d(4, eps=4, momentum=0.1, affine=True, track_running_stats=True)
  (5): ReLU(inplace=True)
  (6): Flatten()
  (7): ODEBlock(
    (odefunc): ODEfunc(
      (fc1): Linear(in_features=900, out_features=16, bias=True)
      (fc2): Linear(in_features=16, out_features=900, bias=True)
    )
  )
  (8): Linear(in_features=900, out_features=10, bias=True)
)
Sequential(
  (0): Conv2d(3, 4, kernel_size=(3, 3), stride=(1, 1))
  (1): BatchNorm2d(4, eps=4, momentum=0.1, affine=True, track_running_stats=True)
  (2): ReLU(inplace=True)
  (3): Conv2d(4, 4, kernel_size=(4, 4), stride=(2, 2), padding=(1, 1))
  (4): BatchNorm2d(4, eps=4, momentum=0.1, affine=True, track_running_stats=True)
  (5): ReLU(inplace=True)
  (6): Flatten()
  (7): ODEBlock(
    (odefunc): ODEfunc(
      (fc1): Linear(in_features=900, out_features=16, bias=True)
      (fc2): Linear(in_features=16, out_features=900, bias=True)
    )
  )
  (8): Linear(in_features=900, out_features=10, bias=True)
)
Number of parameters: 39114
Number of parameters: 39114
Number of parameters: 39114
Number of parameters: 39114
Number of parameters: 39114
Number of parameters: 39114
Number of parameters: 39114
Number of parameters: 39114
Number of parameters: 39114
Number of parameters: 39114
Epoch 0000 | Time 0.181 (0.181) | NFE-F 20.0 | NFE-B 0.0 | Train Acc 0.0983 | Test Acc 0.0984
…
Namespace(adjoint=False, batch_size=128, data_aug=False, debug=False, downsampling_method='conv', gpu=0, lr=0.01, nepochs=100, network='odenet', save='./experiment3', test_batch_size=1000, tol=0.001)
Namespace(adjoint=False, batch_size=128, data_aug=False, debug=False, downsampling_method='conv', gpu=0, lr=0.01, nepochs=100, network='odenet', save='./experiment3', test_batch_size=1000, tol=0.001)
Namespace(adjoint=False, batch_size=128, data_aug=False, debug=False, downsampling_method='conv', gpu=0, lr=0.01, nepochs=100, network='odenet', save='./experiment3', test_batch_size=1000, tol=0.001)
Sequential(
  (0): Conv2d(3, 20, kernel_size=(3, 3), stride=(1, 1))
  (1): BatchNorm2d(20, eps=20, momentum=0.1, affine=True, track_running_stats=True)
  (2): ReLU(inplace=True)
  (3): Conv2d(20, 10, kernel_size=(4, 4), stride=(2, 2), padding=(1, 1))
  (4): BatchNorm2d(10, eps=10, momentum=0.1, affine=True, track_running_stats=True)
  (5): ReLU(inplace=True)
  (6): Flatten()
  (7): ODEBlock(
    (odefunc): ODEfunc(
      (fc1): Linear(in_features=1690, out_features=16, bias=True)
      (fc2): Linear(in_features=16, out_features=1690, bias=True)
    )
  )
  (8): Linear(in_features=1690, out_features=10, bias=True)
)
Sequential(
  (0): Conv2d(3, 20, kernel_size=(3, 3), stride=(1, 1))
  (1): BatchNorm2d(20, eps=20, momentum=0.1, affine=True, track_running_stats=True)
  (2): ReLU(inplace=True)
  (3): Conv2d(20, 10, kernel_size=(4, 4), stride=(2, 2), padding=(1, 1))
  (4): BatchNorm2d(10, eps=10, momentum=0.1, affine=True, track_running_stats=True)
  (5): ReLU(inplace=True)
  (6): Flatten()
  (7): ODEBlock(
    (odefunc): ODEfunc(
      (fc1): Linear(in_features=1690, out_features=16, bias=True)
      (fc2): Linear(in_features=16, out_features=1690, bias=True)
    )
  )
  (8): Linear(in_features=1690, out_features=10, bias=True)
)
Sequential(
  (0): Conv2d(3, 20, kernel_size=(3, 3), stride=(1, 1))
  (1): BatchNorm2d(20, eps=20, momentum=0.1, affine=True, track_running_stats=True)
  (2): ReLU(inplace=True)
  (3): Conv2d(20, 10, kernel_size=(4, 4), stride=(2, 2), padding=(1, 1))
  (4): BatchNorm2d(10, eps=10, momentum=0.1, affine=True, track_running_stats=True)
  (5): ReLU(inplace=True)
  (6): Flatten()
  (7): ODEBlock(
    (odefunc): ODEfunc(
      (fc1): Linear(in_features=1690, out_features=16, bias=True)
      (fc2): Linear(in_features=16, out_features=1690, bias=True)
    )
  )
  (8): Linear(in_features=1690, out_features=10, bias=True)
)
Sequential(
  (0): Conv2d(3, 20, kernel_size=(3, 3), stride=(1, 1))
  (1): BatchNorm2d(20, eps=20, momentum=0.1, affine=True, track_running_stats=True)
  (2): ReLU(inplace=True)
  (3): Conv2d(20, 10, kernel_size=(4, 4), stride=(2, 2), padding=(1, 1))
  (4): BatchNorm2d(10, eps=10, momentum=0.1, affine=True, track_running_stats=True)
  (5): ReLU(inplace=True)
  (6): Flatten()
  (7): ODEBlock(
    (odefunc): ODEfunc(
      (fc1): Linear(in_features=1690, out_features=16, bias=True)
      (fc2): Linear(in_features=16, out_features=1690, bias=True)
    )
  )
  (8): Linear(in_features=1690, out_features=10, bias=True)
)
Sequential(
  (0): Conv2d(3, 20, kernel_size=(3, 3), stride=(1, 1))
  (1): BatchNorm2d(20, eps=20, momentum=0.1, affine=True, track_running_stats=True)
  (2): ReLU(inplace=True)
  (3): Conv2d(20, 10, kernel_size=(4, 4), stride=(2, 2), padding=(1, 1))
  (4): BatchNorm2d(10, eps=10, momentum=0.1, affine=True, track_running_stats=True)
  (5): ReLU(inplace=True)
  (6): Flatten()
  (7): ODEBlock(
    (odefunc): ODEfunc(
      (fc1): Linear(in_features=1690, out_features=16, bias=True)
      (fc2): Linear(in_features=16, out_features=1690, bias=True)
    )
  )
  (8): Linear(in_features=1690, out_features=10, bias=True)
)
Sequential(
  (0): Conv2d(3, 20, kernel_size=(3, 3), stride=(1, 1))
  (1): BatchNorm2d(20, eps=20, momentum=0.1, affine=True, track_running_stats=True)
  (2): ReLU(inplace=True)
  (3): Conv2d(20, 10, kernel_size=(4, 4), stride=(2, 2), padding=(1, 1))
  (4): BatchNorm2d(10, eps=10, momentum=0.1, affine=True, track_running_stats=True)
  (5): ReLU(inplace=True)
  (6): Flatten()
  (7): ODEBlock(
    (odefunc): ODEfunc(
      (fc1): Linear(in_features=1690, out_features=16, bias=True)
      (fc2): Linear(in_features=16, out_features=1690, bias=True)
    )
  )
  (8): Linear(in_features=1690, out_features=10, bias=True)
)
Sequential(
  (0): Conv2d(3, 20, kernel_size=(3, 3), stride=(1, 1))
  (1): BatchNorm2d(20, eps=20, momentum=0.1, affine=True, track_running_stats=True)
  (2): ReLU(inplace=True)
  (3): Conv2d(20, 10, kernel_size=(4, 4), stride=(2, 2), padding=(1, 1))
  (4): BatchNorm2d(10, eps=10, momentum=0.1, affine=True, track_running_stats=True)
  (5): ReLU(inplace=True)
  (6): Flatten()
  (7): ODEBlock(
    (odefunc): ODEfunc(
      (fc1): Linear(in_features=1690, out_features=16, bias=True)
      (fc2): Linear(in_features=16, out_features=1690, bias=True)
    )
  )
  (8): Linear(in_features=1690, out_features=10, bias=True)
)
Sequential(
  (0): Conv2d(3, 20, kernel_size=(3, 3), stride=(1, 1))
  (1): BatchNorm2d(20, eps=20, momentum=0.1, affine=True, track_running_stats=True)
  (2): ReLU(inplace=True)
  (3): Conv2d(20, 10, kernel_size=(4, 4), stride=(2, 2), padding=(1, 1))
  (4): BatchNorm2d(10, eps=10, momentum=0.1, affine=True, track_running_stats=True)
  (5): ReLU(inplace=True)
  (6): Flatten()
  (7): ODEBlock(
    (odefunc): ODEfunc(
      (fc1): Linear(in_features=1690, out_features=16, bias=True)
      (fc2): Linear(in_features=16, out_features=1690, bias=True)
    )
  )
  (8): Linear(in_features=1690, out_features=10, bias=True)
)
Sequential(
  (0): Conv2d(3, 20, kernel_size=(3, 3), stride=(1, 1))
  (1): BatchNorm2d(20, eps=20, momentum=0.1, affine=True, track_running_stats=True)
  (2): ReLU(inplace=True)
  (3): Conv2d(20, 10, kernel_size=(4, 4), stride=(2, 2), padding=(1, 1))
  (4): BatchNorm2d(10, eps=10, momentum=0.1, affine=True, track_running_stats=True)
  (5): ReLU(inplace=True)
  (6): Flatten()
  (7): ODEBlock(
    (odefunc): ODEfunc(
      (fc1): Linear(in_features=1690, out_features=16, bias=True)
      (fc2): Linear(in_features=16, out_features=1690, bias=True)
    )
  )
  (8): Linear(in_features=1690, out_features=10, bias=True)
)
Sequential(
  (0): Conv2d(3, 20, kernel_size=(3, 3), stride=(1, 1))
  (1): BatchNorm2d(20, eps=20, momentum=0.1, affine=True, track_running_stats=True)
  (2): ReLU(inplace=True)
  (3): Conv2d(20, 10, kernel_size=(4, 4), stride=(2, 2), padding=(1, 1))
  (4): BatchNorm2d(10, eps=10, momentum=0.1, affine=True, track_running_stats=True)
  (5): ReLU(inplace=True)
  (6): Flatten()
  (7): ODEBlock(
    (odefunc): ODEfunc(
      (fc1): Linear(in_features=1690, out_features=16, bias=True)
      (fc2): Linear(in_features=16, out_features=1690, bias=True)
    )
  )
  (8): Linear(in_features=1690, out_features=10, bias=True)
)
Number of parameters: 76526
Number of parameters: 76526
Number of parameters: 76526
Number of parameters: 76526
Number of parameters: 76526
Number of parameters: 76526
Number of parameters: 76526
Number of parameters: 76526
Number of parameters: 76526
Number of parameters: 76526
/home/manzand/Documents/Python/neuralODE_examples/odenet_cifar_example.py
…
Namespace(adjoint=False, batch_size=128, data_aug=False, debug=False, downsampling_method='conv', gpu=0, lr=0.01, nepochs=100, network='odenet', save='./experiment3', test_batch_size=1000, tol=0.001)
Namespace(adjoint=False, batch_size=128, data_aug=False, debug=False, downsampling_method='conv', gpu=0, lr=0.01, nepochs=100, network='odenet', save='./experiment3', test_batch_size=1000, tol=0.001)
Namespace(adjoint=False, batch_size=128, data_aug=False, debug=False, downsampling_method='conv', gpu=0, lr=0.01, nepochs=100, network='odenet', save='./experiment3', test_batch_size=1000, tol=0.001)
Sequential(
  (0): Conv2d(3, 20, kernel_size=(3, 3), stride=(1, 1))
  (1): BatchNorm2d(20, eps=20, momentum=0.1, affine=True, track_running_stats=True)
  (2): ReLU(inplace=True)
  (3): Conv2d(20, 10, kernel_size=(4, 4), stride=(2, 2), padding=(1, 1))
  (4): BatchNorm2d(10, eps=10, momentum=0.1, affine=True, track_running_stats=True)
  (5): ReLU(inplace=True)
  (6): Flatten()
  (7): ODEBlock(
    (odefunc): ODEfunc(
      (fc1): Linear(in_features=2250, out_features=16, bias=True)
      (fc2): Linear(in_features=16, out_features=2250, bias=True)
    )
  )
  (8): Linear(in_features=2250, out_features=10, bias=True)
)
Sequential(
  (0): Conv2d(3, 20, kernel_size=(3, 3), stride=(1, 1))
  (1): BatchNorm2d(20, eps=20, momentum=0.1, affine=True, track_running_stats=True)
  (2): ReLU(inplace=True)
  (3): Conv2d(20, 10, kernel_size=(4, 4), stride=(2, 2), padding=(1, 1))
  (4): BatchNorm2d(10, eps=10, momentum=0.1, affine=True, track_running_stats=True)
  (5): ReLU(inplace=True)
  (6): Flatten()
  (7): ODEBlock(
    (odefunc): ODEfunc(
      (fc1): Linear(in_features=2250, out_features=16, bias=True)
      (fc2): Linear(in_features=16, out_features=2250, bias=True)
    )
  )
  (8): Linear(in_features=2250, out_features=10, bias=True)
)
Sequential(
  (0): Conv2d(3, 20, kernel_size=(3, 3), stride=(1, 1))
  (1): BatchNorm2d(20, eps=20, momentum=0.1, affine=True, track_running_stats=True)
  (2): ReLU(inplace=True)
  (3): Conv2d(20, 10, kernel_size=(4, 4), stride=(2, 2), padding=(1, 1))
  (4): BatchNorm2d(10, eps=10, momentum=0.1, affine=True, track_running_stats=True)
  (5): ReLU(inplace=True)
  (6): Flatten()
  (7): ODEBlock(
    (odefunc): ODEfunc(
      (fc1): Linear(in_features=2250, out_features=16, bias=True)
      (fc2): Linear(in_features=16, out_features=2250, bias=True)
    )
  )
  (8): Linear(in_features=2250, out_features=10, bias=True)
)
Sequential(
  (0): Conv2d(3, 20, kernel_size=(3, 3), stride=(1, 1))
  (1): BatchNorm2d(20, eps=20, momentum=0.1, affine=True, track_running_stats=True)
  (2): ReLU(inplace=True)
  (3): Conv2d(20, 10, kernel_size=(4, 4), stride=(2, 2), padding=(1, 1))
  (4): BatchNorm2d(10, eps=10, momentum=0.1, affine=True, track_running_stats=True)
  (5): ReLU(inplace=True)
  (6): Flatten()
  (7): ODEBlock(
    (odefunc): ODEfunc(
      (fc1): Linear(in_features=2250, out_features=16, bias=True)
      (fc2): Linear(in_features=16, out_features=2250, bias=True)
    )
  )
  (8): Linear(in_features=2250, out_features=10, bias=True)
)
Sequential(
  (0): Conv2d(3, 20, kernel_size=(3, 3), stride=(1, 1))
  (1): BatchNorm2d(20, eps=20, momentum=0.1, affine=True, track_running_stats=True)
  (2): ReLU(inplace=True)
  (3): Conv2d(20, 10, kernel_size=(4, 4), stride=(2, 2), padding=(1, 1))
  (4): BatchNorm2d(10, eps=10, momentum=0.1, affine=True, track_running_stats=True)
  (5): ReLU(inplace=True)
  (6): Flatten()
  (7): ODEBlock(
    (odefunc): ODEfunc(
      (fc1): Linear(in_features=2250, out_features=16, bias=True)
      (fc2): Linear(in_features=16, out_features=2250, bias=True)
    )
  )
  (8): Linear(in_features=2250, out_features=10, bias=True)
)
Sequential(
  (0): Conv2d(3, 20, kernel_size=(3, 3), stride=(1, 1))
  (1): BatchNorm2d(20, eps=20, momentum=0.1, affine=True, track_running_stats=True)
  (2): ReLU(inplace=True)
  (3): Conv2d(20, 10, kernel_size=(4, 4), stride=(2, 2), padding=(1, 1))
  (4): BatchNorm2d(10, eps=10, momentum=0.1, affine=True, track_running_stats=True)
  (5): ReLU(inplace=True)
  (6): Flatten()
  (7): ODEBlock(
    (odefunc): ODEfunc(
      (fc1): Linear(in_features=2250, out_features=16, bias=True)
      (fc2): Linear(in_features=16, out_features=2250, bias=True)
    )
  )
  (8): Linear(in_features=2250, out_features=10, bias=True)
)
Sequential(
  (0): Conv2d(3, 20, kernel_size=(3, 3), stride=(1, 1))
  (1): BatchNorm2d(20, eps=20, momentum=0.1, affine=True, track_running_stats=True)
  (2): ReLU(inplace=True)
  (3): Conv2d(20, 10, kernel_size=(4, 4), stride=(2, 2), padding=(1, 1))
  (4): BatchNorm2d(10, eps=10, momentum=0.1, affine=True, track_running_stats=True)
  (5): ReLU(inplace=True)
  (6): Flatten()
  (7): ODEBlock(
    (odefunc): ODEfunc(
      (fc1): Linear(in_features=2250, out_features=16, bias=True)
      (fc2): Linear(in_features=16, out_features=2250, bias=True)
    )
  )
  (8): Linear(in_features=2250, out_features=10, bias=True)
)
Sequential(
  (0): Conv2d(3, 20, kernel_size=(3, 3), stride=(1, 1))
  (1): BatchNorm2d(20, eps=20, momentum=0.1, affine=True, track_running_stats=True)
  (2): ReLU(inplace=True)
  (3): Conv2d(20, 10, kernel_size=(4, 4), stride=(2, 2), padding=(1, 1))
  (4): BatchNorm2d(10, eps=10, momentum=0.1, affine=True, track_running_stats=True)
  (5): ReLU(inplace=True)
  (6): Flatten()
  (7): ODEBlock(
    (odefunc): ODEfunc(
      (fc1): Linear(in_features=2250, out_features=16, bias=True)
      (fc2): Linear(in_features=16, out_features=2250, bias=True)
    )
  )
  (8): Linear(in_features=2250, out_features=10, bias=True)
)
Sequential(
  (0): Conv2d(3, 20, kernel_size=(3, 3), stride=(1, 1))
  (1): BatchNorm2d(20, eps=20, momentum=0.1, affine=True, track_running_stats=True)
  (2): ReLU(inplace=True)
  (3): Conv2d(20, 10, kernel_size=(4, 4), stride=(2, 2), padding=(1, 1))
  (4): BatchNorm2d(10, eps=10, momentum=0.1, affine=True, track_running_stats=True)
  (5): ReLU(inplace=True)
  (6): Flatten()
  (7): ODEBlock(
    (odefunc): ODEfunc(
      (fc1): Linear(in_features=2250, out_features=16, bias=True)
      (fc2): Linear(in_features=16, out_features=2250, bias=True)
    )
  )
  (8): Linear(in_features=2250, out_features=10, bias=True)
)
Sequential(
  (0): Conv2d(3, 20, kernel_size=(3, 3), stride=(1, 1))
  (1): BatchNorm2d(20, eps=20, momentum=0.1, affine=True, track_running_stats=True)
  (2): ReLU(inplace=True)
  (3): Conv2d(20, 10, kernel_size=(4, 4), stride=(2, 2), padding=(1, 1))
  (4): BatchNorm2d(10, eps=10, momentum=0.1, affine=True, track_running_stats=True)
  (5): ReLU(inplace=True)
  (6): Flatten()
  (7): ODEBlock(
    (odefunc): ODEfunc(
      (fc1): Linear(in_features=2250, out_features=16, bias=True)
      (fc2): Linear(in_features=16, out_features=2250, bias=True)
    )
  )
  (8): Linear(in_features=2250, out_features=10, bias=True)
)
Number of parameters: 100606
Number of parameters: 100606
Number of parameters: 100606
Number of parameters: 100606
Number of parameters: 100606
Number of parameters: 100606
Number of parameters: 100606
Number of parameters: 100606
Number of parameters: 100606
Number of parameters: 100606
Epoch 0000 | Time 0.829 (0.829) | NFE-F 20.0 | NFE-B 0.0 | Train Acc 0.1000 | Test Acc 0.1000
…
                    )
                )
    names = []
    params = []
    for name,param in model.named_parameters():
        names.append(name)
        params.append(param.detach().numpy())
    nn1 = dict({'Wb':params,'names':names})
    for name,param in model.named_buffers():
        names.append(name)
        params.append(param.detach().numpy())
    savemat("odecnn_cifar_tiny2.mat",nn1)
Namespace(adjoint=False, batch_size=128, data_aug=False, debug=False, downsampling_method='conv', gpu=0, lr=0.01, nepochs=200, network='odenet', save='../logs/cifar1', test_batch_size=1000, tol=0.001)
Sequential(
  (0): Conv2d(3, 4, kernel_size=(3, 3), stride=(1, 1))
  (1): BatchNorm2d(4, eps=4, momentum=0.1, affine=True, track_running_stats=True)
  (2): ReLU(inplace=True)
  (3): Conv2d(4, 4, kernel_size=(4, 4), stride=(2, 2), padding=(1, 1))
  (4): BatchNorm2d(4, eps=4, momentum=0.1, affine=True, track_running_stats=True)
  (5): ReLU(inplace=True)
  (6): Flatten()
  (7): ODEBlock(
    (odefunc): ODEfunc(
      (fc1): Linear(in_features=900, out_features=16, bias=True)
      (fc2): Linear(in_features=16, out_features=900, bias=True)
    )
  )
  (8): Linear(in_features=900, out_features=10, bias=True)
)
Number of parameters: 39114
/home/manzand/Documents/Python/neuralODE_examples/cifar/odenet_cifar_example_tiny.py
/home/manzand/Documents/Python/neuralODE_examples/cifar/odenet_cifar_example_tiny.py
#!/usr/bin/env python3
# -*- coding: utf-8 -*-
"""
Created on Thu Feb  4 09:04:31 2021

@author: manzand
"""

#!/usr/bin/env python3
# -*- coding: utf-8 -*-
…
    nn1 = dict({'Wb':params,'names':names})
    for name,param in model.named_buffers():
        names.append(name)
        params.append(param.detach().numpy())
    savemat("odecnn_cifar_tiny2.mat",nn1)
Namespace(adjoint=False, batch_size=128, data_aug=False, debug=False, downsampling_method='conv', gpu=0, lr=0.01, nepochs=200, network='odenet', save='../logs/cifar1', test_batch_size=1000, tol=0.001)
Namespace(adjoint=False, batch_size=128, data_aug=False, debug=False, downsampling_method='conv', gpu=0, lr=0.01, nepochs=200, network='odenet', save='../logs/cifar1', test_batch_size=1000, tol=0.001)
Sequential(
  (0): Conv2d(3, 4, kernel_size=(3, 3), stride=(1, 1))
  (1): BatchNorm2d(4, eps=4, momentum=0.1, affine=True, track_running_stats=True)
  (2): ReLU(inplace=True)
  (3): Conv2d(4, 4, kernel_size=(4, 4), stride=(2, 2), padding=(1, 1))
  (4): BatchNorm2d(4, eps=4, momentum=0.1, affine=True, track_running_stats=True)
  (5): ReLU(inplace=True)
  (6): Flatten()
  (7): ODEBlock(
    (odefunc): ODEfunc(
      (fc1): Linear(in_features=900, out_features=16, bias=True)
      (fc2): Linear(in_features=16, out_features=900, bias=True)
    )
  )
  (8): Linear(in_features=900, out_features=10, bias=True)
)
Sequential(
  (0): Conv2d(3, 4, kernel_size=(3, 3), stride=(1, 1))
  (1): BatchNorm2d(4, eps=4, momentum=0.1, affine=True, track_running_stats=True)
  (2): ReLU(inplace=True)
  (3): Conv2d(4, 4, kernel_size=(4, 4), stride=(2, 2), padding=(1, 1))
  (4): BatchNorm2d(4, eps=4, momentum=0.1, affine=True, track_running_stats=True)
  (5): ReLU(inplace=True)
  (6): Flatten()
  (7): ODEBlock(
    (odefunc): ODEfunc(
      (fc1): Linear(in_features=900, out_features=16, bias=True)
      (fc2): Linear(in_features=16, out_features=900, bias=True)
    )
  )
  (8): Linear(in_features=900, out_features=10, bias=True)
)
Number of parameters: 39114
Number of parameters: 39114
Epoch 0000 | Time 0.295 (0.295) | NFE-F 20.0 | NFE-B 0.0 | Train Acc 0.1000 | Test Acc 0.1000
Epoch 0000 | Time 0.295 (0.295) | NFE-F 20.0 | NFE-B 0.0 | Train Acc 0.1000 | Test Acc 0.1000
Epoch 0001 | Time 0.203 (0.100) | NFE-F 14.4 | NFE-B 0.0 | Train Acc 0.2991 | Test Acc 0.3047
Epoch 0001 | Time 0.203 (0.100) | NFE-F 14.4 | NFE-B 0.0 | Train Acc 0.2991 | Test Acc 0.3047
…
    nn1 = dict({'Wb':params,'names':names})
    for name,param in model.named_buffers():
        names.append(name)
        params.append(param.detach().numpy())
    savemat("odecnn_cifar_mid.mat",nn1)
Namespace(adjoint=False, batch_size=128, data_aug=False, debug=False, downsampling_method='conv', gpu=0, lr=0.01, nepochs=100, network='odenet', save='../logs/cifarmid', test_batch_size=1000, tol=0.001)
Namespace(adjoint=False, batch_size=128, data_aug=False, debug=False, downsampling_method='conv', gpu=0, lr=0.01, nepochs=100, network='odenet', save='../logs/cifarmid', test_batch_size=1000, tol=0.001)
Sequential(
  (0): Conv2d(3, 20, kernel_size=(3, 3), stride=(1, 1))
  (1): BatchNorm2d(20, eps=20, momentum=0.1, affine=True, track_running_stats=True)
  (2): ReLU(inplace=True)
  (3): Conv2d(20, 10, kernel_size=(4, 4), stride=(2, 2), padding=(1, 1))
  (4): BatchNorm2d(10, eps=10, momentum=0.1, affine=True, track_running_stats=True)
  (5): ReLU(inplace=True)
  (6): Conv2d(10, 10, kernel_size=(4, 4), stride=(2, 2), padding=(1, 1))
  (7): BatchNorm2d(10, eps=10, momentum=0.1, affine=True, track_running_stats=True)
  (8): ReLU(inplace=True)
  (9): Flatten()
  (10): ODEBlock(
    (odefunc): ODEfunc(
      (fc1): Linear(in_features=2250, out_features=16, bias=True)
      (fc2): Linear(in_features=16, out_features=2250, bias=True)
    )
  )
  (11): Linear(in_features=2250, out_features=10, bias=True)
)
Sequential(
  (0): Conv2d(3, 20, kernel_size=(3, 3), stride=(1, 1))
  (1): BatchNorm2d(20, eps=20, momentum=0.1, affine=True, track_running_stats=True)
  (2): ReLU(inplace=True)
  (3): Conv2d(20, 10, kernel_size=(4, 4), stride=(2, 2), padding=(1, 1))
  (4): BatchNorm2d(10, eps=10, momentum=0.1, affine=True, track_running_stats=True)
  (5): ReLU(inplace=True)
  (6): Conv2d(10, 10, kernel_size=(4, 4), stride=(2, 2), padding=(1, 1))
  (7): BatchNorm2d(10, eps=10, momentum=0.1, affine=True, track_running_stats=True)
  (8): ReLU(inplace=True)
  (9): Flatten()
  (10): ODEBlock(
    (odefunc): ODEfunc(
      (fc1): Linear(in_features=2250, out_features=16, bias=True)
      (fc2): Linear(in_features=16, out_features=2250, bias=True)
    )
  )
  (11): Linear(in_features=2250, out_features=10, bias=True)
)
Number of parameters: 102236
Number of parameters: 102236
/home/manzand/Documents/Python/neuralODE_examples/cifar/odenet_cifar_example.py
/home/manzand/Documents/Python/neuralODE_examples/cifar/odenet_cifar_example.py
#!/usr/bin/env python3
# -*- coding: utf-8 -*-
"""
Created on Tue Jan 19 15:10:31 2021

@author: manzand
"""

import os
import argparse
…
    nn1 = dict({'Wb':params,'names':names})
    for name,param in model.named_buffers():
        names.append(name)
        params.append(param.detach().numpy())
    savemat("odecnn_cifar_mid.mat",nn1)
Namespace(adjoint=False, batch_size=128, data_aug=False, debug=False, downsampling_method='conv', gpu=0, lr=0.01, nepochs=100, network='odenet', save='../logs/cifarmid', test_batch_size=1000, tol=0.001)
Namespace(adjoint=False, batch_size=128, data_aug=False, debug=False, downsampling_method='conv', gpu=0, lr=0.01, nepochs=100, network='odenet', save='../logs/cifarmid', test_batch_size=1000, tol=0.001)
Sequential(
  (0): Conv2d(3, 20, kernel_size=(3, 3), stride=(1, 1))
  (1): BatchNorm2d(20, eps=20, momentum=0.1, affine=True, track_running_stats=True)
  (2): ReLU(inplace=True)
  (3): Conv2d(20, 10, kernel_size=(4, 4), stride=(2, 2), padding=(1, 1))
  (4): BatchNorm2d(10, eps=10, momentum=0.1, affine=True, track_running_stats=True)
  (5): ReLU(inplace=True)
  (6): Conv2d(10, 10, kernel_size=(4, 4), stride=(2, 2), padding=(1, 1))
  (7): BatchNorm2d(10, eps=10, momentum=0.1, affine=True, track_running_stats=True)
  (8): ReLU(inplace=True)
  (9): Flatten()
  (10): ODEBlock(
    (odefunc): ODEfunc(
      (fc1): Linear(in_features=490, out_features=16, bias=True)
      (fc2): Linear(in_features=16, out_features=490, bias=True)
    )
  )
  (11): Linear(in_features=490, out_features=10, bias=True)
)
Sequential(
  (0): Conv2d(3, 20, kernel_size=(3, 3), stride=(1, 1))
  (1): BatchNorm2d(20, eps=20, momentum=0.1, affine=True, track_running_stats=True)
  (2): ReLU(inplace=True)
  (3): Conv2d(20, 10, kernel_size=(4, 4), stride=(2, 2), padding=(1, 1))
  (4): BatchNorm2d(10, eps=10, momentum=0.1, affine=True, track_running_stats=True)
  (5): ReLU(inplace=True)
  (6): Conv2d(10, 10, kernel_size=(4, 4), stride=(2, 2), padding=(1, 1))
  (7): BatchNorm2d(10, eps=10, momentum=0.1, affine=True, track_running_stats=True)
  (8): ReLU(inplace=True)
  (9): Flatten()
  (10): ODEBlock(
    (odefunc): ODEfunc(
      (fc1): Linear(in_features=490, out_features=16, bias=True)
      (fc2): Linear(in_features=16, out_features=490, bias=True)
    )
  )
  (11): Linear(in_features=490, out_features=10, bias=True)
)
Number of parameters: 26556
Number of parameters: 26556
Epoch 0000 | Time 0.217 (0.217) | NFE-F 26.0 | NFE-B 0.0 | Train Acc 0.1000 | Test Acc 0.1000
Epoch 0000 | Time 0.217 (0.217) | NFE-F 26.0 | NFE-B 0.0 | Train Acc 0.1000 | Test Acc 0.1000
Epoch 0001 | Time 0.253 (0.145) | NFE-F 32.6 | NFE-B 0.0 | Train Acc 0.1000 | Test Acc 0.1000
Epoch 0001 | Time 0.253 (0.145) | NFE-F 32.6 | NFE-B 0.0 | Train Acc 0.1000 | Test Acc 0.1000
…
