…
                    )
                )
    names = []
    params = []
    for name,param in model.named_parameters():
        names.append(name)
        params.append(param.detach().numpy())
    nn1 = dict({'Wb':params,'names':names})
    for name,param in model.named_buffers():
        names.append(name)
        params.append(param.detach().numpy())
    savemat("odecnn_cifar_tiny.mat",nn1)
Namespace(adjoint=False, batch_size=128, data_aug=False, debug=False, downsampling_method='conv', gpu=0, lr=0.01, nepochs=200, network='odenet', save='../logs/cifartiny', test_batch_size=1000, tol=0.001)
Sequential(
  (0): Conv2d(3, 4, kernel_size=(3, 3), stride=(1, 1))
  (1): BatchNorm2d(4, eps=4, momentum=0.1, affine=True, track_running_stats=True)
  (2): ReLU(inplace=True)
  (3): Conv2d(4, 4, kernel_size=(4, 4), stride=(2, 2), padding=(1, 1))
  (4): BatchNorm2d(4, eps=4, momentum=0.1, affine=True, track_running_stats=True)
  (5): ReLU(inplace=True)
  (6): Flatten()
  (7): ODEBlock(
    (odefunc): ODEfunc(
      (fc1): Linear(in_features=900, out_features=16, bias=True)
      (fc2): Linear(in_features=16, out_features=900, bias=True)
    )
  )
  (8): Linear(in_features=900, out_features=10, bias=True)
)
Number of parameters: 39114
Epoch 0000 | Time 0.204 (0.204) | NFE-F 20.0 | NFE-B 0.0 | Train Acc 0.1000 | Test Acc 0.1000
Epoch 0001 | Time 0.187 (0.084) | NFE-F 15.7 | NFE-B 0.0 | Train Acc 0.2736 | Test Acc 0.2811
Epoch 0002 | Time 0.182 (0.073) | NFE-F 14.2 | NFE-B 0.0 | Train Acc 0.2977 | Test Acc 0.3011
Epoch 0003 | Time 0.187 (0.081) | NFE-F 14.2 | NFE-B 0.0 | Train Acc 0.3794 | Test Acc 0.3808
…
    nn1 = dict({'Wb':params,'names':names})
    for name,param in model.named_buffers():
        names.append(name)
        params.append(param.detach().numpy())
    savemat("odecnn_cifar_tiny.mat",nn1)
Namespace(adjoint=False, batch_size=128, data_aug=False, debug=False, downsampling_method='conv', gpu=0, lr=0.01, nepochs=200, network='odenet', save='../logs/cifartiny', test_batch_size=1000, tol=0.001)
Namespace(adjoint=False, batch_size=128, data_aug=False, debug=False, downsampling_method='conv', gpu=0, lr=0.01, nepochs=200, network='odenet', save='../logs/cifartiny', test_batch_size=1000, tol=0.001)
Sequential(
  (0): Conv2d(3, 4, kernel_size=(3, 3), stride=(1, 1))
  (1): BatchNorm2d(4, eps=4, momentum=0.1, affine=True, track_running_stats=True)
  (2): ReLU(inplace=True)
  (3): Conv2d(4, 4, kernel_size=(4, 4), stride=(2, 2), padding=(1, 1))
  (4): BatchNorm2d(4, eps=4, momentum=0.1, affine=True, track_running_stats=True)
  (5): ReLU(inplace=True)
  (6): Conv2d(4, 4, kernel_size=(4, 4), stride=(2, 2), padding=(1, 1))
  (7): BatchNorm2d(4, eps=4, momentum=0.1, affine=True, track_running_stats=True)
  (8): ReLU(inplace=True)
  (9): Flatten()
  (10): ODEBlock(
    (odefunc): ODEfunc(
      (fc1): Linear(in_features=900, out_features=16, bias=True)
      (fc2): Linear(in_features=16, out_features=900, bias=True)
    )
  )
  (11): Linear(in_features=900, out_features=10, bias=True)
)
Sequential(
  (0): Conv2d(3, 4, kernel_size=(3, 3), stride=(1, 1))
  (1): BatchNorm2d(4, eps=4, momentum=0.1, affine=True, track_running_stats=True)
  (2): ReLU(inplace=True)
  (3): Conv2d(4, 4, kernel_size=(4, 4), stride=(2, 2), padding=(1, 1))
  (4): BatchNorm2d(4, eps=4, momentum=0.1, affine=True, track_running_stats=True)
  (5): ReLU(inplace=True)
  (6): Conv2d(4, 4, kernel_size=(4, 4), stride=(2, 2), padding=(1, 1))
  (7): BatchNorm2d(4, eps=4, momentum=0.1, affine=True, track_running_stats=True)
  (8): ReLU(inplace=True)
  (9): Flatten()
  (10): ODEBlock(
    (odefunc): ODEfunc(
      (fc1): Linear(in_features=900, out_features=16, bias=True)
      (fc2): Linear(in_features=16, out_features=900, bias=True)
    )
  )
  (11): Linear(in_features=900, out_features=10, bias=True)
)
Number of parameters: 39382
Number of parameters: 39382
/home/manzand/Documents/Python/neuralODE_examples/cifar/odenet_cifar_example_tiny.py
/home/manzand/Documents/Python/neuralODE_examples/cifar/odenet_cifar_example_tiny.py
/home/manzand/Documents/Python/neuralODE_examples/cifar/odenet_cifar_example_tiny.py
#!/usr/bin/env python3
# -*- coding: utf-8 -*-
…
Namespace(adjoint=False, batch_size=128, data_aug=False, debug=False, downsampling_method='conv', gpu=0, lr=0.01, nepochs=200, network='odenet', save='../logs/cifartiny', test_batch_size=1000, tol=0.001)
Namespace(adjoint=False, batch_size=128, data_aug=False, debug=False, downsampling_method='conv', gpu=0, lr=0.01, nepochs=200, network='odenet', save='../logs/cifartiny', test_batch_size=1000, tol=0.001)
Namespace(adjoint=False, batch_size=128, data_aug=False, debug=False, downsampling_method='conv', gpu=0, lr=0.01, nepochs=200, network='odenet', save='../logs/cifartiny', test_batch_size=1000, tol=0.001)
Sequential(
  (0): Conv2d(3, 4, kernel_size=(3, 3), stride=(1, 1))
  (1): BatchNorm2d(4, eps=4, momentum=0.1, affine=True, track_running_stats=True)
  (2): ReLU(inplace=True)
  (3): Conv2d(4, 4, kernel_size=(4, 4), stride=(2, 2), padding=(1, 1))
  (4): BatchNorm2d(4, eps=4, momentum=0.1, affine=True, track_running_stats=True)
  (5): ReLU(inplace=True)
  (6): Conv2d(4, 4, kernel_size=(4, 4), stride=(2, 2), padding=(1, 1))
  (7): BatchNorm2d(4, eps=4, momentum=0.1, affine=True, track_running_stats=True)
  (8): ReLU(inplace=True)
  (9): Flatten()
  (10): ODEBlock(
    (odefunc): ODEfunc(
      (fc1): Linear(in_features=196, out_features=16, bias=True)
      (fc2): Linear(in_features=16, out_features=196, bias=True)
    )
  )
  (11): Linear(in_features=196, out_features=10, bias=True)
)
Sequential(
  (0): Conv2d(3, 4, kernel_size=(3, 3), stride=(1, 1))
  (1): BatchNorm2d(4, eps=4, momentum=0.1, affine=True, track_running_stats=True)
  (2): ReLU(inplace=True)
  (3): Conv2d(4, 4, kernel_size=(4, 4), stride=(2, 2), padding=(1, 1))
  (4): BatchNorm2d(4, eps=4, momentum=0.1, affine=True, track_running_stats=True)
  (5): ReLU(inplace=True)
  (6): Conv2d(4, 4, kernel_size=(4, 4), stride=(2, 2), padding=(1, 1))
  (7): BatchNorm2d(4, eps=4, momentum=0.1, affine=True, track_running_stats=True)
  (8): ReLU(inplace=True)
  (9): Flatten()
  (10): ODEBlock(
    (odefunc): ODEfunc(
      (fc1): Linear(in_features=196, out_features=16, bias=True)
      (fc2): Linear(in_features=16, out_features=196, bias=True)
    )
  )
  (11): Linear(in_features=196, out_features=10, bias=True)
)
Sequential(
  (0): Conv2d(3, 4, kernel_size=(3, 3), stride=(1, 1))
  (1): BatchNorm2d(4, eps=4, momentum=0.1, affine=True, track_running_stats=True)
  (2): ReLU(inplace=True)
  (3): Conv2d(4, 4, kernel_size=(4, 4), stride=(2, 2), padding=(1, 1))
  (4): BatchNorm2d(4, eps=4, momentum=0.1, affine=True, track_running_stats=True)
  (5): ReLU(inplace=True)
  (6): Conv2d(4, 4, kernel_size=(4, 4), stride=(2, 2), padding=(1, 1))
  (7): BatchNorm2d(4, eps=4, momentum=0.1, affine=True, track_running_stats=True)
  (8): ReLU(inplace=True)
  (9): Flatten()
  (10): ODEBlock(
    (odefunc): ODEfunc(
      (fc1): Linear(in_features=196, out_features=16, bias=True)
      (fc2): Linear(in_features=16, out_features=196, bias=True)
    )
  )
  (11): Linear(in_features=196, out_features=10, bias=True)
)
Number of parameters: 9110
Number of parameters: 9110
Number of parameters: 9110
Epoch 0000 | Time 0.107 (0.107) | NFE-F 26.0 | NFE-B 0.0 | Train Acc 0.1000 | Test Acc 0.1000
Epoch 0000 | Time 0.107 (0.107) | NFE-F 26.0 | NFE-B 0.0 | Train Acc 0.1000 | Test Acc 0.1000
Epoch 0000 | Time 0.107 (0.107) | NFE-F 26.0 | NFE-B 0.0 | Train Acc 0.1000 | Test Acc 0.1000
…
Namespace(adjoint=False, batch_size=128, data_aug=False, debug=False, downsampling_method='conv', gpu=0, lr=0.01, nepochs=200, network='odenet', save='../logs/cifartiny', test_batch_size=1000, tol=0.001)
Namespace(adjoint=False, batch_size=128, data_aug=False, debug=False, downsampling_method='conv', gpu=0, lr=0.01, nepochs=200, network='odenet', save='../logs/cifartiny', test_batch_size=1000, tol=0.001)
Namespace(adjoint=False, batch_size=128, data_aug=False, debug=False, downsampling_method='conv', gpu=0, lr=0.01, nepochs=200, network='odenet', save='../logs/cifartiny', test_batch_size=1000, tol=0.001)
Sequential(
  (0): Conv2d(3, 4, kernel_size=(3, 3), stride=(1, 1))
  (1): BatchNorm2d(4, eps=4, momentum=0.1, affine=True, track_running_stats=True)
  (2): ReLU(inplace=True)
  (3): Conv2d(4, 4, kernel_size=(4, 4), stride=(2, 2), padding=(1, 1))
  (4): BatchNorm2d(4, eps=4, momentum=0.1, affine=True, track_running_stats=True)
  (5): ReLU(inplace=True)
  (6): Conv2d(4, 4, kernel_size=(4, 4), stride=(2, 2), padding=(1, 1))
  (7): BatchNorm2d(4, eps=4, momentum=0.1, affine=True, track_running_stats=True)
  (8): ReLU(inplace=True)
  (9): Flatten()
  (10): ODEBlock(
    (odefunc): ODEfunc(
      (fc1): Linear(in_features=196, out_features=16, bias=True)
      (fc2): Linear(in_features=16, out_features=196, bias=True)
    )
  )
  (11): Linear(in_features=196, out_features=10, bias=True)
)
Sequential(
  (0): Conv2d(3, 4, kernel_size=(3, 3), stride=(1, 1))
  (1): BatchNorm2d(4, eps=4, momentum=0.1, affine=True, track_running_stats=True)
  (2): ReLU(inplace=True)
  (3): Conv2d(4, 4, kernel_size=(4, 4), stride=(2, 2), padding=(1, 1))
  (4): BatchNorm2d(4, eps=4, momentum=0.1, affine=True, track_running_stats=True)
  (5): ReLU(inplace=True)
  (6): Conv2d(4, 4, kernel_size=(4, 4), stride=(2, 2), padding=(1, 1))
  (7): BatchNorm2d(4, eps=4, momentum=0.1, affine=True, track_running_stats=True)
  (8): ReLU(inplace=True)
  (9): Flatten()
  (10): ODEBlock(
    (odefunc): ODEfunc(
      (fc1): Linear(in_features=196, out_features=16, bias=True)
      (fc2): Linear(in_features=16, out_features=196, bias=True)
    )
  )
  (11): Linear(in_features=196, out_features=10, bias=True)
)
Sequential(
  (0): Conv2d(3, 4, kernel_size=(3, 3), stride=(1, 1))
  (1): BatchNorm2d(4, eps=4, momentum=0.1, affine=True, track_running_stats=True)
  (2): ReLU(inplace=True)
  (3): Conv2d(4, 4, kernel_size=(4, 4), stride=(2, 2), padding=(1, 1))
  (4): BatchNorm2d(4, eps=4, momentum=0.1, affine=True, track_running_stats=True)
  (5): ReLU(inplace=True)
  (6): Conv2d(4, 4, kernel_size=(4, 4), stride=(2, 2), padding=(1, 1))
  (7): BatchNorm2d(4, eps=4, momentum=0.1, affine=True, track_running_stats=True)
  (8): ReLU(inplace=True)
  (9): Flatten()
  (10): ODEBlock(
    (odefunc): ODEfunc(
      (fc1): Linear(in_features=196, out_features=16, bias=True)
      (fc2): Linear(in_features=16, out_features=196, bias=True)
    )
  )
  (11): Linear(in_features=196, out_features=10, bias=True)
)
Sequential(
  (0): Conv2d(3, 4, kernel_size=(3, 3), stride=(1, 1))
  (1): BatchNorm2d(4, eps=4, momentum=0.1, affine=True, track_running_stats=True)
  (2): ReLU(inplace=True)
  (3): Conv2d(4, 4, kernel_size=(4, 4), stride=(2, 2), padding=(1, 1))
  (4): BatchNorm2d(4, eps=4, momentum=0.1, affine=True, track_running_stats=True)
  (5): ReLU(inplace=True)
  (6): Conv2d(4, 4, kernel_size=(4, 4), stride=(2, 2), padding=(1, 1))
  (7): BatchNorm2d(4, eps=4, momentum=0.1, affine=True, track_running_stats=True)
  (8): ReLU(inplace=True)
  (9): Flatten()
  (10): ODEBlock(
    (odefunc): ODEfunc(
      (fc1): Linear(in_features=196, out_features=16, bias=True)
      (fc2): Linear(in_features=16, out_features=196, bias=True)
    )
  )
  (11): Linear(in_features=196, out_features=10, bias=True)
)
Number of parameters: 9110
Number of parameters: 9110
Number of parameters: 9110
Number of parameters: 9110
Epoch 0000 | Time 0.149 (0.149) | NFE-F 26.0 | NFE-B 0.0 | Train Acc 0.1000 | Test Acc 0.1000
Epoch 0000 | Time 0.149 (0.149) | NFE-F 26.0 | NFE-B 0.0 | Train Acc 0.1000 | Test Acc 0.1000
Epoch 0000 | Time 0.149 (0.149) | NFE-F 26.0 | NFE-B 0.0 | Train Acc 0.1000 | Test Acc 0.1000
…
Namespace(adjoint=False, batch_size=128, data_aug=False, debug=False, downsampling_method='conv', gpu=0, lr=0.01, nepochs=200, network='odenet', save='../logs/cifartiny', test_batch_size=1000, tol=0.001)
Namespace(adjoint=False, batch_size=128, data_aug=False, debug=False, downsampling_method='conv', gpu=0, lr=0.01, nepochs=200, network='odenet', save='../logs/cifartiny', test_batch_size=1000, tol=0.001)
Namespace(adjoint=False, batch_size=128, data_aug=False, debug=False, downsampling_method='conv', gpu=0, lr=0.01, nepochs=200, network='odenet', save='../logs/cifartiny', test_batch_size=1000, tol=0.001)
Sequential(
  (0): Conv2d(3, 20, kernel_size=(3, 3), stride=(1, 1))
  (1): BatchNorm2d(20, eps=20, momentum=0.1, affine=True, track_running_stats=True)
  (2): ReLU(inplace=True)
  (3): Conv2d(20, 20, kernel_size=(4, 4), stride=(2, 2), padding=(1, 1))
  (4): BatchNorm2d(20, eps=20, momentum=0.1, affine=True, track_running_stats=True)
  (5): ReLU(inplace=True)
  (6): Conv2d(20, 20, kernel_size=(4, 4), stride=(2, 2), padding=(1, 1))
  (7): BatchNorm2d(20, eps=20, momentum=0.1, affine=True, track_running_stats=True)
  (8): ReLU(inplace=True)
  (9): Flatten()
  (10): ODEBlock(
    (odefunc): ODEfunc(
      (fc1): Linear(in_features=196, out_features=16, bias=True)
      (fc2): Linear(in_features=16, out_features=196, bias=True)
    )
  )
  (11): Linear(in_features=196, out_features=10, bias=True)
)
Sequential(
  (0): Conv2d(3, 20, kernel_size=(3, 3), stride=(1, 1))
  (1): BatchNorm2d(20, eps=20, momentum=0.1, affine=True, track_running_stats=True)
  (2): ReLU(inplace=True)
  (3): Conv2d(20, 20, kernel_size=(4, 4), stride=(2, 2), padding=(1, 1))
  (4): BatchNorm2d(20, eps=20, momentum=0.1, affine=True, track_running_stats=True)
  (5): ReLU(inplace=True)
  (6): Conv2d(20, 20, kernel_size=(4, 4), stride=(2, 2), padding=(1, 1))
  (7): BatchNorm2d(20, eps=20, momentum=0.1, affine=True, track_running_stats=True)
  (8): ReLU(inplace=True)
  (9): Flatten()
  (10): ODEBlock(
    (odefunc): ODEfunc(
      (fc1): Linear(in_features=196, out_features=16, bias=True)
      (fc2): Linear(in_features=16, out_features=196, bias=True)
    )
  )
  (11): Linear(in_features=196, out_features=10, bias=True)
)
Sequential(
  (0): Conv2d(3, 20, kernel_size=(3, 3), stride=(1, 1))
  (1): BatchNorm2d(20, eps=20, momentum=0.1, affine=True, track_running_stats=True)
  (2): ReLU(inplace=True)
  (3): Conv2d(20, 20, kernel_size=(4, 4), stride=(2, 2), padding=(1, 1))
  (4): BatchNorm2d(20, eps=20, momentum=0.1, affine=True, track_running_stats=True)
  (5): ReLU(inplace=True)
  (6): Conv2d(20, 20, kernel_size=(4, 4), stride=(2, 2), padding=(1, 1))
  (7): BatchNorm2d(20, eps=20, momentum=0.1, affine=True, track_running_stats=True)
  (8): ReLU(inplace=True)
  (9): Flatten()
  (10): ODEBlock(
    (odefunc): ODEfunc(
      (fc1): Linear(in_features=196, out_features=16, bias=True)
      (fc2): Linear(in_features=16, out_features=196, bias=True)
    )
  )
  (11): Linear(in_features=196, out_features=10, bias=True)
)
Sequential(
  (0): Conv2d(3, 20, kernel_size=(3, 3), stride=(1, 1))
  (1): BatchNorm2d(20, eps=20, momentum=0.1, affine=True, track_running_stats=True)
  (2): ReLU(inplace=True)
  (3): Conv2d(20, 20, kernel_size=(4, 4), stride=(2, 2), padding=(1, 1))
  (4): BatchNorm2d(20, eps=20, momentum=0.1, affine=True, track_running_stats=True)
  (5): ReLU(inplace=True)
  (6): Conv2d(20, 20, kernel_size=(4, 4), stride=(2, 2), padding=(1, 1))
  (7): BatchNorm2d(20, eps=20, momentum=0.1, affine=True, track_running_stats=True)
  (8): ReLU(inplace=True)
  (9): Flatten()
  (10): ODEBlock(
    (odefunc): ODEfunc(
      (fc1): Linear(in_features=196, out_features=16, bias=True)
      (fc2): Linear(in_features=16, out_features=196, bias=True)
    )
  )
  (11): Linear(in_features=196, out_features=10, bias=True)
)
Sequential(
  (0): Conv2d(3, 20, kernel_size=(3, 3), stride=(1, 1))
  (1): BatchNorm2d(20, eps=20, momentum=0.1, affine=True, track_running_stats=True)
  (2): ReLU(inplace=True)
  (3): Conv2d(20, 20, kernel_size=(4, 4), stride=(2, 2), padding=(1, 1))
  (4): BatchNorm2d(20, eps=20, momentum=0.1, affine=True, track_running_stats=True)
  (5): ReLU(inplace=True)
  (6): Conv2d(20, 20, kernel_size=(4, 4), stride=(2, 2), padding=(1, 1))
  (7): BatchNorm2d(20, eps=20, momentum=0.1, affine=True, track_running_stats=True)
  (8): ReLU(inplace=True)
  (9): Flatten()
  (10): ODEBlock(
    (odefunc): ODEfunc(
      (fc1): Linear(in_features=196, out_features=16, bias=True)
      (fc2): Linear(in_features=16, out_features=196, bias=True)
    )
  )
  (11): Linear(in_features=196, out_features=10, bias=True)
)
Number of parameters: 21974
Number of parameters: 21974
Number of parameters: 21974
Number of parameters: 21974
Number of parameters: 21974
/home/manzand/Documents/Python/neuralODE_examples/cifar/odenet_cifar_example_tiny.py
/home/manzand/Documents/Python/neuralODE_examples/cifar/odenet_cifar_example_tiny.py
/home/manzand/Documents/Python/neuralODE_examples/cifar/odenet_cifar_example_tiny.py
…
Namespace(adjoint=False, batch_size=128, data_aug=False, debug=False, downsampling_method='conv', gpu=0, lr=0.01, nepochs=200, network='odenet', save='../logs/cifartiny', test_batch_size=1000, tol=0.001)
Namespace(adjoint=False, batch_size=128, data_aug=False, debug=False, downsampling_method='conv', gpu=0, lr=0.01, nepochs=200, network='odenet', save='../logs/cifartiny', test_batch_size=1000, tol=0.001)
Namespace(adjoint=False, batch_size=128, data_aug=False, debug=False, downsampling_method='conv', gpu=0, lr=0.01, nepochs=200, network='odenet', save='../logs/cifartiny', test_batch_size=1000, tol=0.001)
Sequential(
  (0): Conv2d(3, 20, kernel_size=(3, 3), stride=(1, 1))
  (1): BatchNorm2d(20, eps=20, momentum=0.1, affine=True, track_running_stats=True)
  (2): ReLU(inplace=True)
  (3): Conv2d(20, 20, kernel_size=(4, 4), stride=(2, 2), padding=(1, 1))
  (4): BatchNorm2d(20, eps=20, momentum=0.1, affine=True, track_running_stats=True)
  (5): ReLU(inplace=True)
  (6): Conv2d(20, 20, kernel_size=(4, 4), stride=(2, 2), padding=(1, 1))
  (7): BatchNorm2d(20, eps=20, momentum=0.1, affine=True, track_running_stats=True)
  (8): ReLU(inplace=True)
  (9): Flatten()
  (10): ODEBlock(
    (odefunc): ODEfunc(
      (fc1): Linear(in_features=980, out_features=16, bias=True)
      (fc2): Linear(in_features=16, out_features=980, bias=True)
    )
  )
  (11): Linear(in_features=980, out_features=10, bias=True)
)
Sequential(
  (0): Conv2d(3, 20, kernel_size=(3, 3), stride=(1, 1))
  (1): BatchNorm2d(20, eps=20, momentum=0.1, affine=True, track_running_stats=True)
  (2): ReLU(inplace=True)
  (3): Conv2d(20, 20, kernel_size=(4, 4), stride=(2, 2), padding=(1, 1))
  (4): BatchNorm2d(20, eps=20, momentum=0.1, affine=True, track_running_stats=True)
  (5): ReLU(inplace=True)
  (6): Conv2d(20, 20, kernel_size=(4, 4), stride=(2, 2), padding=(1, 1))
  (7): BatchNorm2d(20, eps=20, momentum=0.1, affine=True, track_running_stats=True)
  (8): ReLU(inplace=True)
  (9): Flatten()
  (10): ODEBlock(
    (odefunc): ODEfunc(
      (fc1): Linear(in_features=980, out_features=16, bias=True)
      (fc2): Linear(in_features=16, out_features=980, bias=True)
    )
  )
  (11): Linear(in_features=980, out_features=10, bias=True)
)
Sequential(
  (0): Conv2d(3, 20, kernel_size=(3, 3), stride=(1, 1))
  (1): BatchNorm2d(20, eps=20, momentum=0.1, affine=True, track_running_stats=True)
  (2): ReLU(inplace=True)
  (3): Conv2d(20, 20, kernel_size=(4, 4), stride=(2, 2), padding=(1, 1))
  (4): BatchNorm2d(20, eps=20, momentum=0.1, affine=True, track_running_stats=True)
  (5): ReLU(inplace=True)
  (6): Conv2d(20, 20, kernel_size=(4, 4), stride=(2, 2), padding=(1, 1))
  (7): BatchNorm2d(20, eps=20, momentum=0.1, affine=True, track_running_stats=True)
  (8): ReLU(inplace=True)
  (9): Flatten()
  (10): ODEBlock(
    (odefunc): ODEfunc(
      (fc1): Linear(in_features=980, out_features=16, bias=True)
      (fc2): Linear(in_features=16, out_features=980, bias=True)
    )
  )
  (11): Linear(in_features=980, out_features=10, bias=True)
)
Sequential(
  (0): Conv2d(3, 20, kernel_size=(3, 3), stride=(1, 1))
  (1): BatchNorm2d(20, eps=20, momentum=0.1, affine=True, track_running_stats=True)
  (2): ReLU(inplace=True)
  (3): Conv2d(20, 20, kernel_size=(4, 4), stride=(2, 2), padding=(1, 1))
  (4): BatchNorm2d(20, eps=20, momentum=0.1, affine=True, track_running_stats=True)
  (5): ReLU(inplace=True)
  (6): Conv2d(20, 20, kernel_size=(4, 4), stride=(2, 2), padding=(1, 1))
  (7): BatchNorm2d(20, eps=20, momentum=0.1, affine=True, track_running_stats=True)
  (8): ReLU(inplace=True)
  (9): Flatten()
  (10): ODEBlock(
    (odefunc): ODEfunc(
      (fc1): Linear(in_features=980, out_features=16, bias=True)
      (fc2): Linear(in_features=16, out_features=980, bias=True)
    )
  )
  (11): Linear(in_features=980, out_features=10, bias=True)
)
Sequential(
  (0): Conv2d(3, 20, kernel_size=(3, 3), stride=(1, 1))
  (1): BatchNorm2d(20, eps=20, momentum=0.1, affine=True, track_running_stats=True)
  (2): ReLU(inplace=True)
  (3): Conv2d(20, 20, kernel_size=(4, 4), stride=(2, 2), padding=(1, 1))
  (4): BatchNorm2d(20, eps=20, momentum=0.1, affine=True, track_running_stats=True)
  (5): ReLU(inplace=True)
  (6): Conv2d(20, 20, kernel_size=(4, 4), stride=(2, 2), padding=(1, 1))
  (7): BatchNorm2d(20, eps=20, momentum=0.1, affine=True, track_running_stats=True)
  (8): ReLU(inplace=True)
  (9): Flatten()
  (10): ODEBlock(
    (odefunc): ODEfunc(
      (fc1): Linear(in_features=980, out_features=16, bias=True)
      (fc2): Linear(in_features=16, out_features=980, bias=True)
    )
  )
  (11): Linear(in_features=980, out_features=10, bias=True)
)
Sequential(
  (0): Conv2d(3, 20, kernel_size=(3, 3), stride=(1, 1))
  (1): BatchNorm2d(20, eps=20, momentum=0.1, affine=True, track_running_stats=True)
  (2): ReLU(inplace=True)
  (3): Conv2d(20, 20, kernel_size=(4, 4), stride=(2, 2), padding=(1, 1))
  (4): BatchNorm2d(20, eps=20, momentum=0.1, affine=True, track_running_stats=True)
  (5): ReLU(inplace=True)
  (6): Conv2d(20, 20, kernel_size=(4, 4), stride=(2, 2), padding=(1, 1))
  (7): BatchNorm2d(20, eps=20, momentum=0.1, affine=True, track_running_stats=True)
  (8): ReLU(inplace=True)
  (9): Flatten()
  (10): ODEBlock(
    (odefunc): ODEfunc(
      (fc1): Linear(in_features=980, out_features=16, bias=True)
      (fc2): Linear(in_features=16, out_features=980, bias=True)
    )
  )
  (11): Linear(in_features=980, out_features=10, bias=True)
)
Number of parameters: 55686
Number of parameters: 55686
Number of parameters: 55686
Number of parameters: 55686
Number of parameters: 55686
Number of parameters: 55686
Epoch 0000 | Time 0.475 (0.475) | NFE-F 32.0 | NFE-B 0.0 | Train Acc 0.1000 | Test Acc 0.1000
Epoch 0000 | Time 0.475 (0.475) | NFE-F 32.0 | NFE-B 0.0 | Train Acc 0.1000 | Test Acc 0.1000
…
                    )
                )
    names = []
    params = []
    for name,param in model.named_parameters():
        names.append(name)
        params.append(param.detach().numpy())
    nn1 = dict({'Wb':params,'names':names})
    for name,param in model.named_buffers():
        names.append(name)
        params.append(param.detach().numpy())
    savemat("odecnn_cifar_tiny.mat",nn1)
Namespace(adjoint=False, batch_size=128, data_aug=False, debug=False, downsampling_method='conv', gpu=0, lr=0.01, nepochs=200, network='odenet', save='../logs/cifartiny', test_batch_size=1000, tol=0.001)
Sequential(
  (0): Conv2d(3, 32, kernel_size=(3, 3), stride=(1, 1))
  (1): BatchNorm2d(32, eps=32, momentum=0.1, affine=True, track_running_stats=True)
  (2): ReLU(inplace=True)
  (3): Conv2d(32, 16, kernel_size=(4, 4), stride=(2, 2), padding=(1, 1))
  (4): BatchNorm2d(16, eps=16, momentum=0.1, affine=True, track_running_stats=True)
  (5): ReLU(inplace=True)
  (6): Conv2d(16, 16, kernel_size=(4, 4), stride=(2, 2), padding=(1, 1))
  (7): BatchNorm2d(16, eps=16, momentum=0.1, affine=True, track_running_stats=True)
  (8): ReLU(inplace=True)
  (9): Flatten()
  (10): ODEBlock(
    (odefunc): ODEfunc(
      (fc1): Linear(in_features=980, out_features=16, bias=True)
      (fc2): Linear(in_features=16, out_features=980, bias=True)
    )
  )
  (11): Linear(in_features=980, out_features=10, bias=True)
)
Number of parameters: 55510
/home/manzand/Documents/Python/neuralODE_examples/cifar/odenet_cifar_example_tiny.py
#!/usr/bin/env python3
# -*- coding: utf-8 -*-
"""
Created on Thu Feb  4 09:04:31 2021

@author: manzand
"""

#!/usr/bin/env python3
# -*- coding: utf-8 -*-
"""
Created on Tue Jan 19 15:10:31 2021

@author: manzand
"""

import os
import argparse
…
                    )
                )
    names = []
    params = []
    for name,param in model.named_parameters():
        names.append(name)
        params.append(param.detach().numpy())
    nn1 = dict({'Wb':params,'names':names})
    for name,param in model.named_buffers():
        names.append(name)
        params.append(param.detach().numpy())
    savemat("odecnn_cifar_tiny.mat",nn1)
Namespace(adjoint=False, batch_size=128, data_aug=False, debug=False, downsampling_method='conv', gpu=0, lr=0.01, nepochs=200, network='odenet', save='../logs/cifartiny', test_batch_size=1000, tol=0.001)
Sequential(
  (0): Conv2d(3, 32, kernel_size=(3, 3), stride=(1, 1))
  (1): BatchNorm2d(32, eps=32, momentum=0.1, affine=True, track_running_stats=True)
  (2): ReLU(inplace=True)
  (3): Conv2d(32, 16, kernel_size=(4, 4), stride=(2, 2), padding=(1, 1))
  (4): BatchNorm2d(16, eps=16, momentum=0.1, affine=True, track_running_stats=True)
  (5): ReLU(inplace=True)
  (6): Conv2d(16, 16, kernel_size=(4, 4), stride=(2, 2), padding=(1, 1))
  (7): BatchNorm2d(16, eps=16, momentum=0.1, affine=True, track_running_stats=True)
  (8): ReLU(inplace=True)
  (9): Flatten()
  (10): ODEBlock(
    (odefunc): ODEfunc(
      (fc1): Linear(in_features=784, out_features=16, bias=True)
      (fc2): Linear(in_features=16, out_features=784, bias=True)
    )
  )
  (11): Linear(in_features=784, out_features=10, bias=True)
)
Number of parameters: 47082
Epoch 0000 | Time 0.984 (0.984) | NFE-F 26.0 | NFE-B 0.0 | Train Acc 0.1000 | Test Acc 0.1000
Epoch 0001 | Time 0.630 (0.282) | NFE-F 20.5 | NFE-B 0.0 | Train Acc 0.1000 | Test Acc 0.1000
Epoch 0002 | Time 0.514 (0.246) | NFE-F 20.3 | NFE-B 0.0 | Train Acc 0.1000 | Test Acc 0.1000
Epoch 0003 | Time 0.462 (0.197) | NFE-F 20.2 | NFE-B 0.0 | Train Acc 0.1000 | Test Acc 0.1000
…
                    )
                )
    names = []
    params = []
    for name,param in model.named_parameters():
        names.append(name)
        params.append(param.detach().numpy())
    nn1 = dict({'Wb':params,'names':names})
    for name,param in model.named_buffers():
        names.append(name)
        params.append(param.detach().numpy())
    savemat("odecnn_cifar_mid.mat",nn1)
Namespace(adjoint=False, batch_size=128, data_aug=False, debug=False, downsampling_method='conv', gpu=0, lr=0.01, nepochs=100, network='odenet', save='../logs/cifarmid', test_batch_size=1000, tol=0.001)
Sequential(
  (0): Conv2d(3, 36, kernel_size=(3, 3), stride=(1, 1))
  (1): BatchNorm2d(36, eps=36, momentum=0.1, affine=True, track_running_stats=True)
  (2): ReLU(inplace=True)
  (3): Conv2d(36, 24, kernel_size=(4, 4), stride=(2, 2), padding=(1, 1))
  (4): BatchNorm2d(24, eps=24, momentum=0.1, affine=True, track_running_stats=True)
  (5): ReLU(inplace=True)
  (6): Conv2d(24, 16, kernel_size=(4, 4), stride=(2, 2), padding=(1, 1))
  (7): BatchNorm2d(16, eps=16, momentum=0.1, affine=True, track_running_stats=True)
  (8): ReLU(inplace=True)
  (9): Flatten()
  (10): ODEBlock(
    (odefunc): ODEfunc(
      (fc1): Linear(in_features=784, out_features=16, bias=True)
      (fc2): Linear(in_features=16, out_features=784, bias=True)
    )
  )
  (11): Linear(in_features=784, out_features=10, bias=True)
)
Number of parameters: 54906
Epoch 0000 | Time 0.226 (0.226) | NFE-F 26.0 | NFE-B 0.0 | Train Acc 0.1000 | Test Acc 0.1000
Epoch 0001 | Time 0.230 (0.109) | NFE-F 20.7 | NFE-B 0.0 | Train Acc 0.1000 | Test Acc 0.1000
Epoch 0002 | Time 0.229 (0.107) | NFE-F 21.0 | NFE-B 0.0 | Train Acc 0.1000 | Test Acc 0.1000
Epoch 0003 | Time 0.223 (0.109) | NFE-F 21.7 | NFE-B 0.0 | Train Acc 0.1000 | Test Acc 0.1000
…
                    )
                )
    names = []
    params = []
    for name,param in model.named_parameters():
        names.append(name)
        params.append(param.detach().numpy())
    nn1 = dict({'Wb':params,'names':names})
    for name,param in model.named_buffers():
        names.append(name)
        params.append(param.detach().numpy())
    savemat("odecnn_cifar_mid.mat",nn1)
Namespace(adjoint=False, batch_size=128, data_aug=False, debug=False, downsampling_method='conv', gpu=0, lr=0.01, nepochs=100, network='odenet', save='../logs/cifarmid', test_batch_size=1000, tol=0.001)
Sequential(
  (0): Conv2d(3, 32, kernel_size=(3, 3), stride=(1, 1))
  (1): BatchNorm2d(32, eps=32, momentum=0.1, affine=True, track_running_stats=True)
  (2): ReLU(inplace=True)
  (3): Conv2d(32, 64, kernel_size=(4, 4), stride=(2, 2), padding=(1, 1))
  (4): BatchNorm2d(64, eps=64, momentum=0.1, affine=True, track_running_stats=True)
  (5): ReLU(inplace=True)
  (6): Conv2d(64, 128, kernel_size=(4, 4), stride=(2, 2), padding=(1, 1))
  (7): BatchNorm2d(64, eps=128, momentum=0.1, affine=True, track_running_stats=True)
  (8): ReLU(inplace=True)
  (9): Flatten()
  (10): ODEBlock(
    (odefunc): ODEfunc(
      (fc1): Linear(in_features=784, out_features=16, bias=True)
      (fc2): Linear(in_features=16, out_features=784, bias=True)
    )
  )
  (11): Linear(in_features=784, out_features=10, bias=True)
)
Number of parameters: 198986
/home/manzand/Documents/Python/neuralODE_examples/cifar/odenet_cifar_example.py
#!/usr/bin/env python3
# -*- coding: utf-8 -*-
"""
Created on Tue Jan 19 15:10:31 2021

@author: manzand
"""

import os
import argparse
import logging
import time
import numpy as np
import torch
import torch.nn as nn
from torch.utils.data import DataLoader
…
                    )
                )
    names = []
    params = []
    for name,param in model.named_parameters():
        names.append(name)
        params.append(param.detach().numpy())
    nn1 = dict({'Wb':params,'names':names})
    for name,param in model.named_buffers():
        names.append(name)
        params.append(param.detach().numpy())
    savemat("odecnn_cifar_mid.mat",nn1)
Namespace(adjoint=False, batch_size=128, data_aug=False, debug=False, downsampling_method='conv', gpu=0, lr=0.01, nepochs=100, network='odenet', save='../logs/cifarmid', test_batch_size=1000, tol=0.001)
Sequential(
  (0): Conv2d(3, 32, kernel_size=(3, 3), stride=(1, 1))
  (1): BatchNorm2d(32, eps=32, momentum=0.1, affine=True, track_running_stats=True)
  (2): ReLU(inplace=True)
  (3): Conv2d(32, 64, kernel_size=(4, 4), stride=(2, 2), padding=(1, 1))
  (4): BatchNorm2d(64, eps=64, momentum=0.1, affine=True, track_running_stats=True)
  (5): ReLU(inplace=True)
  (6): Conv2d(64, 64, kernel_size=(4, 4), stride=(2, 2), padding=(1, 1))
  (7): BatchNorm2d(64, eps=64, momentum=0.1, affine=True, track_running_stats=True)
  (8): ReLU(inplace=True)
  (9): Flatten()
  (10): ODEBlock(
    (odefunc): ODEfunc(
      (fc1): Linear(in_features=784, out_features=16, bias=True)
      (fc2): Linear(in_features=16, out_features=784, bias=True)
    )
  )
  (11): Linear(in_features=784, out_features=10, bias=True)
)
Number of parameters: 133386
/home/manzand/Documents/Python/neuralODE_examples/cifar/odenet_cifar_example.py
#!/usr/bin/env python3
# -*- coding: utf-8 -*-
"""
Created on Tue Jan 19 15:10:31 2021

@author: manzand
"""

import os
import argparse
import logging
import time
import numpy as np
import torch
import torch.nn as nn
from torch.utils.data import DataLoader
…
                    )
                )
    names = []
    params = []
    for name,param in model.named_parameters():
        names.append(name)
        params.append(param.detach().numpy())
    nn1 = dict({'Wb':params,'names':names})
    for name,param in model.named_buffers():
        names.append(name)
        params.append(param.detach().numpy())
    savemat("odecnn_cifar_mid.mat",nn1)
Namespace(adjoint=False, batch_size=128, data_aug=False, debug=False, downsampling_method='conv', gpu=0, lr=0.01, nepochs=100, network='odenet', save='../logs/cifarmid', test_batch_size=1000, tol=0.001)
Sequential(
  (0): Conv2d(3, 32, kernel_size=(3, 3), stride=(1, 1))
  (1): BatchNorm2d(32, eps=32, momentum=0.1, affine=True, track_running_stats=True)
  (2): ReLU(inplace=True)
  (3): Conv2d(32, 64, kernel_size=(4, 4), stride=(2, 2), padding=(1, 1))
  (4): BatchNorm2d(64, eps=64, momentum=0.1, affine=True, track_running_stats=True)
  (5): ReLU(inplace=True)
  (6): Conv2d(64, 64, kernel_size=(4, 4), stride=(2, 2), padding=(1, 1))
  (7): BatchNorm2d(64, eps=64, momentum=0.1, affine=True, track_running_stats=True)
  (8): ReLU(inplace=True)
  (9): Flatten()
  (10): ODEBlock(
    (odefunc): ODEfunc(
      (fc1): Linear(in_features=3136, out_features=16, bias=True)
      (fc2): Linear(in_features=16, out_features=3136, bias=True)
    )
  )
  (11): Linear(in_features=3136, out_features=10, bias=True)
)
Number of parameters: 234522
Epoch 0000 | Time 1.016 (1.016) | NFE-F 32.0 | NFE-B 0.0 | Train Acc 0.1000 | Test Acc 0.1000
Epoch 0001 | Time 1.027 (0.675) | NFE-F 21.5 | NFE-B 0.0 | Train Acc 0.1000 | Test Acc 0.1000
Epoch 0002 | Time 0.960 (0.625) | NFE-F 20.3 | NFE-B 0.0 | Train Acc 0.1000 | Test Acc 0.1000
Epoch 0003 | Time 0.949 (0.632) | NFE-F 20.2 | NFE-B 0.0 | Train Acc 0.1000 | Test Acc 0.1000
…
                    )
                )
    names = []
    params = []
    for name,param in model.named_parameters():
        names.append(name)
        params.append(param.detach().numpy())
    nn1 = dict({'Wb':params,'names':names})
    for name,param in model.named_buffers():
        names.append(name)
        params.append(param.detach().numpy())
    savemat("odecnn_cifar_tiny.mat",nn1)
Namespace(adjoint=False, batch_size=128, data_aug=False, debug=False, downsampling_method='conv', gpu=0, lr=0.01, nepochs=200, network='odenet', save='../logs/cifartiny', test_batch_size=1000, tol=0.001)
Sequential(
  (0): Conv2d(3, 32, kernel_size=(3, 3), stride=(1, 1))
  (1): BatchNorm2d(32, eps=32, momentum=0.1, affine=True, track_running_stats=True)
  (2): ReLU(inplace=True)
  (3): Conv2d(32, 16, kernel_size=(4, 4), stride=(2, 2), padding=(1, 1))
  (4): BatchNorm2d(16, eps=16, momentum=0.1, affine=True, track_running_stats=True)
  (5): ReLU(inplace=True)
  (6): Conv2d(16, 16, kernel_size=(4, 4), stride=(2, 2), padding=(1, 1))
  (7): BatchNorm2d(16, eps=16, momentum=0.1, affine=True, track_running_stats=True)
  (8): ReLU(inplace=True)
  (9): Conv2d(16, 16, kernel_size=(4, 4), stride=(2, 2), padding=(1, 1))
  (10): BatchNorm2d(16, eps=16, momentum=0.1, affine=True, track_running_stats=True)
  (11): ReLU(inplace=True)
  (12): Conv2d(16, 16, kernel_size=(4, 4), stride=(2, 2), padding=(1, 1))
  (13): BatchNorm2d(16, eps=16, momentum=0.1, affine=True, track_running_stats=True)
  (14): ReLU(inplace=True)
  (15): Flatten()
  (16): ODEBlock(
    (odefunc): ODEfunc(
      (fc1): Linear(in_features=784, out_features=16, bias=True)
      (fc2): Linear(in_features=16, out_features=784, bias=True)
    )
  )
  (17): Linear(in_features=784, out_features=10, bias=True)
)
Number of parameters: 55370
/home/manzand/Documents/Python/neuralODE_examples/cifar/odenet_cifar_example_tiny.py
/home/manzand/Documents/Python/neuralODE_examples/cifar/odenet_cifar_example_tiny.py
#!/usr/bin/env python3
# -*- coding: utf-8 -*-
"""
Created on Thu Feb  4 09:04:31 2021

@author: manzand
"""

#!/usr/bin/env python3
# -*- coding: utf-8 -*-
…
    nn1 = dict({'Wb':params,'names':names})
    for name,param in model.named_buffers():
        names.append(name)
        params.append(param.detach().numpy())
    savemat("odecnn_cifar_tiny.mat",nn1)
Namespace(adjoint=False, batch_size=128, data_aug=False, debug=False, downsampling_method='conv', gpu=0, lr=0.01, nepochs=200, network='odenet', save='../logs/cifartiny', test_batch_size=1000, tol=0.001)
Namespace(adjoint=False, batch_size=128, data_aug=False, debug=False, downsampling_method='conv', gpu=0, lr=0.01, nepochs=200, network='odenet', save='../logs/cifartiny', test_batch_size=1000, tol=0.001)
Sequential(
  (0): Conv2d(3, 32, kernel_size=(3, 3), stride=(1, 1))
  (1): BatchNorm2d(32, eps=32, momentum=0.1, affine=True, track_running_stats=True)
  (2): ReLU(inplace=True)
  (3): Conv2d(32, 16, kernel_size=(4, 4), stride=(2, 2), padding=(1, 1))
  (4): BatchNorm2d(16, eps=16, momentum=0.1, affine=True, track_running_stats=True)
  (5): ReLU(inplace=True)
  (6): Conv2d(16, 16, kernel_size=(4, 4), stride=(2, 2), padding=(1, 1))
  (7): BatchNorm2d(16, eps=16, momentum=0.1, affine=True, track_running_stats=True)
  (8): ReLU(inplace=True)
  (9): Conv2d(16, 16, kernel_size=(4, 4), stride=(2, 2), padding=(1, 1))
  (10): BatchNorm2d(16, eps=16, momentum=0.1, affine=True, track_running_stats=True)
  (11): ReLU(inplace=True)
  (12): Conv2d(16, 16, kernel_size=(4, 4), stride=(2, 2), padding=(1, 1))
  (13): BatchNorm2d(16, eps=16, momentum=0.1, affine=True, track_running_stats=True)
  (14): ReLU(inplace=True)
  (15): Flatten()
  (16): ODEBlock(
    (odefunc): ODEfunc(
      (fc1): Linear(in_features=16, out_features=16, bias=True)
      (fc2): Linear(in_features=16, out_features=16, bias=True)
    )
  )
  (17): Linear(in_features=16, out_features=10, bias=True)
)
Sequential(
  (0): Conv2d(3, 32, kernel_size=(3, 3), stride=(1, 1))
  (1): BatchNorm2d(32, eps=32, momentum=0.1, affine=True, track_running_stats=True)
  (2): ReLU(inplace=True)
  (3): Conv2d(32, 16, kernel_size=(4, 4), stride=(2, 2), padding=(1, 1))
  (4): BatchNorm2d(16, eps=16, momentum=0.1, affine=True, track_running_stats=True)
  (5): ReLU(inplace=True)
  (6): Conv2d(16, 16, kernel_size=(4, 4), stride=(2, 2), padding=(1, 1))
  (7): BatchNorm2d(16, eps=16, momentum=0.1, affine=True, track_running_stats=True)
  (8): ReLU(inplace=True)
  (9): Conv2d(16, 16, kernel_size=(4, 4), stride=(2, 2), padding=(1, 1))
  (10): BatchNorm2d(16, eps=16, momentum=0.1, affine=True, track_running_stats=True)
  (11): ReLU(inplace=True)
  (12): Conv2d(16, 16, kernel_size=(4, 4), stride=(2, 2), padding=(1, 1))
  (13): BatchNorm2d(16, eps=16, momentum=0.1, affine=True, track_running_stats=True)
  (14): ReLU(inplace=True)
  (15): Flatten()
  (16): ODEBlock(
    (odefunc): ODEfunc(
      (fc1): Linear(in_features=16, out_features=16, bias=True)
      (fc2): Linear(in_features=16, out_features=16, bias=True)
    )
  )
  (17): Linear(in_features=16, out_features=10, bias=True)
)
Number of parameters: 22346
Number of parameters: 22346
Epoch 0000 | Time 0.342 (0.342) | NFE-F 44.0 | NFE-B 0.0 | Train Acc 0.1000 | Test Acc 0.1000
Epoch 0000 | Time 0.342 (0.342) | NFE-F 44.0 | NFE-B 0.0 | Train Acc 0.1000 | Test Acc 0.1000
Epoch 0001 | Time 0.296 (0.099) | NFE-F 15.4 | NFE-B 0.0 | Train Acc 0.1000 | Test Acc 0.1000
Epoch 0001 | Time 0.296 (0.099) | NFE-F 15.4 | NFE-B 0.0 | Train Acc 0.1000 | Test Acc 0.1000
…
                    )
                )
    names = []
    params = []
    for name,param in model.named_parameters():
        names.append(name)
        params.append(param.detach().numpy())
    nn1 = dict({'Wb':params,'names':names})
    for name,param in model.named_buffers():
        names.append(name)
        params.append(param.detach().numpy())
    savemat("odecnn_cifar_tiny.mat",nn1)
Namespace(adjoint=False, batch_size=128, data_aug=False, debug=False, downsampling_method='conv', gpu=0, lr=0.001, nepochs=200, network='odenet', save='../logs/cifartiny', test_batch_size=1000, tol=0.001)
Sequential(
  (0): Conv2d(3, 32, kernel_size=(3, 3), stride=(1, 1))
  (1): BatchNorm2d(32, eps=32, momentum=0.1, affine=True, track_running_stats=True)
  (2): ReLU(inplace=True)
  (3): Conv2d(32, 16, kernel_size=(4, 4), stride=(2, 2), padding=(1, 1))
  (4): BatchNorm2d(16, eps=16, momentum=0.1, affine=True, track_running_stats=True)
  (5): ReLU(inplace=True)
  (6): Conv2d(16, 16, kernel_size=(4, 4), stride=(2, 2), padding=(1, 1))
  (7): BatchNorm2d(16, eps=16, momentum=0.1, affine=True, track_running_stats=True)
  (8): ReLU(inplace=True)
  (9): Conv2d(16, 16, kernel_size=(4, 4), stride=(2, 2), padding=(1, 1))
  (10): BatchNorm2d(16, eps=16, momentum=0.1, affine=True, track_running_stats=True)
  (11): ReLU(inplace=True)
  (12): Conv2d(16, 16, kernel_size=(4, 4), stride=(2, 2), padding=(1, 1))
  (13): BatchNorm2d(16, eps=16, momentum=0.1, affine=True, track_running_stats=True)
  (14): ReLU(inplace=True)
  (15): Flatten()
  (16): ODEBlock(
    (odefunc): ODEfunc(
      (fc1): Linear(in_features=16, out_features=16, bias=True)
      (fc2): Linear(in_features=16, out_features=16, bias=True)
    )
  )
  (17): Linear(in_features=16, out_features=10, bias=True)
)
Number of parameters: 22346
Epoch 0000 | Time 0.355 (0.355) | NFE-F 44.0 | NFE-B 0.0 | Train Acc 0.1000 | Test Acc 0.1000
Epoch 0001 | Time 0.335 (0.145) | NFE-F 17.8 | NFE-B 0.0 | Train Acc 0.1000 | Test Acc 0.1000
Epoch 0002 | Time 0.272 (0.134) | NFE-F 14.2 | NFE-B 0.0 | Train Acc 0.1000 | Test Acc 0.1000
Epoch 0003 | Time 0.321 (0.136) | NFE-F 14.2 | NFE-B 0.0 | Train Acc 0.1000 | Test Acc 0.1000
…
                    )
                )
    names = []
    params = []
    for name,param in model.named_parameters():
        names.append(name)
        params.append(param.detach().numpy())
    nn1 = dict({'Wb':params,'names':names})
    for name,param in model.named_buffers():
        names.append(name)
        params.append(param.detach().numpy())
    savemat("odecnn_cifar_tiny.mat",nn1)
Namespace(adjoint=False, batch_size=128, data_aug=False, debug=False, downsampling_method='conv', gpu=0, lr=0.001, nepochs=200, network='odenet', save='../logs/cifartiny', test_batch_size=1000, tol=0.001)
Sequential(
  (0): Conv2d(3, 32, kernel_size=(3, 3), stride=(1, 1))
  (1): BatchNorm2d(32, eps=32, momentum=0.1, affine=True, track_running_stats=True)
  (2): ReLU(inplace=True)
  (3): Conv2d(32, 16, kernel_size=(4, 4), stride=(2, 2), padding=(1, 1))
  (4): BatchNorm2d(16, eps=16, momentum=0.1, affine=True, track_running_stats=True)
  (5): ReLU(inplace=True)
  (6): Flatten()
  (7): ODEBlock(
    (odefunc): ODEfunc(
      (fc1): Linear(in_features=16, out_features=16, bias=True)
      (fc2): Linear(in_features=16, out_features=16, bias=True)
    )
  )
  (8): Linear(in_features=16, out_features=10, bias=True)
)
Number of parameters: 9914
/home/manzand/Documents/Python/neuralODE_examples/cifar/odenet_cifar_example_tiny.py
#!/usr/bin/env python3
# -*- coding: utf-8 -*-
"""
Created on Thu Feb  4 09:04:31 2021

@author: manzand
"""

#!/usr/bin/env python3
# -*- coding: utf-8 -*-
"""
Created on Tue Jan 19 15:10:31 2021

@author: manzand
"""

import os
import argparse
…
                    )
                )
    names = []
    params = []
    for name,param in model.named_parameters():
        names.append(name)
        params.append(param.detach().numpy())
    nn1 = dict({'Wb':params,'names':names})
    for name,param in model.named_buffers():
        names.append(name)
        params.append(param.detach().numpy())
    savemat("odecnn_cifar_tiny.mat",nn1)
Namespace(adjoint=False, batch_size=128, data_aug=False, debug=False, downsampling_method='conv', gpu=0, lr=0.001, nepochs=200, network='odenet', save='../logs/cifartiny', test_batch_size=1000, tol=0.001)
Sequential(
  (0): Conv2d(3, 32, kernel_size=(3, 3), stride=(1, 1))
  (1): BatchNorm2d(32, eps=32, momentum=0.1, affine=True, track_running_stats=True)
  (2): ReLU(inplace=True)
  (3): Conv2d(32, 16, kernel_size=(4, 4), stride=(2, 2), padding=(1, 1))
  (4): BatchNorm2d(16, eps=16, momentum=0.1, affine=True, track_running_stats=True)
  (5): ReLU(inplace=True)
  (6): Flatten()
  (7): ODEBlock(
    (odefunc): ODEfunc(
      (fc1): Linear(in_features=3600, out_features=16, bias=True)
      (fc2): Linear(in_features=16, out_features=3600, bias=True)
    )
  )
  (8): Linear(in_features=3600, out_features=10, bias=True)
)
Number of parameters: 164026
Epoch 0000 | Time 0.993 (0.993) | NFE-F 20.0 | NFE-B 0.0 | Train Acc 0.1000 | Test Acc 0.1000
Epoch 0001 | Time 0.563 (0.599) | NFE-F 20.2 | NFE-B 0.0 | Train Acc 0.1000 | Test Acc 0.1000
Epoch 0002 | Time 0.705 (0.426) | NFE-F 20.2 | NFE-B 0.0 | Train Acc 0.1000 | Test Acc 0.1000
Epoch 0003 | Time 0.722 (0.470) | NFE-F 20.2 | NFE-B 0.0 | Train Acc 0.1000 | Test Acc 0.1000
…
    nn1 = dict({'Wb':params,'names':names})
    for name,param in model.named_buffers():
        names.append(name)
        params.append(param.detach().numpy())
    savemat("odecnn_cifar_tiny.mat",nn1)
Namespace(adjoint=False, batch_size=128, data_aug=False, debug=False, downsampling_method='conv', gpu=0, lr=0.001, nepochs=200, network='odenet', save='../logs/cifartiny', test_batch_size=1000, tol=0.001)
Namespace(adjoint=False, batch_size=128, data_aug=False, debug=False, downsampling_method='conv', gpu=0, lr=0.001, nepochs=200, network='odenet', save='../logs/cifartiny', test_batch_size=1000, tol=0.001)
Sequential(
  (0): Conv2d(3, 64, kernel_size=(3, 3), stride=(1, 1))
  (1): BatchNorm2d(64, eps=64, momentum=0.1, affine=True, track_running_stats=True)
  (2): ReLU(inplace=True)
  (3): Conv2d(64, 64, kernel_size=(4, 4), stride=(2, 2), padding=(1, 1))
  (4): BatchNorm2d(64, eps=64, momentum=0.1, affine=True, track_running_stats=True)
  (5): ReLU(inplace=True)
  (6): Flatten()
  (7): ODEBlock(
    (odefunc): ODEfunc(
      (fc1): Linear(in_features=3600, out_features=16, bias=True)
      (fc2): Linear(in_features=16, out_features=3600, bias=True)
    )
  )
  (8): Linear(in_features=3600, out_features=10, bias=True)
)
Sequential(
  (0): Conv2d(3, 64, kernel_size=(3, 3), stride=(1, 1))
  (1): BatchNorm2d(64, eps=64, momentum=0.1, affine=True, track_running_stats=True)
  (2): ReLU(inplace=True)
  (3): Conv2d(64, 64, kernel_size=(4, 4), stride=(2, 2), padding=(1, 1))
  (4): BatchNorm2d(64, eps=64, momentum=0.1, affine=True, track_running_stats=True)
  (5): ReLU(inplace=True)
  (6): Flatten()
  (7): ODEBlock(
    (odefunc): ODEfunc(
      (fc1): Linear(in_features=3600, out_features=16, bias=True)
      (fc2): Linear(in_features=16, out_features=3600, bias=True)
    )
  )
  (8): Linear(in_features=3600, out_features=10, bias=True)
)
Number of parameters: 222474
Number of parameters: 222474
/home/manzand/Documents/Python/neuralODE_examples/cifar/odenet_cifar_example_tiny.py
/home/manzand/Documents/Python/neuralODE_examples/cifar/odenet_cifar_example_tiny.py
/home/manzand/Documents/Python/neuralODE_examples/cifar/odenet_cifar_example_tiny.py
#!/usr/bin/env python3
# -*- coding: utf-8 -*-
…
Namespace(adjoint=False, batch_size=128, data_aug=False, debug=False, downsampling_method='conv', gpu=0, lr=0.001, nepochs=200, network='odenet', save='../logs/cifartiny', test_batch_size=1000, tol=0.001)
Namespace(adjoint=False, batch_size=128, data_aug=False, debug=False, downsampling_method='conv', gpu=0, lr=0.001, nepochs=200, network='odenet', save='../logs/cifartiny', test_batch_size=1000, tol=0.001)
Namespace(adjoint=False, batch_size=128, data_aug=False, debug=False, downsampling_method='conv', gpu=0, lr=0.001, nepochs=200, network='odenet', save='../logs/cifartiny', test_batch_size=1000, tol=0.001)
Sequential(
  (0): Conv2d(3, 64, kernel_size=(3, 3), stride=(1, 1))
  (1): BatchNorm2d(64, eps=64, momentum=0.1, affine=True, track_running_stats=True)
  (2): ReLU(inplace=True)
  (3): Conv2d(64, 64, kernel_size=(4, 4), stride=(2, 2), padding=(1, 1))
  (4): BatchNorm2d(64, eps=64, momentum=0.1, affine=True, track_running_stats=True)
  (5): ReLU(inplace=True)
  (6): Flatten()
  (7): ODEBlock(
    (odefunc): ODEfunc(
      (fc1): Linear(in_features=14400, out_features=16, bias=True)
      (fc2): Linear(in_features=16, out_features=14400, bias=True)
    )
  )
  (8): Linear(in_features=14400, out_features=10, bias=True)
)
Sequential(
  (0): Conv2d(3, 64, kernel_size=(3, 3), stride=(1, 1))
  (1): BatchNorm2d(64, eps=64, momentum=0.1, affine=True, track_running_stats=True)
  (2): ReLU(inplace=True)
  (3): Conv2d(64, 64, kernel_size=(4, 4), stride=(2, 2), padding=(1, 1))
  (4): BatchNorm2d(64, eps=64, momentum=0.1, affine=True, track_running_stats=True)
  (5): ReLU(inplace=True)
  (6): Flatten()
  (7): ODEBlock(
    (odefunc): ODEfunc(
      (fc1): Linear(in_features=14400, out_features=16, bias=True)
      (fc2): Linear(in_features=16, out_features=14400, bias=True)
    )
  )
  (8): Linear(in_features=14400, out_features=10, bias=True)
)
Sequential(
  (0): Conv2d(3, 64, kernel_size=(3, 3), stride=(1, 1))
  (1): BatchNorm2d(64, eps=64, momentum=0.1, affine=True, track_running_stats=True)
  (2): ReLU(inplace=True)
  (3): Conv2d(64, 64, kernel_size=(4, 4), stride=(2, 2), padding=(1, 1))
  (4): BatchNorm2d(64, eps=64, momentum=0.1, affine=True, track_running_stats=True)
  (5): ReLU(inplace=True)
  (6): Flatten()
  (7): ODEBlock(
    (odefunc): ODEfunc(
      (fc1): Linear(in_features=14400, out_features=16, bias=True)
      (fc2): Linear(in_features=16, out_features=14400, bias=True)
    )
  )
  (8): Linear(in_features=14400, out_features=10, bias=True)
)
Number of parameters: 686874
Number of parameters: 686874
Number of parameters: 686874
Epoch 0000 | Time 1.805 (1.805) | NFE-F 26.0 | NFE-B 0.0 | Train Acc 0.1000 | Test Acc 0.1000
Epoch 0000 | Time 1.805 (1.805) | NFE-F 26.0 | NFE-B 0.0 | Train Acc 0.1000 | Test Acc 0.1000
Epoch 0000 | Time 1.805 (1.805) | NFE-F 26.0 | NFE-B 0.0 | Train Acc 0.1000 | Test Acc 0.1000
…
Namespace(adjoint=False, batch_size=128, data_aug=False, debug=False, downsampling_method='conv', gpu=0, lr=0.01, nepochs=100, network='odenet', save='./experiment1', test_batch_size=1000, tol=0.001)
Namespace(adjoint=False, batch_size=128, data_aug=False, debug=False, downsampling_method='conv', gpu=0, lr=0.01, nepochs=100, network='odenet', save='./experiment1', test_batch_size=1000, tol=0.001)
Namespace(adjoint=False, batch_size=128, data_aug=False, debug=False, downsampling_method='conv', gpu=0, lr=0.01, nepochs=100, network='odenet', save='./experiment1', test_batch_size=1000, tol=0.001)
Sequential(
  (0): Conv2d(1, 16, kernel_size=(3, 3), stride=(1, 1))
  (1): BatchNorm2d(16, eps=16, momentum=0.1, affine=True, track_running_stats=True)
  (2): ReLU(inplace=True)
  (3): Conv2d(16, 16, kernel_size=(4, 4), stride=(2, 2), padding=(1, 1))
  (4): BatchNorm2d(16, eps=16, momentum=0.1, affine=True, track_running_stats=True)
  (5): ReLU(inplace=True)
  (6): Flatten()
  (7): ODEBlock(
    (odefunc): ODEfunc(
      (fc1): Linear(in_features=2704, out_features=10, bias=True)
      (fc2): Linear(in_features=10, out_features=2704, bias=True)
    )
  )
  (8): Linear(in_features=2704, out_features=10, bias=True)
)
Sequential(
  (0): Conv2d(1, 16, kernel_size=(3, 3), stride=(1, 1))
  (1): BatchNorm2d(16, eps=16, momentum=0.1, affine=True, track_running_stats=True)
  (2): ReLU(inplace=True)
  (3): Conv2d(16, 16, kernel_size=(4, 4), stride=(2, 2), padding=(1, 1))
  (4): BatchNorm2d(16, eps=16, momentum=0.1, affine=True, track_running_stats=True)
  (5): ReLU(inplace=True)
  (6): Flatten()
  (7): ODEBlock(
    (odefunc): ODEfunc(
      (fc1): Linear(in_features=2704, out_features=10, bias=True)
      (fc2): Linear(in_features=10, out_features=2704, bias=True)
    )
  )
  (8): Linear(in_features=2704, out_features=10, bias=True)
)
Sequential(
  (0): Conv2d(1, 16, kernel_size=(3, 3), stride=(1, 1))
  (1): BatchNorm2d(16, eps=16, momentum=0.1, affine=True, track_running_stats=True)
  (2): ReLU(inplace=True)
  (3): Conv2d(16, 16, kernel_size=(4, 4), stride=(2, 2), padding=(1, 1))
  (4): BatchNorm2d(16, eps=16, momentum=0.1, affine=True, track_running_stats=True)
  (5): ReLU(inplace=True)
  (6): Flatten()
  (7): ODEBlock(
    (odefunc): ODEfunc(
      (fc1): Linear(in_features=2704, out_features=10, bias=True)
      (fc2): Linear(in_features=10, out_features=2704, bias=True)
    )
  )
  (8): Linear(in_features=2704, out_features=10, bias=True)
)
Number of parameters: 88180
Number of parameters: 88180
Number of parameters: 88180
/home/manzand/Documents/Python/neuralODE_examples/gtsrb/odenet_gtsrb_example_small.py
/home/manzand/Documents/Python/neuralODE_examples/gtsrb/odenet_gtsrb_example_small.py
/home/manzand/Documents/Python/neuralODE_examples/gtsrb/odenet_gtsrb_example_small.py
#!/usr/bin/env python3
…
Namespace(adjoint=False, batch_size=128, data_aug=False, debug=False, downsampling_method='conv', gpu=0, lr=0.01, nepochs=100, network='odenet', save='./experiment1', test_batch_size=1000, tol=0.001)
Namespace(adjoint=False, batch_size=128, data_aug=False, debug=False, downsampling_method='conv', gpu=0, lr=0.01, nepochs=100, network='odenet', save='./experiment1', test_batch_size=1000, tol=0.001)
Namespace(adjoint=False, batch_size=128, data_aug=False, debug=False, downsampling_method='conv', gpu=0, lr=0.01, nepochs=100, network='odenet', save='./experiment1', test_batch_size=1000, tol=0.001)
Sequential(
  (0): Conv2d(3, 16, kernel_size=(3, 3), stride=(1, 1))
  (1): BatchNorm2d(16, eps=16, momentum=0.1, affine=True, track_running_stats=True)
  (2): ReLU(inplace=True)
  (3): Conv2d(16, 16, kernel_size=(4, 4), stride=(2, 2), padding=(1, 1))
  (4): BatchNorm2d(16, eps=16, momentum=0.1, affine=True, track_running_stats=True)
  (5): ReLU(inplace=True)
  (6): Flatten()
  (7): ODEBlock(
    (odefunc): ODEfunc(
      (fc1): Linear(in_features=2704, out_features=10, bias=True)
      (fc2): Linear(in_features=10, out_features=2704, bias=True)
    )
  )
  (8): Linear(in_features=2704, out_features=10, bias=True)
)
Sequential(
  (0): Conv2d(3, 16, kernel_size=(3, 3), stride=(1, 1))
  (1): BatchNorm2d(16, eps=16, momentum=0.1, affine=True, track_running_stats=True)
  (2): ReLU(inplace=True)
  (3): Conv2d(16, 16, kernel_size=(4, 4), stride=(2, 2), padding=(1, 1))
  (4): BatchNorm2d(16, eps=16, momentum=0.1, affine=True, track_running_stats=True)
  (5): ReLU(inplace=True)
  (6): Flatten()
  (7): ODEBlock(
    (odefunc): ODEfunc(
      (fc1): Linear(in_features=2704, out_features=10, bias=True)
      (fc2): Linear(in_features=10, out_features=2704, bias=True)
    )
  )
  (8): Linear(in_features=2704, out_features=10, bias=True)
)
Sequential(
  (0): Conv2d(3, 16, kernel_size=(3, 3), stride=(1, 1))
  (1): BatchNorm2d(16, eps=16, momentum=0.1, affine=True, track_running_stats=True)
  (2): ReLU(inplace=True)
  (3): Conv2d(16, 16, kernel_size=(4, 4), stride=(2, 2), padding=(1, 1))
  (4): BatchNorm2d(16, eps=16, momentum=0.1, affine=True, track_running_stats=True)
  (5): ReLU(inplace=True)
  (6): Flatten()
  (7): ODEBlock(
    (odefunc): ODEfunc(
      (fc1): Linear(in_features=2704, out_features=10, bias=True)
      (fc2): Linear(in_features=10, out_features=2704, bias=True)
    )
  )
  (8): Linear(in_features=2704, out_features=10, bias=True)
)
Number of parameters: 88468
Number of parameters: 88468
Number of parameters: 88468
/home/manzand/Documents/Python/neuralODE_examples/gtsrb/odenet_gtsrb_example_small.py
/home/manzand/Documents/Python/neuralODE_examples/gtsrb/odenet_gtsrb_example_small.py
/home/manzand/Documents/Python/neuralODE_examples/gtsrb/odenet_gtsrb_example_small.py
#!/usr/bin/env python3
…
Namespace(adjoint=False, batch_size=128, data_aug=False, debug=False, downsampling_method='conv', gpu=0, lr=0.01, nepochs=100, network='odenet', save='./experiment1', test_batch_size=1000, tol=0.001)
Namespace(adjoint=False, batch_size=128, data_aug=False, debug=False, downsampling_method='conv', gpu=0, lr=0.01, nepochs=100, network='odenet', save='./experiment1', test_batch_size=1000, tol=0.001)
Namespace(adjoint=False, batch_size=128, data_aug=False, debug=False, downsampling_method='conv', gpu=0, lr=0.01, nepochs=100, network='odenet', save='./experiment1', test_batch_size=1000, tol=0.001)
Sequential(
  (0): Conv2d(3, 16, kernel_size=(3, 3), stride=(1, 1))
  (1): BatchNorm2d(16, eps=16, momentum=0.1, affine=True, track_running_stats=True)
  (2): ReLU(inplace=True)
  (3): Conv2d(16, 16, kernel_size=(4, 4), stride=(2, 2), padding=(1, 1))
  (4): BatchNorm2d(16, eps=16, momentum=0.1, affine=True, track_running_stats=True)
  (5): ReLU(inplace=True)
  (6): Flatten()
  (7): ODEBlock(
    (odefunc): ODEfunc(
      (fc1): Linear(in_features=3600, out_features=10, bias=True)
      (fc2): Linear(in_features=10, out_features=3600, bias=True)
    )
  )
  (8): Linear(in_features=3600, out_features=10, bias=True)
)
Sequential(
  (0): Conv2d(3, 16, kernel_size=(3, 3), stride=(1, 1))
  (1): BatchNorm2d(16, eps=16, momentum=0.1, affine=True, track_running_stats=True)
  (2): ReLU(inplace=True)
  (3): Conv2d(16, 16, kernel_size=(4, 4), stride=(2, 2), padding=(1, 1))
  (4): BatchNorm2d(16, eps=16, momentum=0.1, affine=True, track_running_stats=True)
  (5): ReLU(inplace=True)
  (6): Flatten()
  (7): ODEBlock(
    (odefunc): ODEfunc(
      (fc1): Linear(in_features=3600, out_features=10, bias=True)
      (fc2): Linear(in_features=10, out_features=3600, bias=True)
    )
  )
  (8): Linear(in_features=3600, out_features=10, bias=True)
)
Sequential(
  (0): Conv2d(3, 16, kernel_size=(3, 3), stride=(1, 1))
  (1): BatchNorm2d(16, eps=16, momentum=0.1, affine=True, track_running_stats=True)
  (2): ReLU(inplace=True)
  (3): Conv2d(16, 16, kernel_size=(4, 4), stride=(2, 2), padding=(1, 1))
  (4): BatchNorm2d(16, eps=16, momentum=0.1, affine=True, track_running_stats=True)
  (5): ReLU(inplace=True)
  (6): Flatten()
  (7): ODEBlock(
    (odefunc): ODEfunc(
      (fc1): Linear(in_features=3600, out_features=10, bias=True)
      (fc2): Linear(in_features=10, out_features=3600, bias=True)
    )
  )
  (8): Linear(in_features=3600, out_features=10, bias=True)
)
Number of parameters: 116244
Number of parameters: 116244
Number of parameters: 116244
/home/manzand/Documents/Python/neuralODE_examples/gtsrb/odenet_gtsrb_example_small.py
/home/manzand/Documents/Python/neuralODE_examples/gtsrb/odenet_gtsrb_example_small.py
/home/manzand/Documents/Python/neuralODE_examples/gtsrb/odenet_gtsrb_example_small.py
#!/usr/bin/env python3
…
Namespace(adjoint=False, batch_size=128, data_aug=False, debug=False, downsampling_method='conv', gpu=0, lr=0.01, nepochs=100, network='odenet', save='./experiment1', test_batch_size=1000, tol=0.001)
Namespace(adjoint=False, batch_size=128, data_aug=False, debug=False, downsampling_method='conv', gpu=0, lr=0.01, nepochs=100, network='odenet', save='./experiment1', test_batch_size=1000, tol=0.001)
Namespace(adjoint=False, batch_size=128, data_aug=False, debug=False, downsampling_method='conv', gpu=0, lr=0.01, nepochs=100, network='odenet', save='./experiment1', test_batch_size=1000, tol=0.001)
Sequential(
  (0): Conv2d(3, 16, kernel_size=(3, 3), stride=(1, 1))
  (1): BatchNorm2d(16, eps=16, momentum=0.1, affine=True, track_running_stats=True)
  (2): ReLU(inplace=True)
  (3): Conv2d(16, 16, kernel_size=(4, 4), stride=(2, 2), padding=(1, 1))
  (4): BatchNorm2d(16, eps=16, momentum=0.1, affine=True, track_running_stats=True)
  (5): ReLU(inplace=True)
  (6): Flatten()
  (7): ODEBlock(
    (odefunc): ODEfunc(
      (fc1): Linear(in_features=3600, out_features=10, bias=True)
      (fc2): Linear(in_features=10, out_features=3600, bias=True)
    )
  )
  (8): Linear(in_features=3600, out_features=42, bias=True)
)
Sequential(
  (0): Conv2d(3, 16, kernel_size=(3, 3), stride=(1, 1))
  (1): BatchNorm2d(16, eps=16, momentum=0.1, affine=True, track_running_stats=True)
  (2): ReLU(inplace=True)
  (3): Conv2d(16, 16, kernel_size=(4, 4), stride=(2, 2), padding=(1, 1))
  (4): BatchNorm2d(16, eps=16, momentum=0.1, affine=True, track_running_stats=True)
  (5): ReLU(inplace=True)
  (6): Flatten()
  (7): ODEBlock(
    (odefunc): ODEfunc(
      (fc1): Linear(in_features=3600, out_features=10, bias=True)
      (fc2): Linear(in_features=10, out_features=3600, bias=True)
    )
  )
  (8): Linear(in_features=3600, out_features=42, bias=True)
)
Sequential(
  (0): Conv2d(3, 16, kernel_size=(3, 3), stride=(1, 1))
  (1): BatchNorm2d(16, eps=16, momentum=0.1, affine=True, track_running_stats=True)
  (2): ReLU(inplace=True)
  (3): Conv2d(16, 16, kernel_size=(4, 4), stride=(2, 2), padding=(1, 1))
  (4): BatchNorm2d(16, eps=16, momentum=0.1, affine=True, track_running_stats=True)
  (5): ReLU(inplace=True)
  (6): Flatten()
  (7): ODEBlock(
    (odefunc): ODEfunc(
      (fc1): Linear(in_features=3600, out_features=10, bias=True)
      (fc2): Linear(in_features=10, out_features=3600, bias=True)
    )
  )
  (8): Linear(in_features=3600, out_features=42, bias=True)
)
Number of parameters: 231476
Number of parameters: 231476
Number of parameters: 231476
Epoch 0000 | Time 0.636 (0.636) | NFE-F 20.0 | NFE-B 0.0 | Train Acc 0.0000 | Test Acc 0.0000
Epoch 0000 | Time 0.636 (0.636) | NFE-F 20.0 | NFE-B 0.0 | Train Acc 0.0000 | Test Acc 0.0000
Epoch 0000 | Time 0.636 (0.636) | NFE-F 20.0 | NFE-B 0.0 | Train Acc 0.0000 | Test Acc 0.0000
